FPS AI/results/1/FPS Agent/FPS Agent-2124985.onnx (onnx, 263358 bytes, 9 tensors)

action_model._continuous_distribution.log_sigma f4 [1, 3]
00000000: cbcd 0abe c441 23bc cbde 52be
-0.13555066 -0.00996441 -0.20592801

action_model._continuous_distribution.mu.bias f4 [3]
00000000: f2f5 1d3c a3a0 21bc c0b4 8b3c
0.009641157 -0.009864959 0.017053962

action_model._continuous_distribution.mu.weight f4 [3, 128]
00000000: 4181 e43c c025 13bb 3b09 933c 5a1c 3a3c
00000010: dccb 34bb 00b8 84bc 5301 933c 9052 d13b
00000020: 9cbd 75bc 857f 5dbd 9d4f bd3b 15d1 9c3c
00000030: 6b93 cabc e5c7 65bb 4ae5 7dbc 83a1 a0ba
00000040: 064d c03a e7c4 153d 11bf 61bc a798 e0bc
00000050: 7b79 0c3d d572 163c a993 973b 1419 353c
00000060: 4d60 993c 965d 043b 9981 1b3c 7641 3d3c
00000070: b4a7 99bc 4a60 093d 9352 823c ae96 433c
00000080: 8333 1f3c e4cd 533c bce3 363d f786 16bc
00000090: 48b8 3c3d d724 cabc 9abc 5bbb 77b4 28bc
000000a0: 4fbf 0cbb 69cc cbbc 008d 5a3b fe86 04bd
000000b0: a644 0ebc 6397 ebbb 86fe c53c 7942 b13c
000000c0: 6be6 4b3c 525f 85bc db90 8dbc 679b cf3c
000000d0: bb21 203a 9c0d e23c 48a6 17bd 46dd e6bb
000000e0: b61a ed3c 4df3 0a3b b23d abbc 6e30 1a3d
000000f0: 2ccf 0abd 569f 82bc 834a 30bc a6a9 743c
00000100: ea97 0f3b ae97 95bc 21c0 013c 0c71 e3bc
00000110: 75f1 58b9 507f 2e3c b302 313c 4276 c9bc
00000120: 63a4 003c c99a a0bb 9fb6 97bb eb70 08bd
00000130: f3c4 53bd 697f 77bc cc83 e5bb 3321 0ebd
00000140: 0cc2 48bc 1505 d43a f489 8f3b b378 113c
00000150: 9203 373b 3edb 333d f6c5 43bc 6ca9 da3b
00000160: cfd0 c93a bed0 54bb 61fa 8ebc 8ac3 c33c
00000170: 5c89 8c3d 67de 813c 4e49 1c3b a4b6 4b3c
00000180: 0fee 42bc 076f 8abd 23c5 3dba eee0 c03b
00000190: 8485 2dbb 662a c9bc 4134 b6bc 6216 0a3d
000001a0: 3ad0 25bd 2e69 043d d88b e1bc 97a6 89bc
000001b0: 3fa4 f8bc 2259 943c 8bfb 00bd ac9e d8bc
000001c0: 46f7 7ebc 7cd9 653d 3092 c6bc 7d00 da3c
000001d0: 2e4c 923c bed0 bebc 3d8b 2cbc 7791 8dbc
000001e0: 7997 95bc 40dc b3bb 4e14 debc e550 4ebc
000001f0: 9b1b dabc 330a 5dbc 3817 c5ba 5408 e33a
00000200: 1cc8 1d3b 992f 263a f694 6ebb c5db 1f3c
00000210: 0e56 a83c c3c3 33bc 7fe4 19bc 8170 bdbc
00000220: 0c3e 073d d9c2 7c3c bdf6 81bc 7388 883c
00000230: cc9e c73c 14fc c3bc d243 a33d e35c b83b
00000240: 19b0 503b beb5 23bd c0e3 963b 8f52 0b3c
00000250: ca36 393c e680 003d 94ca 223c c6a0 9f3c
00000260: 7f83 25bb d60c d1bb d9ef 5e3c cd7c dbbb
00000270: db70 fb3b 748c 1ebc f9af 74bb ded3 673c
00000280: 58a6 3b3c a67b 913c 7794 60bc 3d45 4fbd
00000290: 9bac 363c a330 0dbd 066e ecbb 87ad c9bc
000002a0: 2e2e 6ebc aadf 533c 05c1 b3bc f0bf 38bc
000002b0: 151f 3cbc d271 fabc 1e2f d43c 32a5 4bbc
000002c0: 0079 523c 88a2 47bc 20f1 debc 2dde 4fbc
000002d0: a55c a2bc 442a 683b 1e32 0ebc 46f9 fabc
000002e0: 7dc0 ec3b e47c 9b3b 1e8f 55bd 12dc 963d
000002f0: 7b14 6e3c 2deb ae3d 1b0c cdbc 3233 9a3c
00000300: 9187 153d e653 0c3d 255c 43bc 178d 19bc
00000310: d122 2dbd eb28 81bb c204 ab3c 4186 953c
00000320: 1d41 10bb b565 693d e638 b33c 1955 babb
00000330: c428 443d cfc6 2f3c d5d8 943c 9977 3abc
00000340: 854f b33d 9254 b63c 246e 123c db70 6cbc
00000350: ad8c 513c 29d2 013c 455e 833d 7a07 c83c
00000360: d458 fbbc 34e7 013b c42c 41bd 7a49 183d
00000370: 8153 e93d 5d88 90bc 933a 343c af47 12bd
00000380: 5fd0 edbc 5d84 223c b9f2 8dbc c240 ab3b
00000390: 19ce bbbc 1d86 4cbc 5c5d 95bc b318 0f3b
000003a0: 6a50 68bc a07d 54bc 5a46 8d3c 2ff6 8d3c
000003b0: 448b 3d3d 233f f0bb 2aff 873c 98ef 99ba
000003c0: ea1d 033d bc52 323d cd87 cfbc 0f8e 203b
000003d0: 7100 c9bc 7f9a 023c e357 443c 9dd5 49bb
000003e0: e8e7 2cbc 8eab 813b ffae 463c 9fa5 7c3a
000003f0: 7c2f 2ebd 3cc4 19bc fa96 7ab9 6ab9 67bb
0.027893664 -0.002245292 0.017948737 0.011359299 -0.002758733 -0.01620102 0.017944967 0.006388016
-0.01499882 -0.05407669 0.005777313 0.019142667 -0.024728497 -0.0035061773 -0.015496561 -0.0012255165
0.0014671392 0.036564734 -0.013778464 -0.02741654 0.03429554 0.0091826515 0.0046257568 0.011053342
0.018722678 0.0020197383 0.009491348 0.011551252 -0.018756725 0.033539094 0.015908515 0.01193778
0.009716871 0.012927506 0.04465078 -0.009187452 0.04607418 -0.02467577 -0.0033529163 -0.010296932
-0.0021476333 -0.024877744 0.0033348203 -0.0323553 -0.008683359 -0.0071896776 0.024169218 0.021638142
0.012445073 -0.016280804 -0.017280987 0.025342656 0.0006108542 0.02759438 -0.037023813 -0.007045421
0.0289434 0.0021202147 -0.020903442 0.037643842 -0.03388898 -0.015945118 -0.0107599525 0.014933025
0.0021910616 -0.018260803 0.007919342 -0.027763866 -0.00020689315 0.010650471 0.010803866 -0.024592523
0.007851693 -0.0049012643 -0.0046299244 -0.033310812 -0.051701497 -0.015106061 -0.007004237 -0.03469963
-0.012253296 0.0016175831 0.004380459 0.008878875 0.0027925712 0.043910258 -0.011949053 0.0066730287
0.0015397313 -0.0032473053 -0.017453374 0.023896951 0.06862137 0.01585312 0.0023847404 0.012433682
-0.011897578 -0.06759458 -0.00072391535 0.0058861887 -0.0026477287 -0.02455635 -0.022241713 0.033712752
-0.040481783 0.03232687 -0.027532503 -0.016803069 -0.030351756 0.018108908 -0.03148989 -0.026442848
-0.015561884 0.056115612 -0.02423963 0.026611561 0.01785859 -0.023292895 -0.010531244 -0.017281277
-0.018260704 -0.0054889023 -0.027109291 -0.012592529 -0.026624491 -0.013491201 -0.0015036827 0.0017321208
0.0024075573 0.000633949 -0.0036404706 0.009756987 0.020548847 -0.010971966 -0.009392857 -0.023124935
0.033018157 0.015427315 -0.015864724 0.016666627 0.024367712 -0.023923911 0.0797192 0.0056263073
0.0031843244 -0.039968245 0.0046047866 0.00850357 0.011304567 0.031372927 0.009935994 0.019485842
-0.002525538 -0.006379704 0.013606989 -0.006698227 0.0076733655 -0.009677041 -0.0037336333 0.014149634
0.011453234 0.017759155 -0.013707272 -0.05060314 0.011149551 -0.03447021 -0.0072152643 -0.024618877
-0.014537377 0.012931744 -0.021942625 -0.01127623 -0.01148202 -0.030571852 0.025901373 -0.012429522
0.012846231 -0.012184747 -0.027214587 -0.012687248 -0.019819567 0.0035425583 -0.008678941 -0.030636441
0.007225095 0.0047451127 -0.05213844 0.07366194 0.01453125 0.0854095 -0.025030186 0.01882324
0.03650624 0.0342597 -0.011923824 -0.009372017 -0.04226953 -0.0039416454 0.020876292 0.018252494
-0.0022011467 0.05698176 0.021877717 -0.005686414 0.04789044 0.010728552 0.0181698 -0.011381053
0.087554015 0.022257123 0.008937392 -0.014431204 0.012789887 0.007923641 0.06414465 0.024417628
-0.030682005 0.0019821646 -0.047161832 0.037179448 0.1139288 -0.017643148 0.011000293 -0.035712894
-0.029030023 0.009919253 -0.017327653 0.0052262256 -0.022925423 -0.012483147 -0.018232994 0.002183479
-0.014179328 -0.012969404 0.01724546 0.017329304 0.046275392 -0.0073317452 0.016601164 -0.0011744378
0.03201095 0.043535933 -0.02533331 0.0024498736 -0.024536343 0.007971405 0.011983844 -0.003079749
-0.010553338 0.0039572185 0.012126683 0.00096377166 -0.042525753 -0.009385165 -0.00023898101 -0.0035358318

action_model._discrete_distribution.branches.0.bias f4 [2]
00000000: ed15 7d3c e915 7dbc
0.015447122 -0.015447118

action_model._discrete_distribution.branches.0.weight f4 [2, 128]
00000000: c374 9a3b 517d 20bb e65a 44bc 3b22 8d3d
00000010: d1eb 233c 55a8 b9bb d5eb 313d d542 29bd
00000020: 9303 b8bd e9ad 87bd 58aa b93c 54d5 5fbb
00000030: f39a b83c aa6e 7fbc 9ef9 b8bc 98c7 ccbc
00000040: 8982 5a3c a8e5 9cbc f5cd 3abb 9ed2 d9bc
00000050: 63ec 1fbd 05f2 33bd f97e f63c d689 8f3d
00000060: 329e 5c3d cd41 bcbc 74d9 91bb 4727 50bc
00000070: 01ab 5bbb 4b99 ea3c c42a 46bc 2353 1abc
00000080: ac03 d43d 122e 723d 2bea 8c3d b0e9 043c
00000090: a2d6 09bc 8821 bcba 4690 5fbc d458 ed3b
000000a0: 2dce 69bb 8542 f9bc e15d c6bc 54e6 afbc
000000b0: 408c eabc bb6f 80bc ae17 4abc dcf6 363a
000000c0: 1af9 36bc 4371 13bd 9e6a 033d 9244 333c
000000d0: be2f 583b bb62 a53c 90fa 73bc 0b00 523c
000000e0: 4471 8b3d e6e6 bcba 0431 023c 00ca 81bc
000000f0: dad4 42bc a9af 823c 1b71 1b3c 7289 e4bc
00000100: 7a94 c23c 3ea9 96bc bd07 cf3c 8933 a3bc
00000110: da08 583d 112a c23c d582 9f3b 4eb8 00bc
00000120: e0dd b63a 98e5 393c 703b 853c 79bd afbc
00000130: f102 543d 36fd 9abc 457e 88bc 5538 023d
00000140: cc27 a1bc ced7 b6bd 5f2b 493c 375d a83d
00000150: d404 9ebb 0a40 d33d aefb ccbd 6fef 933b
00000160: 7407 11bc 578e eabc 7849 4ebb bfa9 22bd
00000170: 3570 ccbc f6b6 e43b e7b7 133c abf6 3d3d
00000180: 1f27 5c3d 51ba 53bd 69d0 4b3c 66dd a8bc
00000190: 1f7a ccbb 9861 5b3c 8cc1 b73c 69cd 313c
000001a0: 561e 40bd 6b35 78bc e24f 6f3d 7a98 9b3a
000001b0: 8ba2 d73c 51ff eb3d 14bb cd3c 4e7f 2cbd
000001c0: 9306 023b 89c6 6ebc 7a32 48bc 214b e9bb
000001d0: 7558 d1bb 127e d73c 7adc fc3c b282 ffbc
000001e0: 37bd 503d 41fb 843d 6148 33bc 0825 9bbd
000001f0: 891f 023d 167f 0abd 8a98 9e3d d668 cd3d
00000200: 92ce 573c a505 f23a 8a0a 653c 1ba5 95bd
00000210: 54aa 84ba 964d 37bc 2ba5 54bd 73cb dd3c
00000220: 0dc0 d33d 0a76 713d 5477 64bd 8a5f a339
00000230: 9c14 1abc 4229 6e3c ed00 103c 046e 283d
00000240: 6e36 58bc 72bc 903c 5438 a8bc 8ad2 153d
00000250: ecf7 423d cbdf 4f3d b160 32bc 3e09 8abd
00000260: 6ef0 3dbd fa28 7c3b 01cc b43c 3e21 f43c
00000270: 0506 b43b 1651 0fbd 67b6 e23b 7a2b a2ba
00000280: 1d6e e0bd 4621 73bd 1988 35bd 576d b4bc
00000290: cf81 393b fff6 dbba 5171 b23c 34b5 1a3c
000002a0: 87ed 163c dbda 043d 3889 8abb bfec 2f3d
000002b0: ad76 c73c 831b 9a3c 96d6 143d 3f9f aabb
000002c0: 6854 cc3c a126 293d dd92 06bd e405 ebbc
000002d0: 165e 603a d664 0abc f76a aabb e6ce 60bc
000002e0: 39be 91bd 28b5 83b9 c0ac 763c 0343 963c
000002f0: 9bb9 73bc 235f 483c 6b49 c9bc af23 1a3d
00000300: 74cb 8e3b 8125 f53b 175b 90bb ac80 3a3c
00000310: 7af9 69bd f560 3cbd 770d db3b f67c 843c
00000320: c6e6 333b 543b 33bc be33 73bc 7dc2 b63c
00000330: 6119 eebc dce5 0dbb 8ffa f33c 52ed 25bd
00000340: dcbd bc3c 4d70 e83d 182c 1cbd 68c9 9fbd
00000350: 9b01 23bc ba36 c0bd 8176 dd3d ac4d 04bc
00000360: e584 a83b 9b1f c63c a7a3 e03b fec3 103d
00000370: d662 cc3c d689 c93b 8553 eebc d106 0cbd
00000380: c54f 58bd bebb 453d 14ae 92bb 55bd 243c
00000390: 6396 4f3a a2e4 05bd bbe2 22bd 51cb b43b
000003a0: db70 7b3d 71f0 e43c 15ec 4ebd 2b7f 11b9
000003b0: 1ab8 78bc 06da e0bd c6cb 11bd bd0b 0a3d
000003c0: 89d4 f53b 71f4 e53b 7f9d ee3a 67a3 ddba
000003d0: 64b9 d4bb 3e26 d5bc ec0b 0cbd 4719 383d
000003e0: fa61 28bd 508d 4ebd e5c2 a6bb 49c6 a73d
000003f0: 3458 c6bc 2293 153d 36c0 a4bd b5ba e0bd
0.004713626 -0.0024488757 -0.0119845625 0.068912946 0.0100049535 -0.0056658187 0.043437798 -0.0413235
-0.08985057 -0.066249676 0.022664234 -0.0034154253 0.022534823 -0.015590349 -0.022579964 -0.024997517
0.013336786 -0.019152477 -0.0028504108 -0.026589688 -0.039043795 -0.04393198 0.030089842 0.07008712
0.053861804 -0.022980595 -0.0044509713 -0.012704677 -0.0033518674 0.028637549 -0.012095157 -0.009419235
0.10352263 0.059125967 0.068806015 0.008112356 -0.008412989 -0.0014353255 -0.013645237 0.007243255
-0.003567587 -0.030427227 -0.024214687 -0.021472134 -0.02863133 -0.015678277 -0.012334747 0.0006979534
-0.011167789 -0.035996687 0.0320841 0.010941641 0.003298744 0.02018868 -0.014891282 0.012817393
0.06808713 -0.0014412075 0.007946257 -0.015843391 -0.011891568 0.015952902 0.009487416 -0.02789757
0.02375244 -0.018391248 0.025272245 -0.019922035 0.052742817 0.0237017 0.0048678913 -0.007856442
0.0013951622 0.011346243 0.016263694 -0.021452652 0.051760618 -0.018919569 -0.016661773 0.031792004
-0.019672297 -0.0892788 0.012278407 0.08220904 -0.004822353 0.10314949 -0.100089416 0.0045146267
-0.008851875 -0.028632326 -0.0031476896 -0.039712664 -0.024955848 0.0069798185 0.009016014 0.04637782
0.053748246 -0.051691357 0.012439826 -0.020613384 -0.006240144 0.013389967 0.022431158 0.010852196
-0.04690393 -0.015149455 0.05842579 0.0011871003 0.026322624 0.11523307 0.02511362 -0.042113595
0.0019840344 -0.014573702 -0.012219066 -0.0071195518 -0.0063887187 0.026305232 0.03086685 -0.03119025
0.0509617 0.064932354 -0.010942549 -0.075754225 0.031768356 -0.033812605 0.07743938 0.100297615
0.013171809 0.0018464817 0.0139795635 -0.07306882 -0.0010121563 -0.0111879315 -0.05191533 0.027074551
0.10339365 0.05895046 -0.055777863 0.00031160965 -0.009404328 0.014536204 0.008789283 0.041120544
-0.013196571 0.017667983 -0.020534672 0.03657774 0.047599718 0.050750535 -0.010887311 -0.06740044
-0.04637187 0.0038476572 0.022069933 0.029801007 0.0054938816 -0.03498944 0.0069187167 -0.0012372576
-0.109585024 -0.059357904 -0.044319246 -0.022024794 0.0028306132 -0.0016781985 0.02178255 0.009442616
0.009211904 0.03243528 -0.0042277835 0.042950388 0.024348581 0.018811947 0.036337458 -0.005206972
0.024942592 0.041296605 -0.032854903 -0.028689332 0.0008558942 -0.008446893 -0.0052007395 -0.013721203
-0.0711636 -0.0002512124 0.015055835 0.0183425 -0.014875795 0.012229714 -0.024571141 0.037631687
0.0043577496 0.0074812775 -0.00440539 0.011383217 -0.057122685 -0.045990903 0.0066849547 0.016172867
0.0027450784 -0.010939438 -0.014843879 0.022309536 -0.029064836 -0.00216519 0.029782562 -0.04050953
0.02303975 0.11349545 -0.03812799 -0.07802087 -0.009949113 -0.09385438 0.108136185 -0.008075159
0.0051427954 0.024184993 0.0068554464 0.035343163 0.024949472 0.0061504645 -0.02909256 -0.034186188
-0.05281045 0.048274748 -0.004476318 0.010054906 0.00079188327 -0.032688744 -0.03976701 0.0055174013
0.061386924 0.027946683 -0.050518114 -0.00013875651 -0.015180612 -0.10979085 -0.035594724 0.0337026
0.007502143 0.007017665 0.0018204896 -0.001690966 -0.006491827 -0.026019212 -0.034191057 0.04494598
-0.041109063 -0.050427735 -0.005089151 0.08192117 -0.02421198 0.03651727 -0.08044474 -0.109731115

network_body._body_endoder.seq_layers.0.bias f4 [128]
00000000: d588 a03b 1d49 953b c4ee 903c 3e86 823c
00000010: 0790 9fbc 5c96 813c 8b80 bdbc f0a3 afbc
00000020: 3985 a7ba 5caf 89bc 2315 a03c 0a55 47bb
00000030: 3697 e1bb 1769 e23b 8698 c3bb 2b2c 433c
00000040: d2f8 d8bb 25a6 2ebc 8bc2 2cbb 8bac 09ba
00000050: 5e87 abbb 6e1f a93c c6e0 f63c cc77 823c
00000060: 3b89 083c afcd 813c 4af0 053d ec0d f93b
00000070: 7350 023c 5a5b 223c c585 98bc 408d 50bc
00000080: 3318 3abc 31a2 febb 1d05 9a3c 0e46 bc3c
00000090: b574 f438 21e1 00bc 431e 423c 1c72 863c
000000a0: e519 83bb 609f e4bc d843 80bc 95b8 5e3c
000000b0: 744e 22bb d2a5 923b a666 98bc c0fa 203c
000000c0: bc5e 953b e69a 04bc ee65 06bc 67cc 8fbc
000000d0: 5666 b1bc 6fa3 c83c a94d 813c a8ab 153c
000000e0: a0e7 5bbb 642e 54bd fbdf b73c 5f59 023d
000000f0: fe15 0e3b 6428 023c d9af d73c 67ff d03c
00000100: 0a78 133d 722f 00bc b705 283b 2a57 a8bb
00000110: 1a2f b83c f68d 623c 4ae9 033c b984 7e3c
00000120: 24b7 ab3a 38bd a63c 94be db3b 7180 753c
00000130: 1d7f 8d3c 2b19 1cbb 76c8 dc3b 40f3 40bc
00000140: f641 fd3b cde6 833c bc0e 223c d63d 90bb
00000150: 5ef5 c83b 9276 993c 799c 0f3c 885f 04ba
00000160: 3e8d b53c 2801 263c 9a8b ab3c bbad 763c
00000170: ae6e 3b3c b7a5 9139 a574 1b3c 2276 74bc
00000180: f1e8 26b9 80aa f23c 64f3 3b3c d551 f83c
00000190: 00e2 b1bb 5566 6f3c 57a6 f3bb 845a 7c3c
000001a0: 44a2 3bbc 1c8d c43b 4512 f03c f2c6 87bb
000001b0: 3b75 4f3c 5bc5 ff3b 84ef 773c a936 963c
000001c0: f7b5 f4bb 7d31 16bd be36 333c d554 deba
000001d0: b97b 00bd 2551 e83c 8899 5bbb 0300 013d
000001e0: 593d e939 3d4f 213c b9c4 663b 2388 cf3c
000001f0: 481b 313c 5dc9 303c 3abd 163d 8ae7 a03c
0.004899124 0.004555835 0.017691977 0.015933152 -0.019477857 0.015818767 -0.023132583 -0.021440476
-0.0012780792 -0.01680725 0.019541329 -0.0030415677 -0.006884481 0.0069095003 -0.00596911 0.011912386
-0.0066214586 -0.010659729 -0.0026361074 -0.0005251846 -0.005234643 0.02064487 0.030136477 0.015926264
0.0083335 0.015845148 0.03269986 0.0076005366 0.007953751 0.009909475 -0.018618474 -0.012728989
-0.011358309 -0.0077707996 0.018801266 0.022982623 0.00011656565 -0.007866175 0.011848035 0.016411833
-0.0040008896 -0.027908027 -0.01565735 0.0135938125 -0.0024766 0.0044753337 -0.018603634 0.009825408
0.0045584124 -0.008093571 -0.008203013 -0.017553521 -0.021655243 0.024491994 0.015784102 0.009135164
-0.0033554807 -0.051802054 0.02244567 0.031823512 0.0021680589 0.0079442 0.026328968 0.02551241
0.03600315 -0.007823812 0.0025638172 -0.005137344 0.022483397 0.013827791 0.008051226 0.015534573
0.0013100845 0.020353898 0.0067060683 0.014984236 0.017272526 -0.0023818712 0.006737764 -0.011776745
0.0077288104 0.016101265 0.009891208 -0.0044019027 0.0061327657 0.018733297 0.008765333 -0.00050496357
0.022162076 0.010132112 0.02094059 0.015056069 0.011439962 0.00027780022 0.009488259 -0.014920743
-0.00015917771 0.029622316 0.011471603 0.030312458 -0.0054285526 0.0146118 -0.0074356007 0.01540244
-0.011452261 0.005998267 0.029305587 -0.004143589 0.012662227 0.007805509 0.015132789 0.01833661
-0.007467981 -0.03666829 0.0109383445 -0.0016962538 -0.03136799 0.028359005 -0.003350826 0.03149415
0.0004448693 0.009845552 0.003521247 0.02533347 0.010809727 0.010790196 0.036801554 0.019641656

network_body._body_endoder.seq_layers.0.weight f4 [128, 373]
00000000: 49e4 97bd 73df 0d3d 8988 3f3d d586 bd3d
00000010: 95a3 26be b187 363d 0174 0f3c 54cb e13d
00000020: 0299 163c f27e 6b3d 1ba6 99bd 6a0b 883d
00000030: 5070 233c 57ea 803d 3ac6 913d 0f35 f53c
00000040: c2bd f5bd 301c d3bc 5676 073d 0646 1f3d
00000050: f6f8 b4bc 31d6 713d f889 8d3c 3607 873d
00000060: 02f2 13be 40f9 943d 3e99 103d d3e4 6f3d
00000070: 1163 a5bd 9db0 b83c b428 663c d5e2 c9bb
00000080: c7c1 16bc b88a cb3c aff5 51bb fcc8 0bbb
00000090: eeeb a8bd 5fc3 adb7 9da7 9ebb b012 82bd
000000a0: d87b a03e 27bc 68be 8fd3 2e3d 3d70 ab3c
000000b0: f438 ad3b 5444 6fbd b2de d2bb 4e45 2c3d
000000c0: 9cd0 b13e aa61 3fbe 6a11 16bd 027b 92bd
000000d0: 60e8 833c 33f2 e73d 90f1 703d 9926 c03d
000000e0: e4f6 a13e 0c22 dabd c01b 3fbc 19e9 e1bd
000000f0: 7758 9dbd da1c 843c eeef 103d 1428 c73d
00000100: 9577 343e a7b1 4dbd 143f a7bc 71cc 10bd
00000110: 69ca 35bd 8d58 c23d bdd4 313d 94e2 9b3d
00000120: 1b5c 203e afa4 02bd 2b1a 703d 9154 d53c
00000130: 0177 76bc 0b90 96ba c1d0 a03c 4cae 1a3e
00000140: f5c0 b13d 55b1 45bc 6a47 033d 344b 903d
00000150: ce6c a13b 188b 2a3c 8360 c6bc 1293 cc3c
00000160: 8cab e43d c035 4ebd 23ac 643d bb8c 71bb
00000170: 3e7e 21bd c5d1 fd3a 9a52 59bd 5c20 fe3c
00000180: 0b5d 2e3e 390a 49bd 8cb5 a3bd 2e7f 773b
00000190: de84 7cbd 303d b33d ce38 173c 181e 103d
000001a0: c93a d03b b884 b7bd ea37 613d 6752 863d
000001b0: b90e 163c a4a8 71bd 64a3 f93c 521e b2ba
000001c0: e772 b03c d593 463d 8e9e c03d 5155 fbbc
000001d0: 018c b5bd 7bf1 913d 5b36 3abd 1935 5a3c
000001e0: e98e 543d e2b3 593c d7b6 293d 6dc9 b5bd
000001f0: decb 07bd bb7c c03d 65d0 413d bc3f be3c
00000200: 2fa2 7d3d a88b 84bd 6df7 313d 3d25 a6bb
00000210: 75ab 773d fbc1 3e3d 4d1c c8bc 22ac 0dbd
00000220: 1755 373d 9a7a 10bc 90a6 7c3b 5811 19bd
00000230: a871 883c a9bc 66bd 0c3b e03c 485b 81bd
00000240: acf0 9f3d ac5b eabb b51b a03c 4617 153d
00000250: 6de3 3dbd 1f43 ab3c 4cd1 263d f6da bf3c
00000260: 9401 e93c 5e77 dcbd fcf1 873d 1e72 9dbb
00000270: ed5a a53c 3577 393d d3c9 d93d 951c 6fbc
00000280: a2f1 3cbd b626 eabc eccd be3d 7976 1fbd
00000290: 32ff 023d 6f26 5e3d 8f6a f639 a0ca a03c
000002a0: 74c3 bb3d 339d 913d b1d8 e83d 320e cb3b
000002b0: 6c13 de3c 1421 383d e177 6e3c c500 48bc
000002c0: 5caf f03b adeb e5bd a739 913d 1e0f 463d
000002d0: a3f6 90bd 406c 1abd 847f a53a e8f2 eb3d
000002e0: db3d f3bb ed4f 06bd bfc2 133d 48ab 7bbd
000002f0: 0b32 a0bd 1f6e ca3d d477 673c 148a 4f3d
00000300: ef2c e93c 6ae5 13be 3d56 123d f76e 27bd
00000310: 71bb c5bc 5ea9 183d 6867 633d 4013 443d
00000320: e0dd a33c e67b aebb 85ed 163d 919b 5bbd
00000330: 1b09 423c 880a f83d 285a 4fbd fd5e 84bd
00000340: b46c 843c 7177 463b 49ba ac3d 8090 58bd
00000350: 293a c23d 4a9b 6a3b 9832 44bd 407f d43c
00000360: 38f3 863c 5563 fdbb 0f22 bdbc 2a8f 7b3c
00000370: 3d74 d9bd ed01 983b e0dd 5ebb 5693 583d
00000380: 010b 413d 9522 7d3c 8b57 ae3c ca00 013d
00000390: c4a6 93bd 9e53 ad3d b199 2abc 3d15 a93d
000003a0: c3d0 14bc 1906 9f3c 0f47 223d 5755 c3bd
000003b0: 20d2 88bd 47d1 79bd 1244 413c 93fb a23d
000003c0: 0406 1dbd 33e9 8a3d 2cc3 64bd 6540 02bc
000003d0: fbcd 303d 359e b63d 58df 0bbd 425e c3bc
000003e0: 5df4 73bc f33d 0a3d ae03 743d 6190 5ebd
000003f0: 1817 153d 62a5 8b3d c9d7 3abc 3ebd ae3d
-0.07416589 0.034636926 0.04676107 0.09254233 -0.16273339 0.044563 0.008755685 0.1102511
0.009191753 0.05749411 -0.07502385 0.06642802 0.009975508 0.06294697 0.07117887 0.029932527
-0.11999084 -0.025770277 0.03307184 0.03888514 -0.02209137 0.05904216 0.017277703 0.06593172
-0.14447787 0.07274103 0.035302393 0.058567833 -0.08075536 0.022545153 0.01404779 -0.0061610737
-0.009201474 0.02484642 -0.0032037308 -0.0021329513 -0.08248125 -2.0714184e-05 -0.0048417584 -0.063512206
0.31344485 -0.22728024 0.042682227 0.020927543 0.0052863304 -0.058414772 -0.0064352388 0.04205828
0.3472947 -0.186896 -0.0366377 -0.07152368 0.016102016 0.11325493 0.058824122 0.09382362
0.31633675 -0.10651025 -0.011664331 -0.11030788 -0.07682889 0.016127039 0.035385065 0.09724441
0.17623742 -0.05021825 -0.02041582 -0.03535122 -0.044382486 0.09489546 0.043415774 0.07611576
0.15660135 -0.031895336 0.058618706 0.026041301 -0.015043021 -0.001148702 0.019630792 0.15105551
0.08679382 -0.012066205 0.032050528 0.07045594 0.0049263006 0.010409139 -0.024215942 0.024972472
0.111655325 -0.05034423 0.055828225 -0.0036857564 -0.039427035 0.0019364884 -0.05305729 0.03102129
0.1702768 -0.049082015 -0.07993612 0.0037765014 -0.06165015 0.08751905 0.009229852 0.03518495
0.006354664 -0.08960861 0.054984964 0.06558686 0.009158784 -0.05899872 0.030473419 -0.0013589358
0.021539165 0.048480827 0.09405242 -0.03068033 -0.08864594 0.07126137 -0.045461994 0.0133183235
0.051894102 0.013287516 0.041434135 -0.088763095 -0.033153407 0.093987904 0.04731788 0.02322375
0.06192225 -0.0647195 0.043448854 -0.005070357 0.06046625 0.046571713 -0.024427557 -0.034587987
0.044758882 -0.008818293 0.0038551427 -0.037370056 0.016655758 -0.056332264 0.027371906 -0.06316239
0.078095764 -0.0071520414 0.019544462 0.03639915 -0.04635947 0.02090603 0.040726945 0.023419838
0.028443135 -0.10764955 0.06637952 -0.0048048636 0.020184958 0.0452797 0.10634198 -0.014594217
-0.046128877 -0.028582912 0.0931662 -0.038931344 0.031981654 0.054235872 0.0004700017 0.01962787
0.09168139 0.071100615 0.113694556 0.0061967606 0.02710887 0.04495342 0.014554949 -0.012207215
0.007345123 -0.11226592 0.070910744 0.04835426 -0.07078292 -0.03770089 0.0012626504 0.1152094
-0.007423145 -0.032791067 0.036074396 -0.061442643 -0.07822045 0.09884285 0.01412769 0.05066879
0.028463809 -0.14442983 0.035726774 -0.04087731 -0.02413723 0.037270896 0.055518538 0.04786992
0.02000326 -0.0053248284 0.03684761 -0.053615157 0.011842991 0.12111384 -0.05062309 -0.0646343
0.016165115 0.0030283595 0.084339686 -0.05287218 0.094837494 0.0035798126 -0.047899812 0.025939584
0.016473398 -0.0077327886 -0.02308753 0.015353957 -0.10617874 0.0046389014 -0.003400676 0.052874885
0.047129635 0.0154501395 0.021281978 0.031494893 -0.072095424 0.08463214 -0.010412619 0.08256004
-0.009082976 0.019412087 0.039618548 -0.09537762 -0.06680703 -0.060990598 0.011796014 0.0795814
-0.038335815 0.067827605 -0.055850193 -0.007949923 0.04316519 0.08916894 -0.034148544 -0.023848657
-0.014889804 0.033750486 0.05957382 -0.05433691 0.036398977 0.06818654 -0.011403986 0.08532189

network_body._body_endoder.seq_layers.2.bias f4 [128]
00000000: 6635 fbbc eab6 9cbc 31c3 96bc 2994 f43c
00000010: 0c95 9abb f6c3 eebb 3de1 bd3b 7620 943c
00000020: db0b c63c 83f6 0f3d fa62 7b3c 7dfe d7bc
00000030: c714 b7bb 1272 533c 20e2 94ba a9d4 94bc
00000040: fe44 dbbc ed8f d5bc fa34 d8bc c9ba 28bc
00000050: c041 623b 5abd 4a3c 756d 953b c38f 843b
00000060: 221f 2a3c d985 d33b 05c3 363c 6d2e 9fbc
00000070: 4dd8 86bb 0454 c23c 6f5e 30ba b8df 0dbd
00000080: a9a8 053c bfb9 d43b 371f 2d3b 8b24 883c
00000090: 5e9a 843c 8bf2 11bc 1c3e 6dbc a432 7f3b
000000a0: 1920 d7bb c0c0 f43b 8475 65b9 5086 82bc
000000b0: 6a6f bcbc 8dbc 6e3c 006a 393d 4d9d 94bb
000000c0: 5bef fabb d803 953c 1648 a63c 749d 793c
000000d0: 1151 49bc dfd5 54bc 25e8 fe3c 7afe 11bc
000000e0: fa6a 5a3b 1d3f 91bc 30c1 da3b 7ed7 b13b
000000f0: 3df6 8cbc b279 8b3d 48e1 183c ac86 943c
00000100: 96a8 d3b8 bde2 cf3c 070d 84bc 06e5 113a
00000110: 26bc 693c 0f02 b33c 5a7e 75bc 7c19 a7bb
00000120: 4f3e 853b 4809 743c 6feb 553b 653e 19bb
00000130: 993d 673c 94da 663b 2b48 d33a 8833 093c
00000140: baaa ee3c 7d9e 0d3d 5021 213d e2bf 8a3c
00000150: 5562 a9bc 365d 893c bf4c 0b3d 5f57 3dbd
00000160: 3e58 30bb bae2 1fbc acd4 90bc 1e1e b43c
00000170: 707f f33c afe6 24b7 b448 1abc 8c99 df3c
00000180: 9bdc 203c 3258 123c e6c1 99bc 60f3 eabb
00000190: f2c6 70bc 9d7e 1b3b 9d37 343c edef f9ba
000001a0: 9bb3 403c 761b f33c bfdf 8a3c a1dc bebc
000001b0: ab81 743b c565 d23c 2b77 b83c 0c56 9e3c
000001c0: 8950 8ebc cbd4 e7bc b005 07bc 9b1d 7dbc
000001d0: 52da 85ba 214e cbbc f4ca c0bb 1bc6 013c
000001e0: 28e6 583c 181a 3e3c 4dd4 dfba a138 113d
000001f0: d7ae 883c 0615 843b 66b2 973c 96b4 183d
-0.03066511 -0.019130189 -0.018403621 0.029855805 -0.004717475 -0.007286544 0.0057946728 0.018081885
0.024175575 0.0351472 0.015343422 -0.026366467 -0.0055871936 0.012905614 -0.0011358894 -0.01816781
-0.026766296 -0.026069606 -0.026392449 -0.010298439 0.0034524053 0.0123742465 0.0045601674 0.004045458
0.010383399 0.006455165 0.011154895 -0.019431317 -0.0041151405 0.023721702 -0.0006727939 -0.034637183
0.0081578875 0.006491869 0.002641631 0.016618988 0.01618689 -0.008907924 -0.01448014 0.0038940096
-0.0065651056 0.0074692667 -0.0002188292 -0.015933186 -0.023002345 0.014571321 0.045267105 -0.0045353533
-0.007657928 0.01819031 0.020298045 0.015235294 -0.012287394 -0.012990444 0.031116555 -0.00891077
0.0033327923 -0.01773029 0.006675862 0.0054273 -0.01720726 0.06810321 0.009331055 0.018130623
-0.000100926656 0.025376672 -0.016119493 0.0005565438 0.0142660495 0.021851568 -0.014983738 -0.0050994735
0.0040662657 0.014894791 0.003264155 -0.0023383137 0.014113807 0.0035225498 0.001611953 0.008374102
0.029134143 0.034574974 0.03933841 0.0169372 -0.020676771 0.01676808 0.034008738 -0.0462259
-0.0026908065 -0.009758646 -0.017679535 0.021987017 0.029723853 -9.828872e-06 -0.009416748 0.027294897
0.009818221 0.00893216 -0.018769216 -0.007170126 -0.01469587 0.002372659 0.010999587 -0.0019068696
0.011761571 0.02967618 0.016952394 -0.023298563 0.0037308733 0.025683293 0.022517761 0.01932814
-0.017372387 -0.02829971 -0.008241102 -0.015448953 -0.0010212159 -0.024817528 -0.005883569 0.007920767
0.013238467 0.011602901 -0.001707682 0.035454396 0.016684933 0.0040308265 0.018517684 0.037281595

network_body._body_endoder.seq_layers.2.weight f4 [128, 128]
00000000: 8f62 6bbd 2173 de3c 19f9 52bd 4092 5c3b
00000010: 1441 bdbc c440 69bb 934b 153e 98df bebc
00000020: 6a2a 2e3e 7054 16be d5ee 093e 9e7a c3bd
00000030: edbb 043e 6afe d33d c8bc 763c 60d1 a7bc
00000040: e84a c43d ea3c 923d 475e 89bd bc87 4d3c
00000050: bd4c b73d f1ec f6bd 448c c63c ca70 433d
00000060: f1de 7dbd 33b6 21be 5197 90bd e2a2 48bd
00000070: 6408 70be 8867 3f3d 3a6c d03d c0a3 4c3d
00000080: 1d36 26bd 02c7 2abe 7bd5 4bbc 4829 9dbd
00000090: 99cd 29bc f7c2 aebb 2ce0 a0bd 8bb6 28be
000000a0: 2c5e 9bbd 68a6 7dbd 6357 bb3c 50e8 b4bd
000000b0: b88d 0f3c c30f dd3d b8f5 043e f4c3 b03d
000000c0: 6728 baba 3f3c 3d3d 1bab 7fbd 2fde 983d
000000d0: e884 3d3e 894f 1bbe 6860 f9bd dd04 f83d
000000e0: 6bc5 d63d c418 8f3d 4e61 3ebe fe12 aa3c
000000f0: 22b6 7e3d fa8f e93c cdb0 44bd 6921 87bd
00000100: 2cf8 85bd 2edc 823d 6215 8b3d dfca 31bd
00000110: 8adb fd3c aa13 d0bc 041b ce3d 2ede 17be
00000120: 2ff9 83bd 5f02 1bbe 5cf6 b2bd 48c1 863e
00000130: df99 cfbd fa04 1abc a575 f0bd 9690 313d
00000140: 8fe3 1ebd 4f9b a1bc 30eb b33d a3ab 1f3d
00000150: 66d7 8b3c f478 48bd 1894 edbd 7c2a ccbb
00000160: d09c dc3d 9ba6 1ebd 026e debd b304 bebd
00000170: bb1a 4abc d2f0 d3bc f8c0 b3bd 9604 87bd
00000180: 6fa8 2b3e 8f35 6cbd 940c 67bd e04a d23d
00000190: aa9a 7bbe 73bd 773b a197 a4bd d677 3e3b
000001a0: f68f 83bb 22ce ec3b 1d07 abbd 2d9b 92bd
000001b0: 0260 c33c a90a 27be 59c2 f63d 045a 87bd
000001c0: f52a debc b81b e6bc cf7d 61bd c28c 70bd
000001d0: a004 b1bd 85e0 af3c 302c ebbd 96f9 d63c
000001e0: d127 033c 0b78 393b 1bd6 d7bd 8d11 bd3c
000001f0: 5272 f9bd 9317 bf3d 28a3 58bd 8920 90bb
00000200: 6a7d bcbc 91ac f83c a4c7 15be 2a66 f5bc
00000210: 89b6 333d 7d53 53be f719 c63a 7cd4 b33c
00000220: dc95 443d 2d29 873d 73c9 f7bc 1300 e43d
00000230: 97d2 e0bd 8bf2 73bd 925b 953d 897d 4c3d
00000240: c5cf 093c 52b9 e1bc 6d96 6ebc 270e 1b3c
00000250: c2e8 16be 945b 2d3c 4013 4d3d b311 94bd
00000260: 3565 b83c 499d 61bc 3e08 adbd cd7f 2abd
00000270: 1a40 133d 5f71 c33d be91 4dbd dc7a 933d
00000280: 602d a1bd 1f34 e7ba b94b 4cbd 8b01 24be
00000290: f0ff adbd 1176 e9bd 93e6 1ebd 7e7e 46bc
000002a0: 9252 86bd 4bf3 753d d747 8c3d efa4 f03d
000002b0: 47b2 a6bd ecba 4cbe 50f3 413d 5d56 2cbe
000002c0: 342f 203c 23fa 8ebd 769b 7c3d 5827 d23d
000002d0: 9304 e93d 27b7 f4bd a9d8 213e 95e5 25be
000002e0: 188b 0a3d ba5f 703d cc25 2c3e 7fac b4bd
000002f0: cb89 23bd 0a8f 52bc 136b ff3d c75a 27bb
00000300: bf1c 803d cbb5 9ebd 548d 21bd 3fc1 73bc
00000310: 049a a1bc 858c aa3d 42b6 403d 8c64 543d
00000320: 1bbe aabb be6e 66bd ab90 4cbe b4dd efbd
00000330: 905d eabd 5f5f 60bd f863 1cbe 5b11 353d
00000340: f385 683d 3559 2e3e eddc 0bbc da7c 813c
00000350: 83dc 7a3d a89a b6bd b6b6 063d 9c57 0d3d
00000360: 85ae c6bc 99bc 363d 13e4 6f3e 4558 1d3b
00000370: 1d63 b13c 590b 8a3d c8e4 0bbe f3c8 b13d
00000380: be39 273e 3200 1f3d 86eb d7bd 8213 963c
00000390: a90f 07bb 5047 8cbd 98e8 f53b a9a0 e93d
000003a0: 3de9 cebc 35e4 f6bc 7f65 ad3c 8eb3 b0bd
000003b0: 6add 15be 3e15 273d 6ac6 be3d 96bf 663d
000003c0: d2f3 4dbe a262 86bb b557 563e e019 abbd
000003d0: dede b43a 7086 f13a f16e acbc 6a90 4b3c
000003e0: 4dc1 1dbe 9d21 3cbd fec5 43bd 2da5 f4bd
000003f0: 2ca0 2fbe 3209 acbd 70e1 3f3d 11dd 413e
-0.05746704 0.027154507 -0.05150709 0.0033656508 -0.02310232 -0.0035591582 0.1457961 -0.023299977
0.17008367 -0.14680648 0.13470013 -0.09544872 0.12962313 0.1035126 0.015059657 -0.02048558
0.095846 0.07140525 -0.06707435 0.012544569 0.089501835 -0.12056912 0.024236806 0.047714986
-0.06198019 -0.1579216 -0.07060111 -0.048983462 -0.23440701 0.046729594 0.101768926 0.04996085
-0.04057895 -0.16677478 -0.012441034 -0.076738894 -0.01036396 -0.0053333 -0.078552574 -0.16475885
-0.07586321 -0.061926275 0.022868818 -0.088333726 0.008761816 0.10794022 0.1298436 0.08631125
-0.0014202715 0.046200033 -0.06241904 0.07464253 0.18507731 -0.15167059 -0.12176591 0.121103026
0.10486873 0.069871455 -0.18591806 0.02076101 0.062185414 0.028511036 -0.048020173 -0.06598169
-0.06541476 0.06389652 0.06791188 -0.043406364 0.030988473 -0.025400002 0.100637466 -0.14830849
-0.064440124 -0.15137623 -0.087383956 0.26319337 -0.101367705 -0.009400601 -0.11741189 0.04335078
-0.038791236 -0.019727377 0.08785093 0.038982045 0.017070483 -0.048943475 -0.11600512 -0.0062306505
0.10772097 -0.038733106 -0.10860826 -0.0927824 -0.012335475 -0.025871668 -0.0877704 -0.065926716
0.16763471 -0.057668265 -0.05640848 0.102681875 -0.24570718 0.003780213 -0.080367334 0.0029063127
-0.004014964 0.0072267214 -0.08350966 -0.07158504 0.023849491 -0.1631266 0.120487876 -0.06608966
-0.027120093 -0.02808939 -0.05505162 -0.058727987 -0.0864346 0.021469364 -0.114830375 0.026242059
0.008005098 0.002830031 -0.10538884 0.023079658 -0.12180008 0.09330668 -0.052889973 -0.0043984097
-0.02300902 0.030355724 -0.14626938 -0.029955942 0.04387525 -0.20637317 0.0015113939 0.021951906
0.04799448 0.065996505 -0.030247426 0.11132827 -0.10977667 -0.05955748 0.07292856 0.049924407
0.0084113525 -0.027554188 -0.0145622315 0.009463823 -0.14737228 0.010580916 0.050067186 -0.07229938
0.022509197 -0.01377041 -0.08448838 -0.041625787 0.035949804 0.09543108 -0.05018782 0.07201168
-0.07869983 -0.0017639435 -0.049876902 -0.16016214 -0.08496082 -0.113994725 -0.03879411 -0.012115119
-0.06558718 0.060046475 0.0684964 0.117502086 -0.081394725 -0.1999318 0.04735118 -0.1682982
0.009776879 -0.069813035 0.061671697 0.102614105 0.113778256 -0.11948996 0.15805306 -0.1620086
0.033824056 0.058685042 0.16811293 -0.088219635 -0.03992633 -0.012851486 0.12471595 -0.0025536285
0.06255483 -0.07749518 -0.03944142 -0.014877616 -0.01972676 0.08327583 0.047048815 0.0518537
-0.0052106506 -0.056257956 -0.19977061 -0.117122084 -0.11443627 -0.054778453 -0.1527251 0.044206005
0.05676837 0.17026217 -0.0085365595 0.015806604 0.061245453 -0.08916217 0.03288909 0.03450738
-0.02425314 0.044613454 0.23426847 0.0024008912 0.021653706 0.06740446 -0.13661492 0.08680906
0.1633062 0.038818546 -0.105429694 0.018319849 -0.00206087 -0.06849539 0.007504534 0.114075966
-0.025257701 -0.030138114 0.021166561 -0.08627997 -0.14635244 0.040791743 0.09315188 0.056335054
-0.20112541 -0.0041011134 0.20931895 -0.08354545 0.001379933 0.0018426906 -0.021048995 0.012424568
-0.1540577 -0.045930494 -0.047796242 -0.11945567 -0.17150944 -0.08400191 0.046845853 0.18931986
