FPS AI/results/1/FPS Agent/FPS Agent-2880415.onnx (onnx, 263358 bytes, 9 tensors)

action_model._continuous_distribution.log_sigma f4 [1, 3]
00000000: aacf 1ebe a891 e83c 7f25 47be
-0.15508905 0.028389767 -0.19447897

action_model._continuous_distribution.mu.bias f4 [3]
00000000: 425e 9b3c a715 6bbc 93db 8c3c
0.018965844 -0.014348424 0.017194545

action_model._continuous_distribution.mu.weight f4 [3, 128]
00000000: ca43 a63c 4c83 57bc a492 b03c 63fa 1a3d
00000010: f255 cd3b d7f9 91bc d75b 733c 1e35 a33c
00000020: 8b15 be3b 564a 51bd 1301 683c a4ff f63b
00000030: d13d eabc 736f 3dbb df46 c0bc 42a1 f5bb
00000040: 9e79 2ebb 2aac 7a3d 507b 07bc 7093 e9bc
00000050: c96a 523d fab3 f03c bdc7 3b3c 4d4c 8b3c
00000060: bfd5 a53c 28bd f93a 2840 cc3c c81a 063c
00000070: 748a bdbc 5b33 2b3d 405b b63c 336f 2a3c
00000080: a764 573c 1de8 8e3c bef8 5d3d 51ca 7dbc
00000090: cad8 353d e227 acbc c4a5 f83a ea51 cfbc
000000a0: 7796 64bc 1ce9 c4bc b988 823a b6af 34bd
000000b0: 956b 39bc f9fa 983a 5997 2f3d 1b55 613c
000000c0: fa30 f23c a7c6 0dbd 68e3 8dbc a122 e43c
000000d0: 26e1 0abc 7d8d 9e3c fdf7 3abd 39ff 97bc
000000e0: 25be 043d 112b 6ebb 3481 bebc 4aef 133d
000000f0: 5cc7 40bd 4849 e5bc 1b29 68bc ec91 423d
00000100: c132 31b9 9740 19bd c20c ba3b e082 dcbc
00000110: 9aca 823c 02c0 b33b 0c21 2eba 7059 ccbc
00000120: a4b6 4d3b d802 6bbc 9077 2a3b fbea e8bc
00000130: 4fbb 7abd 81f9 78bc 2191 f6bc 6fce 22bd
00000140: 8562 9abc 839a 103d b882 2d3c c49b 5d3b
00000150: b7bc 753a 5e6a 173d c916 97bc 4b5d fcbb
00000160: 74a3 943b c9bf 283c a9f5 2dbd eff3 2b3d
00000170: f456 733d 1294 ba3c 8b17 38ba 365c 2a3c
00000180: b15a 8ebc 8d73 90bd 7133 55bc b420 8cbc
00000190: 7f75 9fbb f46d 00bd 256a dbbc ea59 a13c
000001a0: 6798 febc 2930 423d 1588 0abd 3279 c3bc
000001b0: 96d3 45bd f25c 183c 4260 01bd 4e62 a8bb
000001c0: cc52 53bc 24b1 6c3d 5d7b e4bc abb4 c03c
000001d0: f0ee b73c 9a1b bebc 1515 69bc 91a1 afbb
000001e0: f9e3 b6bc f1c2 74bc 4b5c 9abc 0b46 81bc
000001f0: 0879 ffbc e5a3 19bc bd79 dab9 f28c 2dbb
00000200: 4242 8639 d303 a43b 43ed 633b 7183 063b
00000210: 3de0 853c b592 3cbc 4fe9 40bc 57b6 adbc
00000220: 6d07 c03c d7e1 b5bb 0c26 a8bc 8dd1 983c
00000230: 226f dc3c ef1c c9bc 1341 b93d 5e3c 6fbc
00000240: 3251 f83a 1664 15bd ef50 9b3a f5c8 b23c
00000250: ab6f a43c 5d27 0f3d 0c3a 263c 8d49 703c
00000260: dd4c 55bc 7bd5 dfbb f674 763c ab2d d3bb
00000270: 0236 2d3c 2175 22bc b17c 56bb b6d9 7c3c
00000280: 01dc a83c 357f 9b3c 9708 a2bc 0da1 79bd
00000290: a754 7b3c 2ca2 05bd 9f4b 54bc 1b1e c4bc
000002a0: eece 4cb9 d059 a33c a0cd 89bc bfda 2bbc
000002b0: 6a9e 99bc 6ab3 eebc 3e66 133d fb5d 47bc
000002c0: f16f 903c f7ab 36bd 6766 e5bc da35 f9bc
000002d0: cf1a 5fbc 6789 4a3b 97f6 06bc fc2a 10bd
000002e0: 1484 ea3b 80a7 9f3c b342 5fbd dd34 8f3d
000002f0: 004e ea3c ab44 b53d ef7b d0bc 0d41 1c3d
00000300: eb13 253d 6dd5 133d e00c 39bc 887f 88bc
00000310: 3c0d 26bd 80a0 30bb ed7f f73c 3dd9 4d3c
00000320: aefd a43b 1b94 343d 52fd 993c bb11 e6bb
00000330: 1bf9 163d c933 3f3c e9ae 293c de4f 7dbc
00000340: 1e0c b83d 5259 033d ba58 323c 757d 91bc
00000350: 3790 413c e38a aa3c 004a ca3d 1ea3 cc3c
00000360: 4b0b e7bc d775 dd3a e4c1 12bd 073e 023d
00000370: 2f94 e33d fdeb 94bc bf10 3f3c 3512 23bd
00000380: 5a26 05bd 5fe8 293c cb0b 9abc be3e 8e3b
00000390: 6f5f 05bd 689f 3fbb 5fdb a6bc 99c9 973c
000003a0: 45ad 00bd 774a 81bc 12c3 2a3c 2a95 7c3c
000003b0: 1d3f 673d 0b6f 48bc 5f06 5d3c 8d50 81ba
000003c0: af10 043d bf91 213d 8a87 cbbc fe2d 793b
000003d0: 6e20 d1bc d17a 763c db97 2e3c a1c9 adba
000003e0: 8edd 50bc 2276 003b 010e 243c 7a16 42bc
000003f0: 7ff6 2fbd ca27 2bbc 60a8 b1bb 8a09 0abc
0.020295996 -0.013153862 0.021554299 0.037836444 0.006266349 -0.017819328 0.014853439 0.01992279
0.005800908 -0.051096283 0.014160412 0.007537799 -0.02859393 -0.002890554 -0.023471294 -0.00749603
-0.0026622782 0.061199345 -0.008269146 -0.028512686 0.05137137 0.029382695 0.011461196 0.017004156
0.020243524 0.0019053565 0.024932936 0.008185096 -0.023137309 0.041797023 0.022260308 0.0104024885
0.013146556 0.017444665 0.054192297 -0.0154901305 0.0443962 -0.021015111 0.00189703 -0.025307614
-0.013951889 -0.024036936 0.0009958959 -0.044112884 -0.011317153 0.0011671475 0.042868946 0.013753201
0.02956437 -0.034613278 -0.01732035 0.027848544 -0.008476531 0.019354576 -0.045646656 -0.018554317
0.0324079 -0.0036341588 -0.023254968 0.036116876 -0.047065124 -0.027989045 -0.014169957 0.047502443
-0.00016898943 -0.037415113 0.0056777904 -0.026917875 0.015965749 0.0054855356 -0.00066424976 -0.02494499
0.003138938 -0.01434394 0.0026011206 -0.02843236 -0.061213788 -0.015196205 -0.0300985 -0.03974765
-0.018845806 0.035303604 0.010590248 0.0033814767 0.0009374129 0.036966674 -0.018443482 -0.007701551
0.0045360867 0.010299631 -0.042470608 0.04198068 0.059409097 0.022775684 -0.0007022551 0.010397961
-0.01737723 -0.070532896 -0.013012753 -0.017105438 -0.0048663015 -0.03135486 -0.026784012 0.019696195
-0.03107853 0.04740921 -0.033821184 -0.023861501 -0.048297487 0.009299504 -0.03158594 -0.005138672
-0.012898158 0.057786122 -0.027890855 0.02352365 0.022452801 -0.02320652 -0.014226218 -0.0053598364
-0.022325503 -0.014939056 -0.018842837 -0.01578047 -0.031185642 -0.009377454 -0.00041670902 -0.0026481715
0.00025607838 0.0050053387 0.003477887 0.0020525123 0.016342277 -0.011509587 -0.011774375 -0.02120511
0.02344104 -0.005550604 -0.020525955 0.01865461 0.026908461 -0.02454993 0.09045615 -0.014601795
0.0018945097 -0.036472403 0.0011849682 0.02182434 0.020072779 0.03494965 0.010145675 0.014665973
-0.013018814 -0.006830869 0.015042534 -0.006444653 0.0105719585 -0.009915621 -0.003272813 0.015432766
0.020612719 0.018981555 -0.019779487 -0.060944606 0.015340007 -0.032625362 -0.012957483 -0.023940137
-0.00019532043 0.019940287 -0.016821682 -0.010489165 -0.018752296 -0.029138286 0.035986178 -0.012168403
0.017631503 -0.044597592 -0.02800293 -0.030421186 -0.0136172315 0.0030904652 -0.008237503 -0.035197243
0.007156858 0.01948905 -0.05450697 0.06992505 0.028601646 0.08850988 -0.025449721 0.038147975
0.0403022 0.03609221 -0.011294574 -0.016662374 -0.040539965 -0.0026951134 0.030212367 0.012564001
0.005035124 0.044086557 0.01879755 -0.0070211566 0.03685866 0.011670061 0.010356643 -0.015460936
0.08986686 0.032067604 0.010885412 -0.017760018 0.011814169 0.02081818 0.09877396 0.024980124
-0.028203627 0.0016896081 -0.03582944 0.031797435 0.11112248 -0.018178934 0.011661707 -0.039812285
-0.032507278 0.010370343 -0.018804451 0.0043409755 -0.032561716 -0.00292393 -0.020368276 0.018528746
-0.031415243 -0.015782578 0.010422485 0.015416423 0.056456674 -0.012233506 0.0134902885 -0.0009865925
0.032242473 0.039445635 -0.024844903 0.0038021798 -0.025528159 0.01504393 0.010656322 -0.0013258943
-0.012748135 0.0019601663 0.010013104 -0.011846179 -0.042959686 -0.010446498 -0.005421683 -0.008425126

action_model._discrete_distribution.branches.0.bias f4 [2]
00000000: 9539 8e3c 9439 8ebc
0.017361442 -0.01736144

action_model._discrete_distribution.branches.0.weight f4 [2, 128]
00000000: b410 1b3b 590f 4fbc 743f 8fbc 3d22 8a3d
00000010: 1610 6f3c a86c 46bc 64ac 683d 4410 69bd
00000020: 3409 dbbd ad86 a0bd 59c6 d93c 0dec 81bb
00000030: f0c1 9f3c 18fe 90bc 5292 b6bc 76b2 05bd
00000040: cecd 8b3c 9b65 53bd 9e77 f9bc 0951 1bbd
00000050: aa3a 12bd 7c0f 27bd f0b3 e93c 54e3 953d
00000060: 1a16 a33d 0b10 dcbc 7654 9cbb 7e1e d4bc
00000070: 6818 db3b c76f 0e3d 98bc dbbc d32f 95bc
00000080: 89de ea3d 47e0 9b3d f740 a93d c2e6 3e3c
00000090: 1390 8bbc c9ca 4ebb 8983 c9bc 23cf 81bc
000000a0: 49b8 2bbb a24c f1bc f740 0abd 8751 b4bc
000000b0: 5324 2bbd d1e3 c8bc b1e5 68bb 0bef e9bb
000000c0: 6a97 2fbc 2ef4 6fbd 61e6 bb3c f294 5abb
000000d0: 8d9d cbb9 2102 5e3c aedc eabc aac3 9ebb
000000e0: da4d 973d 16f4 22ba 4f4a 3bbc 564c e7bb
000000f0: 0df3 9ebc 231c ae3c bd90 6c3c fd24 41bd
00000100: 83ee d13c c862 bdbc 3adc 9a3c d73e 04bd
00000110: 4152 603d 100f c93c c139 603b 9bed 51bc
00000120: 6740 3e3c d1d2 013c 9a8e aa3b 7da4 f2bc
00000130: 2613 903d 701a 0bbd d09a 9cbc ea32 8c3c
00000140: ed8f 52bc 289b bcbd ab3a 7a3c a400 ce3d
00000150: d0d2 b23a ed55 ed3d 16dc c4bd 4b5a 8eba
00000160: 33ed 16bc 733d 1dbd 6d15 74bc f8ea 22bd
00000170: c0d7 65bc 149c a93b ae3e c23b 30bb 4b3d
00000180: f90f 7a3d 1271 47bd 3039 2e3c a3af 1abd
00000190: 3685 2fbc 9e83 0c3d de4b a83c 3207 9a3c
000001a0: 7a9b 52bd d012 1bbc 79e7 5f3d e622 f8bc
000001b0: 95d8 2f3d 4862 103e 1d0a c43c 06c6 24bd
000001c0: 8c59 98bb da3b 05bd e52b d9bc 9b5c 4cbc
000001d0: 49ab 5abc 56a3 ca3c d2ac 053d 4846 12bd
000001e0: 11c4 123d 58e0 8d3d 2dfa 86bc a6c2 a9bd
000001f0: 93c6 0b3d c8b1 41bd c42b bf3d 7c19 f53d
00000200: bd44 7e3c c030 453c 4697 9f3c 1fa5 92bd
00000210: 1373 b7bb 1b6a 9bbb e1b2 85bd 2ab3 2e3d
00000220: b1c5 f63d cd93 913d 5c85 74bd fbba 613a
00000230: 51c5 d0bb 685b 883c 5032 0b3c b6bc 473d
00000240: caa7 8abc 0051 4d3d 3896 e73b 473a 443d
00000250: 2f46 353d 42fd 423d 93ca 18bc be62 90bd
00000260: 3bbf 93bd 2d4d fd3b cd6a b73c ec15 303d
00000270: b3e7 94bb 3774 28bd d754 b13c 198e f73b
00000280: fe48 f7bd e459 9cbd e635 6ebd e76b d1bc
00000290: d4a9 3b3c 8d97 2f38 7016 063d f33f 053d
000002a0: 0b68 073c d5df 003d fa06 ae3b 6122 323d
000002b0: 8099 193d 9b8f e23c 1fbe e13c 275d 2c3b
000002c0: a1a3 c83c ced4 823d ed36 c2bc 1d22 6cbc
000002d0: a2dd 943b 6b0b edba 5e89 0c3c d325 813b
000002e0: d39a 9dbd d059 8cba 080a 0d3d 2198 1c3c
000002f0: d650 f1bb 430c e33b 1dd9 f1bc f803 693d
00000300: 25c6 223b d905 483c d1a5 003b 6c8a c23c
00000310: e242 72bd 68d3 3fbd b039 053c a917 ad3c
00000320: ddd5 f4bb 2751 f6bb af10 78bb 7ea9 f93c
00000330: 2830 43bd dcf5 523c 960b 043d 099d d3bc
00000340: f9dd 843c a933 ee3d e86f 28bd dd6c c5bd
00000350: 3b2f 84bc 9c4c dabd e956 d53d 982a 22bb
00000360: 6250 b43b 1506 0b3d 816a 983c 3305 113d
00000370: f4bc 653c 6352 023c 4e07 d5bc 65cb 19bd
00000380: 9d38 76bd 8372 393d 58ff 2ebb 97e0 de3c
00000390: 2783 ac3b cf8f 5bbd e227 1bbd 896d 1fbb
000003a0: fef6 863d 285f b63c b283 3fbd bf5c 003d
000003b0: 6035 02bd 9dcf 0abe 39f3 0cbd 7a52 023d
000003c0: a598 673c 8c91 cc3c 6afc 833c e90a 703b
000003d0: 6c4a f439 7e4b c8bc 854a 13bd 389e 4a3d
000003e0: b6d1 d4bc 7c57 60bd d24d e939 ea63 b63d
000003f0: 50a6 d9bc d4c5 4c3d 7653 c5bd a735 04be
0.002366108 -0.0126379365 -0.017486311 0.06744812 0.0145912375 -0.012110867 0.05680503 -0.056900278
-0.10695115 -0.07838187 0.026583837 -0.003964907 0.019501656 -0.017699286 -0.022286568 -0.032640897
0.017065909 -0.05161057 -0.030452546 -0.037919078 -0.035700478 -0.04078625 0.028528184 0.0731875
0.079632 -0.026863119 -0.0047708107 -0.025893446 0.006686259 0.034774568 -0.026823327 -0.01821128
0.114682265 0.07611137 0.08264344 0.011651697 -0.017036473 -0.0031553975 -0.024598854 -0.01584584
-0.0026202372 -0.029455487 -0.03375336 -0.022011532 -0.04178269 -0.024522694 -0.0035537297 -0.007139092
-0.010717252 -0.058582477 0.022937002 -0.0033352938 -0.00038836562 0.013550312 -0.028669681 -0.0048451023
0.07387896 -0.0006216181 -0.011431291 -0.0070586605 -0.019403005 0.021253651 0.014438805 -0.047154415
0.025626427 -0.023118392 0.01890384 -0.03228649 0.054765943 0.024543315 0.0034214112 -0.012812997
0.011612034 0.007923798 0.0052049877 -0.02961945 0.07034902 -0.03396076 -0.01911679 0.017114121
-0.012851697 -0.09209281 0.015272777 0.10058716 0.0013643149 0.11588655 -0.096122906 -0.001086065
-0.009211826 -0.03838868 -0.014897686 -0.039774865 -0.01402849 0.0051760767 0.005927882 0.049739063
0.06105039 -0.048691817 0.010633752 -0.037765156 -0.010712912 0.034305207 0.020543989 0.01880226
-0.051417805 -0.0094649345 0.05466411 -0.030290078 0.042931158 0.14099991 0.023930604 -0.040227912
-0.0046493467 -0.032527782 -0.026510188 -0.012473251 -0.013346502 0.024736088 0.032635517 -0.035711557
0.035831515 0.06927556 -0.016476715 -0.08289079 0.034124922 -0.047288686 0.093345195 0.119677514
0.015519318 0.012035549 0.019481312 -0.071604006 -0.0055984347 -0.0047428734 -0.06528259 0.042651333
0.120494254 0.07108269 -0.059697494 0.0008610931 -0.006371178 0.016645148 0.008495882 0.048763953
-0.016925711 0.050126076 0.007067468 0.04790714 0.044256385 0.047604807 -0.009325641 -0.070500836
-0.07214209 0.0077301473 0.022389794 0.042989656 -0.0045442223 -0.041126456 0.0216469 0.007554781
-0.12074469 -0.07634333 -0.05815687 -0.025564147 0.011454064 4.1864394e-05 0.03273624 0.03253169
0.008264552 0.031463463 0.0053108903 0.043489818 0.037499905 0.027656367 0.027556477 0.002630064
0.024492087 0.063882455 -0.023707831 -0.01441243 0.0045430223 -0.0018085068 0.008577673 0.0039412766
-0.07695546 -0.0010707919 0.034433395 0.009557755 -0.0073643727 0.006928952 -0.029522473 0.05688855
0.0024837342 0.012208425 0.0019630084 0.023747645 -0.059145816 -0.046832472 0.00813143 0.021129446
-0.0074717836 -0.0075169983 -0.003785174 0.030476328 -0.047653347 0.012876 0.03223761 -0.025831716
0.016219126 0.11630947 -0.041122347 -0.09639905 -0.016135802 -0.10659143 0.104169674 -0.0024744626
0.0055027464 0.033941347 0.018605473 0.03540535 0.014022101 0.007954213 -0.02600446 -0.037547488
-0.060112584 0.045275223 -0.002670249 0.027206702 0.005264658 -0.053603943 -0.037879832 -0.0024326763
0.06590079 0.02226217 -0.046756454 0.03133845 -0.031789184 -0.1355576 -0.034411643 0.031816937
0.014135514 0.024971746 0.016111571 0.0036627597 0.00046594755 -0.02445006 -0.03595974 0.049467295
-0.025978904 -0.05477093 0.00044499204 0.08905776 -0.026568562 0.04999335 -0.096350595 -0.12911092

network_body._body_endoder.seq_layers.0.bias f4 [128]
00000000: dbcd babb 2a92 6e3b 9628 783c 0516 c63b
00000010: fb07 afbc b7d5 a43c 0122 cdbc 16a1 02bd
00000020: b6df abbb 3262 9bbc 189f a63c 9f5e db3a
00000030: 1ca2 c13a 8588 073c 6033 8abb 609a 753c
00000040: f165 0ebc f4d4 d4bb a110 5db9 15a3 a33b
00000050: 6ff3 383b 1736 643c 4ec6 0b3d 0040 c13c
00000060: 4fa1 073c 9623 3e3c fce3 d83c fb58 113c
00000070: e8c7 1c3c a6f8 653b 152e d8bc 8260 abbc
00000080: 646e 99bc dceb 713c 227a b93c 9c1d ac3c
00000090: 8fe7 fb3b 45aa 20bc e5fa 7c3c 417c 7d3c
000000a0: f0b3 33bb 76e0 16bd 9607 a3bc 4248 a33b
000000b0: 49af 51bb d017 df3b 6bfa 13bc fde3 663c
000000c0: f555 df3b c67c a0bb a8cd 71bc 365f a7bc
000000d0: a266 84bc 1a34 b73c f949 8d3c 71d6 093c
000000e0: 3dd8 dbbb 9a1c 23bd 4fc5 8a3c 02e9 f73c
000000f0: 7b74 5a3c e88b 373c 42ab bf3c 95e6 923c
00000100: b5b4 023d 7dec a4ba f2af 8a3c ee07 4b3c
00000110: cf9b d63c b473 483c 4825 1a3c 37d6 823c
00000120: 4ab9 0c3c 0e1d a63c 65af fa3b 9966 ac3c
00000130: 3f59 a93c 450a c9bb daa3 e73b 1168 19bc
00000140: aa8c 203c f68a 923c 0a33 613c a226 9ebb
00000150: 314e 3a3c 811a 9c3c 9d98 243c 3ca2 7fbb
00000160: 94f7 c43c 4b35 723a fb0a a93c ed83 893c
00000170: 82ba 1f3c c58f bb3b 575a 253c 1236 b2bc
00000180: 6df2 b03b 34f0 cf3c 8136 693c ff23 e13c
00000190: 80d5 fbba d54f 493c 3401 c8bb 0413 6a3c
000001a0: 741f 06bc 0eda c739 dc73 be3c 0d35 40bc
000001b0: 8283 ae3c 7aa9 cd3b b1a7 8c3c 980c 933c
000001c0: 5b36 bcbb c0c0 24bd 1d73 453c 1b16 903b
000001d0: 47b9 38bd 06bd e83c f039 3cbc f9a8 f03c
000001e0: d1b8 883b d013 d33b 7a45 0cbc 5517 bf3c
000001f0: 838d 743c 41e3 323c 3a33 ff3c c127 623c
-0.0057008094 0.0036403039 0.015146395 0.0060451054 -0.02136611 0.020121438 -0.025040628 -0.031891905
-0.0052451743 -0.018967722 0.020339534 0.0016736573 0.0014773044 0.008272295 -0.00421755 0.014990419
-0.008691297 -0.0064951126 -0.00021082397 0.004993806 0.002822127 0.013928912 0.034124665 0.023590088
0.008278205 0.011605164 0.026475899 0.008871312 0.009569146 0.0035090833 -0.026389161 -0.020920042
-0.018729396 0.014765706 0.022641245 0.021010213 0.007687516 -0.00980622 0.015440677 0.015471519
-0.0027420484 -0.036835156 -0.019901078 0.004982979 -0.0031995347 0.0068082586 -0.009031872 0.014092443
0.006815667 -0.0048976867 -0.014758505 -0.020431142 -0.01616222 0.022363711 0.017247187 0.008412943
-0.006709127 -0.0398222 0.016939787 0.030262474 0.013333435 0.01120279 0.023397092 0.017932216
0.031910617 -0.0012582686 0.0169296 0.012392027 0.026197342 0.012234617 0.009408303 0.015971286
0.008589098 0.020277526 0.007650303 0.021045016 0.020672439 -0.0061352574 0.007069093 -0.00936319
0.009799162 0.017888527 0.013745079 -0.0048263827 0.011371181 0.019055607 0.0100461515 -0.0039006611
0.024043836 0.00092395087 0.020635119 0.01678654 0.009749057 0.005723926 0.0100923395 -0.021754298
0.005399993 0.025383092 0.014234186 0.027482985 -0.0019213408 0.0122871 -0.006103659 0.01428676
-0.00818621 0.000381187 0.023248605 -0.011731398 0.021302942 0.0062763067 0.017169805 0.017950341
-0.0057437844 -0.040222883 0.012051371 0.0043971664 -0.04509857 0.028410446 -0.011488423 0.029377447
0.0041724225 0.006441571 -0.008561486 0.023326555 0.014926317 0.010918439 0.031152356 0.013803423

network_body._body_endoder.seq_layers.0.weight f4 [128, 373]
00000000: 8fc1 c2bd 5c21 e63c 8988 3f3d 17d5 ac3d
00000010: 0bb1 02be 594f b23c 0174 0f3c 20d6 c73d
00000020: 37a6 38bb 0d75 503d 1ba6 99bd 86cd 783d
00000030: d03f be3b 26d2 5a3d 3ac6 913d 39f8 a33c
00000040: c6c7 00be 252c fabc 5676 073d 69e6 243d
00000050: b088 a8bc bc11 4a3d f889 8d3c afea 6b3d
00000060: 26a6 02be 0af2 493d 3e99 103d 7ab7 6f3d
00000070: 4078 c6bd 8ae1 a63c b428 663c 152e 66bc
00000080: e9c7 cfbd 7cef 623d aff5 51bb 83de 6e3b
00000090: db09 c5bd 909a c3bb 9da7 9ebb beb9 96bd
000000a0: 82da 863e e118 5cbe 8fd3 2e3d 83c3 ae3c
000000b0: d57d d23b 99b2 8abd b2de d2bb 14ac 153d
000000c0: 2895 ca3e 8605 5bbe 6a11 16bd 5f66 96bd
000000d0: a314 ac3c 1aa5 cd3d 90f1 703d 57e2 b33d
000000e0: 7b75 ac3e c432 f8bd c01b 3fbc b6b6 ebbd
000000f0: f205 c5bd 3829 673c eeef 103d 35e7 b93d
00000100: 24dc 563e c2b0 8dbd 143f a7bc da1b 13bd
00000110: d178 98bd 948d c03d bdd4 313d a4f5 8e3d
00000120: c81c 233e 8406 37bd 2b1a 703d 1f99 ba3c
00000130: 3d74 c8bc 069f 25bc c1d0 a03c cdb6 103e
00000140: 8baa 8a3d c011 87bc 6a47 033d cedd 893d
00000150: 8b46 923c 658b a6bb 8360 c6bc 8066 233c
00000160: 1a9f 023e ac42 8abd 23ac 643d a5cc 13bc
00000170: 3961 0cbd 867b 71bc 9a52 59bd e36a 8c3c
00000180: cd0a 423e 267e 89bd 8cb5 a3bd b8d3 133a
00000190: c2dc 13bd 20eb 8a3d ce38 173c c38e ac3c
000001a0: bc34 413d 93d5 e8bd ea37 613d db46 7f3d
000001b0: c132 f13c 52b7 9cbd 64a3 f93c 3315 97bc
000001c0: 4498 2a3d 2577 e53c 8e9e c03d 00f9 04bd
000001d0: c31a c3bd d139 703d 5b36 3abd 6893 ccba
000001e0: 1048 3b3d a596 353b d7b6 293d cc6e babd
000001f0: 95c0 b7bc b5a4 9e3d 65d0 413d 1365 083c
00000200: 8391 d43c 74b0 7abd 6df7 313d 7886 abbb
00000210: 9979 263d e854 203d 4d1c c8bc 61b6 3ebd
00000220: 7eda e13c 18be 57bc 90a6 7c3b acb0 10bd
00000230: 55ac 3f3c b82c 87bd 0c3b e03c 1c4e a1bd
00000240: ac47 a33d 379e 98bc b51b a03c 6ebf 0e3d
00000250: 8763 6cbd 180a 483c 4cd1 263d 7b61 233c
00000260: f4c1 ab3c 5cd6 f1bd fcf1 873d e928 95bb
00000270: 9630 0abc 6c1a 2e3d d3c9 d93d 92a8 ddbc
00000280: 8c79 6ebd e5ae 16bd eccd be3d ecaf 0ebd
00000290: f447 483d e557 173d 8f6a f639 1a3b 803b
000002a0: de10 843d fa8a 8b3d b1d8 e83d d94f 343c
000002b0: dc48 ef3c 83e4 0b3d e177 6e3c 6b65 d0bc
000002c0: 6b25 65bc de2b f0bd a739 913d d33a 653d
000002d0: be25 37bd ed8b 64bd 847f a53a 6bb4 ca3d
000002e0: fd08 4f3b 8f73 4abd bfc2 133d aa2e 72bd
000002f0: b6c1 d0bd 522b c63d d477 673c 9164 1a3d
00000300: ced3 dc3c d553 1dbe 3d56 123d 88e3 13bd
00000310: 613d 2bbd 0e48 fd3c 6867 633d 836c 0d3d
00000320: efe7 053d 1791 b4bc 85ed 163d d7e6 55bd
00000330: 7b19 653c 8289 e13d 285a 4fbd 024f a1bd
00000340: 5594 ae3c 14ba 35bc 49ba ac3d 68ec 53bd
00000350: cf95 d23d 7453 15bc 9832 44bd 1b59 4e3c
00000360: a64f 0e3d 649d cfbc 0f22 bdbc 9db9 4b3c
00000370: 3528 c6bd f1e1 05bc e0dd 5ebb d4c7 243d
00000380: 13b7 353d 83bb a43b 8b57 ae3c c60a e73c
00000390: abfe b4bd ab6e a53d b199 2abc 6912 963d
000003a0: ec1d e6bc fdad 563c 0f47 223d 76c4 c0bd
000003b0: 211a a1bd 4f73 8cbd 1244 413c 3f42 943d
000003c0: a722 fabc 5520 653d 2cc3 64bd 3a7d 0dbc
000003d0: 7d05 853d be97 923d 58df 0bbd 0d5c 13bd
000003e0: 6f33 453c e8bc 7c3c ae03 743d a732 67bd
000003f0: c3b5 733d c7af 483d c9d7 3abc 4f44 913d
-0.095095746 0.028092079 0.04676107 0.08439081 -0.12762849 0.021766352 0.008755685 0.09757638
-0.0028175244 0.05089288 -0.07502385 0.060742877 0.005805947 0.05342307 0.07117887 0.020015823
-0.12576208 -0.030538628 0.03307184 0.0402588 -0.02057299 0.04933332 0.017277703 0.05759686
-0.12758693 0.049303092 0.035302393 0.058524586 -0.096909046 0.020371217 0.01404779 -0.014049073
-0.10145552 0.05540417 -0.0032037308 0.0036448545 -0.096210204 -0.005969353 -0.0048417584 -0.07359646
0.26338583 -0.21493866 0.042682227 0.021333462 0.0064236918 -0.06772346 -0.0064352388 0.03654106
0.39566922 -0.21388826 -0.0366377 -0.073437445 0.021005934 0.10041256 0.058824122 0.08783405
0.3368338 -0.12119058 -0.011664331 -0.11509459 -0.096202746 0.014108948 0.035385065 0.09077302
0.20982414 -0.069184795 -0.02041582 -0.035915233 -0.07444919 0.09402004 0.043415774 0.06980446
0.15928948 -0.04468395 0.058618706 0.022778092 -0.02446949 -0.010108715 0.019630792 0.14132233
0.0677081 -0.016487956 0.032050528 0.06731759 0.017855903 -0.005082535 -0.024215942 0.009973168
0.12756005 -0.06750998 0.055828225 -0.009020959 -0.034272406 -0.014738923 -0.05305729 0.017140811
0.18949433 -0.06713514 -0.07993612 0.00056391535 -0.036099203 0.06783128 0.009229852 0.021064168
0.047169432 -0.11368861 0.054984964 0.062323432 0.029443147 -0.07652153 0.030473419 -0.018442726
0.041649118 0.028010914 0.09405242 -0.032464027 -0.09526589 0.058648888 -0.045461994 -0.0015607895
0.04572302 0.00277082 0.041434135 -0.09103164 -0.022430697 0.07746259 0.04731788 0.008324879
0.025948292 -0.061203435 0.043448854 -0.005234536 0.04064331 0.039143473 -0.024427557 -0.04656065
0.027570006 -0.0131678805 0.0038551427 -0.035324737 0.011698802 -0.06600326 0.027371906 -0.07876226
0.07972655 -0.01863013 0.019544462 0.03485053 -0.057712104 0.012209438 0.040726945 0.009971972
0.020966507 -0.11808464 0.06637952 -0.004551996 -0.008434435 0.042505667 0.10634198 -0.02705792
-0.058221385 -0.036787886 0.0931662 -0.03483574 0.048896745 0.036949057 0.0004700017 0.0039132955
0.0644853 0.06813617 0.113694556 0.011005365 0.029209547 0.034153473 0.014554949 -0.025438985
-0.013985972 -0.11727117 0.070910744 0.055964302 -0.044713728 -0.055797506 0.0012626504 0.09897693
0.003159105 -0.04942661 0.036074396 -0.059126534 -0.101931974 0.096762314 0.01412769 0.037693564
0.026956465 -0.1536401 0.035726774 -0.036105663 -0.041806582 0.030918147 0.055518538 0.034527313
0.032691892 -0.02204184 0.03684761 -0.0522221 0.013983126 0.11012556 -0.05062309 -0.07876398
0.021310965 -0.011091728 0.084339686 -0.051739126 0.1028248 -0.009114135 -0.047899812 0.012594487
0.034743927 -0.025343604 -0.02308753 0.01243439 -0.09675638 -0.008171544 -0.003400676 0.040229633
0.044364046 0.005027236 0.021281978 0.02820338 -0.088376366 0.08077749 -0.010412619 0.0732773
-0.02809044 0.0131030055 0.039618548 -0.09412472 -0.07866312 -0.06857931 0.011796014 0.07239198
-0.030534102 0.055939037 -0.055850193 -0.008635813 0.064951874 0.07157849 -0.034148544 -0.03597646
0.0120361885 0.015425898 0.05957382 -0.05644479 0.059499513 0.04899576 -0.011403986 0.07093107

network_body._body_endoder.seq_layers.2.bias f4 [128]
00000000: 70bb 18bd f2e2 a9bc 2acb 51bc 3e63 063d
00000010: d51a 1bbc ec7b 41bb 41f0 703c ecee e93c
00000020: 4bdf b33c 0c63 153d ac38 993c fab3 03bd
00000030: 826c 35bc 37e4 9c3c a7b7 e63a 6a85 90bc
00000040: da08 f4bc 7e04 7ebc 8007 64bc 369c 1cbc
00000050: 7749 093c 59eb 323c 83ab 923b dbd6 c23b
00000060: 7957 343c 1705 1d3c c373 953c cec3 38bc
00000070: 2968 39bc 389d c43c e30a 1f3c ca12 c4bc
00000080: 803a 1f3c 5995 1b3b 461c 753b 5a93 d63c
00000090: 03b4 903c 41f5 2bbc 5dad 76bc ddf1 123b
000000a0: 18b1 8e3b 4bf0 b43b 79d7 033b baf6 8abc
000000b0: b4fe 08bd 15f7 973c 5e94 403d 2c61 60bc
000000c0: 5b14 1fbc 9aed 243d 9003 9d3c c728 f83c
000000d0: 4128 8dbc 6233 30bc 5b91 e13c 9c50 5e34
000000e0: 8edc e3ba 6e84 79bc c52e 173c c839 683b
000000f0: d152 0dbc b20b 733d 3747 023c 6873 ba3c
00000100: d825 303c 5a6f 343c 58e3 06bc 2d1c 613a
00000110: 1f96 923c d5f1 943c 679a 4abc 3b48 b1bb
00000120: f300 583c 9546 b33b 480d 3f3b aa14 c1bb
00000130: 9cd2 403c f2be 173b ffa4 e33b 5299 cf3a
00000140: b946 a23c 8ee1 123d 0116 063d 815a 963c
00000150: fb21 52bc 9e1e 883c bdc8 1a3d 8e67 4cbd
00000160: 80e6 efbb 75cf 60bc a851 cbbb d3af e13c
00000170: dba6 003d a81a e93b 4c95 10bc 9330 0a3d
00000180: b87e bc3b d62c 03ba 54cf 8fbc fa9c 59b9
00000190: 15e6 55bc b7c3 533b 41db 4b3b a6e3 57bb
000001a0: 3732 0a3c 67e1 0e3d 5d6b ab3c f6c7 78bc
000001b0: a57e 1b3b 6989 013d 59df 933c 7908 343c
000001c0: 9d17 86bc 2030 dbbc de7b 4abc ddec c8bc
000001d0: b0ac e73b 8b0e ebbc 549f 3fbc fcd9 f1b9
000001e0: 999d 253c 82fb b13b c5cb e6bb 84aa 123d
000001f0: 3a7e 8a3c 6d8e c03b d5bd b13c 7095 393d
-0.03728813 -0.020738099 -0.012804786 0.03280949 -0.0094668465 -0.0029523326 0.0147057185 0.02855631
0.02195706 0.03647141 0.018703781 -0.03215406 -0.011073234 0.01915179 0.001760234 -0.017641742
-0.029789377 -0.015504001 -0.013917804 -0.009558728 0.008379332 0.010920369 0.004476012 0.005946023
0.011007183 0.009583733 0.018243676 -0.011277152 -0.011316338 0.024000749 0.009707185 -0.02393474
0.009718537 0.0023740141 0.0037400885 0.02619331 0.017663961 -0.010495485 -0.015055981 0.0022421994
0.0043546073 0.005521809 0.0020117445 -0.016963352 -0.03344603 0.018550435 0.047016494 -0.013695043
-0.009709443 0.040265657 0.019166738 0.030292882 -0.017231109 -0.010754438 0.027535131 2.0704687e-07
-0.0017384456 -0.015229328 0.009227459 0.003543483 -0.008625702 0.059337325 0.007951549 0.022760108
0.01075121 0.011012876 -0.008232914 0.00085872674 0.017893849 0.01818172 -0.012365914 -0.005410222
0.01318382 0.0054710605 0.0029152203 -0.005892356 0.011768963 0.0023154584 0.0069471593 0.001583854
0.019809114 0.035859637 0.03273583 0.018353703 -0.012825484 0.016616162 0.037789095 -0.049903445
-0.007321179 -0.013721337 -0.0062048025 0.02754966 0.031409126 0.0071137734 -0.008824658 0.03373773
0.0057524107 -0.00050039345 -0.017554916 -0.00020753211 -0.013055344 0.00323127 0.0031106027 -0.0032942086
0.008434824 0.03488293 0.020925218 -0.015184393 0.002372661 0.031625185 0.018050836 0.010988348
-0.016368682 -0.026756346 -0.012358634 -0.024527008 0.0070701465 -0.028693458 -0.011695702 -0.00046129513
0.010108375 0.0054315934 -0.007043334 0.035807148 0.016905893 0.0058763535 0.021696964 0.04530853

network_body._body_endoder.seq_layers.2.weight f4 [128, 128]
00000000: c55d 7ebd b6c0 c83c 148f 63bd 68a0 8039
00000010: d5a3 d6bc 7322 86bc cdc1 143e d213 cfbc
00000020: f869 2a3e 62bf 19be e597 053e ddf5 cbbd
00000030: 2878 023e cc3f ce3d 9194 6e3c a31e efbc
00000040: 66ca c13d 30f0 873d e9c8 8ebd ee82 433c
00000050: f2eb b53d 99f6 00be d18c 453c 082f ee3c
00000060: 1021 88bd 2196 24be dc11 a1bd aa7b 54bd
00000070: f1dc 75be 0870 363d e5dc cc3d 1e09 403d
00000080: fdac 33bd 47f4 2abe 0882 debc 7f37 a6bd
00000090: 7747 76bc 8859 34bc a08f aabd bd3a 26be
000000a0: 71f5 aabd fddd 77bd a364 a93c 1884 bbbd
000000b0: 2173 503b c86d cf3d cfee 043e 5c8d aa3d
000000c0: b507 81b9 0213 393d 41d7 7cbd acc9 963d
000000d0: a7a2 3a3e eb4e 1dbe 2439 04be 5001 f13d
000000e0: 038c d73d 6d6b 8e3d c85f 41be d142 873c
000000f0: 5b29 6f3d d19b c23c b1e9 59bd 5cd1 9dbd
00000100: e1a6 91bd c7f3 783d 6885 863d ce3b 45bd
00000110: 5e0b e03c 8902 b3bc bfc5 d33d 2e66 1fbe
00000120: a9fc 87bd edd1 22be a8c3 babd b5dc 843e
00000130: 3044 dabd 38d9 78bc 4529 f6bd c344 2d3d
00000140: 908a 13bd d655 bfbc 0bda ad3d bd76 163d
00000150: 62c4 833c 5a02 6cbd b1a5 fdbd d0a5 3fbc
00000160: 4eec d33d d558 2abd a1ff e8bd aabf c3bd
00000170: 6f28 80bc 4e04 fdbc 589f c6bd 610c 8cbd
00000180: eef9 253e aac3 74bd 8ee4 85bd aa0c c53d
00000190: 5eda 7ebe dbc1 80bb 6a15 a7bd c40e 873b
000001a0: 4cea e4bb e62a 1d3b edfe b2bd aafb 9abd
000001b0: 8e87 8a3c b3bf 20be 6657 e23d 3f2c 8abd
000001c0: de65 f2bc 9018 e3bc fa60 6ebd f2d5 7fbd
000001d0: 5e76 b3bd 1260 893c ef77 f2bd 8f95 b63c
000001e0: 27f7 763b 5f68 8139 e8ab dbbd e072 953c
000001f0: 1d58 00be 3676 ba3d 8844 6dbd ff41 f7bb
00000200: b772 c5bc 9708 f33c 1923 14be fe0a e1bc
00000210: 5337 343d c522 56be 3755 393b 1c59 b23c
00000220: 368a 5b3d f4ec 873d 628f f6bc 8ddf e43d
00000230: 0078 e1bd 56e3 6fbd 13cc 8f3d 1fe3 2f3d
00000240: 772d ea3b 521a 99bc c16f 7bbc 2691 153c
00000250: 50d2 17be 7c2e 683c d27e 533d 34f6 88bd
00000260: e83a d43c f9c0 54bc 9c09 b3bd af22 2bbd
00000270: 7e78 043d ac0c c13d 8e99 4dbd ee4b 933d
00000280: f507 a3bd 9689 9abb 28dd 55bd 0fe3 28be
00000290: 94b6 bbbd 5ba9 f0bd 4dfb 2bbd b763 2fbc
000002a0: 52c2 69bd a944 703d ae5a 843d 5e57 ec3d
000002b0: 704a aebd de8c 4dbe 7d45 453d d997 2cbe
000002c0: 043b db3b d4d4 7abd 078d 843d b50b d23d
000002d0: 4103 ee3d b765 f7bd 8a5d 213e 9efc 24be
000002e0: e6d4 fe3c 6b73 773d 2b39 2b3e 8b21 b2bd
000002f0: df57 e1bc cbb6 5bbc eab3 003e e45a aebb
00000300: 4532 723d 7d21 a2bd 0768 38bd 0be3 68bc
00000310: f23e 9dbc b952 ae3d be86 3b3d c3da 533d
00000320: b82d b0bb 616c 61bd c613 48be 62b7 f3bd
00000330: 72c1 e8bd 753b 71bd 2771 1abe eefd 1d3d
00000340: 71c1 5a3d 28bb 2d3e c534 42bc 5022 483c
00000350: 05e8 803d 6760 bdbd a56b 193d 7b65 043d
00000360: 20ff cfbc 248f 2c3d 7e7f 703e d361 bd3a
00000370: 2394 903c dfbf 873d 486a 06be fcfa b83d
00000380: b8db 2b3e c835 183d 47d7 d5bd 5324 883c
00000390: 30e7 5cbb 263e 7cbd 501c 0a3c a541 df3d
000003a0: 51fa bfbc d718 ddbc f16f a03c feca b0bd
000003b0: 1378 14be 408a 373d d91e b23d 6491 663d
000003c0: 2448 4fbe f7b3 8abb 86d6 573e 9464 acbd
000003d0: a75d 953a 3cfc cebb 7c43 bcbc 2ef7 483c
000003e0: 3cc9 13be 6555 2ebd 25dc 47bd 26e9 f4bd
000003f0: f4dd 2ebe 232f aebd 67bc 473d 24a1 403e
-0.062101144 0.024505954 -0.05555637 0.00024533574 -0.026201168 -0.016373849 0.14527054 -0.025278006
0.16641986 -0.15014413 0.13046224 -0.09959004 0.12741148 0.10070762 0.014561788 -0.029189413
0.094624326 0.06637609 -0.06971914 0.011933072 0.088828936 -0.1259407 0.012057499 0.02907516
-0.06646931 -0.16072895 -0.078647345 -0.051875748 -0.24010064 0.044540435 0.1000307 0.046883695
-0.043866146 -0.16694747 -0.027161613 -0.08116054 -0.015031687 -0.011007674 -0.083281755 -0.16233344
-0.083475955 -0.06051444 0.02067787 -0.09156054 0.0031806903 0.10128361 0.12981723 0.083277434
-0.0002461054 0.045184143 -0.06172872 0.073626846 0.1822611 -0.15362136 -0.12912422 0.117678285
0.10524752 0.069540836 -0.18884194 0.016511353 0.05838905 0.02375594 -0.05320138 -0.07705948
-0.07111908 0.06077936 0.06568414 -0.048152737 0.02734917 -0.021851795 0.103404514 -0.15566322
-0.06639988 -0.15900393 -0.0911935 0.25949636 -0.10657537 -0.015188508 -0.1201959 0.042301904
-0.036020815 -0.02335636 0.08488854 0.03673433 0.016084854 -0.05761943 -0.12385119 -0.011697248
0.10347806 -0.041588623 -0.11376882 -0.095580414 -0.01564428 -0.030885842 -0.09698361 -0.068382986
0.16208622 -0.059756912 -0.06537734 0.09621556 -0.24887988 -0.0039293594 -0.08158381 0.0041216332
-0.006985938 0.0023981868 -0.087400295 -0.07567532 0.01691034 -0.15698127 0.11051826 -0.067467205
-0.02958959 -0.027721673 -0.058197953 -0.062459894 -0.08762811 0.016769443 -0.11839282 0.022288112
0.0037683935 0.0002468256 -0.10726148 0.018243253 -0.12533613 0.09104578 -0.057926685 -0.007545709
-0.024102552 0.029667182 -0.14466514 -0.027471062 0.043998074 -0.20911701 0.0028279552 0.021771006
0.053598605 0.06636992 -0.030097667 0.111754514 -0.11009216 -0.058566414 0.07021346 0.04294121
0.007146533 -0.018689308 -0.015346468 0.009128844 -0.14826322 0.014171239 0.051634617 -0.066875845
0.025906995 -0.012985461 -0.08742067 -0.041781124 0.032341473 0.09426245 -0.05019527 0.07192217
-0.07960502 -0.0047161086 -0.052212864 -0.16492866 -0.091656834 -0.11751052 -0.041987706 -0.010704926
-0.057070084 0.05865923 0.06462608 0.115401015 -0.085102916 -0.20073268 0.048161972 -0.168548
0.006690385 -0.061238125 0.06472211 0.10256139 0.116217144 -0.120799474 0.15758339 -0.16111991
0.031107377 0.060412806 0.16721027 -0.08697804 -0.02750772 -0.01341028 0.12568632 -0.0053208936
0.059129972 -0.07916544 -0.045021083 -0.0142142875 -0.019195054 0.08511872 0.045782797 0.0517223
-0.005376544 -0.055035 -0.19538793 -0.11900212 -0.11365022 -0.058894593 -0.15082227 0.038572244
0.053407136 0.16965926 -0.011853402 0.012215212 0.06294254 -0.09246903 0.037456173 0.03232334
-0.025390208 0.042128697 0.23486134 0.001444871 0.017648762 0.066283934 -0.1312648 0.090322465
0.16783035 0.037160665 -0.104414515 0.016618883 -0.0033707134 -0.061582707 0.008429602 0.109011926
-0.02343479 -0.026989384 0.019584628 -0.08632468 -0.1449893 0.04480958 0.0869729 0.056291
-0.20242363 -0.0042328793 0.21077928 -0.08417621 0.0011395708 -0.00631669 -0.022981398 0.0122659635
-0.14432234 -0.042561907 -0.04879393 -0.11958532 -0.17076856 -0.08505084 0.04876366 0.1881147
