FPS AI/results/1/FPS Agent/FPS Agent-2134961.onnx (onnx, 263358 bytes, 9 tensors)

action_model._continuous_distribution.log_sigma f4 [1, 3]
-0.1372481 -0.0067219567 -0.20253477
00000000: c48a 0cbe dc43 dcbb 4665 4fbe

action_model._continuous_distribution.mu.bias f4 [3]
0.009383921 -0.009612388 0.01722038
00000000: 04bf 193c 477d 1dbc c111 8d3c

action_model._continuous_distribution.mu.weight f4 [3, 128]
0.028266003 -6.833006e-05 0.01717582 0.011458786 -0.0023872892 -0.016358301 0.017803432 0.006191098
-0.014539956 -0.053725343 0.0054189945 0.019458862 -0.025604978 -0.003401843 -0.014959207 -0.002909239
0.0010809264 0.03660458 -0.014308192 -0.027247755 0.034358412 0.008948467 0.004838322 0.010864331
0.019504119 0.0017295028 0.00957739 0.011616444 -0.022580953 0.0344664 0.01642994 0.012078819
0.009861398 0.013353906 0.04506988 -0.009973799 0.04543355 -0.025017193 -0.0042034863 -0.009181886
-0.0011017667 -0.02530119 0.0021460017 -0.0324903 -0.007731976 -0.0077083586 0.021237766 0.024003664
0.011170542 -0.015622399 -0.017879251 0.026632374 0.0006524824 0.027533129 -0.037527684 -0.00681716
0.029651841 0.0019836524 -0.021199955 0.03363876 -0.03303386 -0.01780134 -0.011206331 0.01427612
0.0019937549 -0.01938441 0.008192931 -0.02802152 -4.0084135e-05 0.011253457 0.011499253 -0.024550635
0.0075900247 -0.0046619894 -0.0042142873 -0.033414036 -0.05215639 -0.015388629 -0.008731779 -0.034691624
-0.014724859 0.00066924543 0.004335277 0.009089811 0.002417084 0.043414887 -0.012390458 0.00656311
0.0011644284 -0.003162639 -0.015440755 0.023404252 0.06575148 0.016064338 0.0024091331 0.012701464
-0.011665578 -0.06784433 -0.00095149665 0.00714166 -0.0044523273 -0.024834251 -0.022753747 0.033534773
-0.04137937 0.031743888 -0.027201582 -0.016696794 -0.033999234 0.018703895 -0.03225331 -0.02660025
-0.01587862 0.057074174 -0.024984108 0.027818583 0.01748259 -0.02236245 -0.010518335 -0.017604081
-0.018288907 -0.005507631 -0.027135272 -0.012001602 -0.026948528 -0.013657623 -0.0008302221 0.0025121516
0.002200287 0.00054214324 -0.002911975 0.0092644375 0.020227276 -0.010322883 -0.009586593 -0.023092292
0.033224724 0.01405994 -0.015735563 0.016263325 0.024515895 -0.02393179 0.07887054 0.0065966677
0.0030615851 -0.040245336 0.0047663576 0.0075786216 0.011657447 0.031374514 0.00998156 0.018885689
-0.00320458 -0.006348015 0.013737051 -0.007600737 0.008505849 -0.010043007 -0.0039428063 0.014146326
0.011405745 0.016840493 -0.014057587 -0.049780756 0.010718817 -0.034520082 -0.006763921 -0.024955953
-0.0154064065 0.013774791 -0.02131758 -0.012201772 -0.01197158 -0.030543594 0.02665967 -0.013781383
0.013476068 -0.011646425 -0.02727312 -0.01305496 -0.019830821 0.0035011158 -0.008946436 -0.030614188
0.0067123263 0.0040592747 -0.05200583 0.073291846 0.013921278 0.08532089 -0.024954837 0.019954063
0.035567056 0.034393102 -0.012000996 -0.008797956 -0.042559937 -0.004181081 0.020440321 0.018132018
-0.0022446017 0.05670749 0.021339178 -0.0054287193 0.04743883 0.010747402 0.018674435 -0.011381069
0.088764586 0.023092313 0.008952216 -0.014682944 0.012875213 0.008671095 0.06454934 0.024188563
-0.030045766 0.0018932705 -0.047820676 0.03775295 0.112893395 -0.017772224 0.010992392 -0.03577226
-0.029316807 0.009967172 -0.017172506 0.0055201068 -0.025388427 -0.012592465 -0.018223532 0.0023624492
-0.013921023 -0.012914287 0.016769683 0.017275488 0.04697436 -0.007794737 0.016451932 -0.0021885294
0.03199536 0.04257253 -0.025264697 0.0014294729 -0.024304997 0.007929734 0.011925564 -0.0030245117
-0.010781752 0.0038263006 0.012141635 0.0018590782 -0.042447705 -0.009375386 -0.0010109388 -0.0038187094
00000000: 1b8e e73c 6c4c 8fb8 4eb4 8c3c a2bd 3b3c
00000010: 1174 1cbb d801 86bc 81d8 913c b2de ca3b
00000020: ff38 6ebc 1b0f 5cbd d291 b13b 3168 9f3c
00000030: 88c1 d1bc 74f1 5ebb 7617 75bc eea8 3ebb
00000040: dfad 8d3a afee 153d e86c 6abc af36 dfbc
00000050: 68bb 0c3d 979c 123c c98a 9e3b 4f00 323c
00000060: 1ac7 9f3c 7cb0 e23a 7cea 1c3c e652 3e3c
00000070: b1fb b8bc a42c 0d3d 1598 863c 3de6 453c
00000080: b391 213c 57ca 5a3c 329b 383d 2569 23bc
00000090: 8818 3a3d dbf0 ccbc 66bd 89bb 9f6f 16bc
000000a0: 2869 90ba 7144 cfbc efa3 0c3b 8c14 05bd
000000b0: 845c fdbb 6696 fcbb d3fa ad3c 55a3 c43c
000000c0: a604 373c 17f5 7fbc 8277 92bc 232c da3c
000000d0: 5a0b 2b3a 288d e13c a1b6 19bd 7c62 dfbb
000000e0: 6be8 f23c 2a00 023b 87ab adbc ccc8 093d
000000f0: 834e 07bd 1ed4 91bc c29a 37bc 63e6 693c
00000100: a8a9 023b 0ecc 9ebc a53b 063c 638d e5bc
00000110: 0320 28b8 6b60 383c 5d67 3c3c 6a1e c9bc
00000120: beb5 f83b 9ac3 98bb 0118 8abb 28dd 08bd
00000130: f0a1 55bd 9720 7cbc bc0f 0fbc ce18 0ebd
00000140: 8940 71bc 4d70 2f3a f00e 8e3b 6eed 143c
00000150: f167 1e3b cfd3 313d 5901 4bbc 5b0f d73b
00000160: bc9f 983a 4744 4fbb 38fb 7cbc 46ba bf3c
00000170: b6a8 863d 5c99 833c 8ce2 1d3b cd19 503c
00000180: fb20 3fbc f8f1 8abd dc6d 79ba 9604 ea3b
00000190: d4e4 91bb 3371 cbbc 1166 babc c25b 093d
000001a0: 6a7d 29bd e105 023d dad5 debc b7c7 88bc
000001b0: c842 0bbd e938 993c 0c1c 04bd c4e8 d9bc
000001c0: e113 82bc 9cc6 693d 79ab ccbc cce3 e33c
000001d0: a637 8f3c 7531 b7bc 1855 2cbc 6f36 90bc
000001e0: 9ed2 95bc 5c79 b4bb ca4a debc 5ea2 44bc
000001f0: 29c3 dcbc 39c4 5fbc 43a3 59ba e9a2 243b
00000200: b132 103b 9e1e 0e3a d5d6 3ebb dec9 173c
00000210: acb3 a53c 4f21 29bc 1611 1dbc 0c2c bdbc
00000220: a616 083d aa5b 663c dee7 80bc aa3a 853c
00000230: 8fd5 c83c 9a0c c4bc e186 a13d dc28 d83b
00000240: e0a4 483b 4bd8 24bd 1b2f 9c3b 1656 f83b
00000250: e0fe 3e3c 9082 003d b289 233c 29b6 9a3c
00000260: ee03 52bb 0203 d0bb 5e11 613c 9a0f f9bb
00000270: 1e5c 0b3c 6d8b 24bc a832 81bb fec5 673c
00000280: 29df 3a3c 13f5 893c cb51 66bc e8e6 4bbd
00000290: fa9d 2f3c ee64 0dbd e2a3 ddbb 6d70 ccbc
000002a0: 276b 7cbc a9af 613c 35a2 aebc f1e9 47bc
000002b0: 7224 44bc 8f36 fabc 6165 da3c 4fcb 61bc
000002c0: baca 5c3c a6d0 3ebc e16b dfbc 79e4 55bc
000002d0: 3f74 a2bc fa72 653b 1394 12bc 9bca fabc
000002e0: 13f3 db3b aa03 853b 1104 55bd 091a 963d
000002f0: 1216 643c b8bc ae3d 166e ccbc b476 a33c
00000300: c3ae 113d c8df 0c3d d39f 44bc 4d25 10bc
00000310: 5453 2ebd 7301 89bb 7672 a73c 9989 943c
00000320: 2b1a 13bb 1d46 683d 80cf ae3c 66e3 b1bb
00000330: 384f 423d df15 303c 21fb 983c aa77 3abc
00000340: 35ca b53d 172c bd3c 51ac 123c bb90 70bc
00000350: 8ff2 523c 3511 0e3c 7232 843d 1827 c63c
00000360: 8a22 f6bc 9e27 f83a 9ddf 43bd d6a2 1a3d
00000370: a734 e73d 0e97 91bc 6f19 343c ef85 12bd
00000380: cd29 f0bc 594d 233c 5bad 8cbc 03e2 b43b
00000390: 64fb cfbc a050 4ebc 8449 95bc 52d3 1a3b
000003a0: 0115 64bc 7296 53bc 9360 893c 5385 8d3c
000003b0: 3068 403d fe6a ffbb 34c6 863c 6e6d 0fbb
000003c0: 910d 033d 8960 2e3d e9f7 cebc 275d bb3a
000003d0: 461b c7bc b7eb 013c 7163 433c e336 46bb
000003e0: f2a5 30bc acc2 7a3b b5ed 463c 50ac f33a
000003f0: a5dd 2dbd 389b 19bc 7a81 84ba 5043 7abb

action_model._discrete_distribution.branches.0.bias f4 [2]
0.01573632 -0.015736315
00000000: 74e9 803c 72e9 80bc

action_model._discrete_distribution.branches.0.weight f4 [2, 128]
0.0046944716 -0.00092545775 -0.0114470115 0.068949685 0.009598739 -0.00450121 0.04368976 -0.042296316
-0.08952057 -0.06586496 0.022767484 -0.0035821537 0.023573184 -0.015592437 -0.022624172 -0.02381661
0.013345603 -0.019032078 -0.0029122054 -0.027570779 -0.03892281 -0.043918665 0.029629959 0.07027062
0.05379012 -0.023340236 -0.004152974 -0.013839459 -0.0018121565 0.02874986 -0.013042553 -0.00952576
0.103746764 0.059260786 0.06815427 0.008153846 -0.007567338 -0.0019813431 -0.01370835 0.007284719
-0.004162521 -0.029822098 -0.023492593 -0.022473613 -0.02924667 -0.016338242 -0.011922099 0.00048382732
-0.0099020945 -0.03525685 0.031658366 0.010833495 0.0033196302 0.02002669 -0.015501677 0.013365026
0.06743873 -0.0012863385 0.0075670797 -0.01565635 -0.0120820645 0.019403009 0.009518025 -0.025807777
0.023561465 -0.017295612 0.024553211 -0.019508937 0.05276586 0.023160089 0.0046207146 -0.008302119
0.0011943021 0.011532576 0.016482785 -0.02116807 0.052560642 -0.017248545 -0.015908796 0.03192391
-0.016487554 -0.08820231 0.011941205 0.08187709 -0.0050928877 0.10308411 -0.100453265 0.004226736
-0.009199667 -0.0291488 -0.003413569 -0.03929907 -0.02320941 0.0069147274 0.009032047 0.04624527
0.052467547 -0.05151881 0.012165148 -0.020624988 -0.006918281 0.014090723 0.022234581 0.010829467
-0.046625633 -0.014900081 0.058213513 0.0010723629 0.030945184 0.11505267 0.025465555 -0.04244443
0.0019294318 -0.019234011 -0.012156578 -0.008173899 -0.00628703 0.026045147 0.030652475 -0.031127369
0.051165458 0.064974315 -0.01052545 -0.07520311 0.03177386 -0.033719257 0.07768519 0.10004542
0.01319096 0.00032306332 0.0134420125 -0.07310556 -0.0006059448 -0.012352539 -0.052167293 0.028047362
0.10306366 0.058565747 -0.055881105 0.00047833798 -0.010442694 0.014538292 0.008833492 0.039939623
-0.013205387 0.017547583 -0.020472873 0.03755883 0.04747873 0.05073722 -0.010427424 -0.06758394
-0.046300184 0.0042073 0.021771936 0.030935785 0.0039541703 -0.035101756 0.007866113 -0.0011307345
-0.10980916 -0.059492722 -0.043667518 -0.02206628 0.001984963 -0.0011321811 0.021845661 0.009401149
0.009806838 0.031830166 -0.0049498724 0.04395188 0.024963921 0.019471912 0.035924807 -0.004992845
0.0236769 0.04055677 -0.03242917 -0.028581189 0.0008350086 -0.008284903 -0.0045903446 -0.014268837
-0.0705152 -0.00040608167 0.015435014 0.01815546 -0.014685298 0.008779604 -0.024601748 0.03554189
0.0045487205 0.0063856384 -0.003686357 0.010970109 -0.05714573 -0.045449283 0.0069321315 0.01661854
0.0029459386 -0.0111257695 -0.015062971 0.022024954 -0.029864864 -0.0038362162 0.029029585 -0.04064143
0.019855006 0.11241896 -0.037790775 -0.07768892 -0.00967858 -0.093789004 0.10850003 -0.0077872677
0.005490588 0.024701467 0.0071213264 0.03492957 0.023203034 0.0062155556 -0.029108595 -0.03405364
-0.05152975 0.0481022 -0.0042016376 0.010066509 0.0014700205 -0.033389498 -0.039570443 0.005540129
0.061108626 0.027697312 -0.050305836 -2.4018944e-05 -0.019803176 -0.10961045 -0.035946663 0.034033436
0.0075567467 0.011677972 0.0017580007 -0.0006366202 -0.0065935156 -0.025759127 -0.03397668 0.044883095
-0.04131282 -0.050469708 -0.0055062487 0.081370056 -0.024217483 0.03642392 -0.08069055 -0.10947892
00000000: 15d4 993b 6b9a 72ba 3f8c 3bbc 7e35 8d3d
00000010: 0844 1d3c e37e 93bb 09f4 323d e73e 2dbd
00000020: 9056 b7bd 35e4 86bd e082 ba3c 91c2 6abb
00000030: 8d1c c13c 6c77 7fbc 5456 b9bc 0d1b c3bc
00000040: 84a7 5a3c 29e9 9bbc b3da 3ebb 1ddc e1bc
00000050: 866d 1fbd 0fe4 33bd 87ba f23c 0bea 8f3d
00000060: 0753 5c3d 0634 bfbc ac15 88bb e6be 62bc
00000070: e285 edba d484 eb3c 6fb0 55bc ef11 1cbc
00000080: 2f79 d43d 70bb 723d 7794 8b3d b597 053c
00000090: 6ff7 f7bb 6cd9 01bb fd98 60bc a7b4 ee3b
000000a0: c265 88bb 794d f4bc 8a73 c0bc 951a b8bc
000000b0: b696 efbc c7d7 85bc e854 43bc 34aa fd39
000000c0: 653c 22bc 7d69 10bd 34ac 013d f97e 313c
000000d0: 278e 593b 030f a43c bffa 7dbc fbf8 5a3c
000000e0: 511d 8a3d 5c9a a8ba 44f5 f73b bf41 80bc
000000f0: daf3 45bc 0ff3 9e3c 7ef1 1b3c d56a d3bc
00000100: f903 c13c 87af 8dbc d123 c93c 35d1 9fbc
00000110: 0421 583d 3aba bd3c 5d69 973b 9c05 08bc
00000120: 218a 9c3a 21f3 3c3c e806 873c a968 adbc
00000130: d449 573d d24c 8dbc 2a53 82bc a5c2 023d
00000140: e810 87bc 6aa3 b4bd 0ba5 433c 2daf a73d
00000150: 3de2 a6bb c31d d33d 71ba cdbd 6e80 8a3b
00000160: 33ba 16bc 77c9 eebc 2fb6 5fbb 10f8 20bd
00000170: a921 bebc f094 e23b 27fb 133c ae6b 3d3d
00000180: 36e8 563d 6305 53bd 5450 473c bcf5 a8bc
00000190: bfb2 e2bb c7dc 663c 4c25 b63c 146e 313c
000001a0: 85fa 3ebd 781f 74bc 4b71 6e3d 878e 8c3a
000001b0: c180 fd3c bca0 eb3d 249d d03c 36da 2dbd
000001c0: fde4 fc3a a590 9dbc 622c 47bc d1eb 05bc
000001d0: 6e03 cebb a25c d53c e61a fb3c d3fe febc
000001e0: df92 513d 4111 853d f072 2cbc 1704 9abd
000001f0: 4f25 023d 341d 0abd 6a19 9f3d 9de4 cc3d
00000200: e51e 583c d360 a939 e33b 5c3c 5eb8 95bd
00000210: 44d8 1eba 4e62 4abc 5fad 55bd 95c3 e53c
00000220: 0a13 d33d a3e2 6f3d 96e3 64bd 70c9 fa39
00000230: d517 2bbc 0432 6e3c 5aba 103c bb97 233d
00000240: 685b 58bc f3bf 8f3c bab6 a7bc 4ad7 193d
00000250: 0f79 423d d5d1 4f3d c9d7 2abc 7369 8abd
00000260: 43a5 3dbd 64dd 893b 0f5b b23c 0b6d fd3c
00000270: fc91 813b dcc6 0fbd dfe0 003c 2735 94ba
00000280: a0e3 e0bd a4ae 73bd b6dc 32bd 58c4 b4bc
00000290: 2716 023b b265 94ba acf5 b23c 4707 1a3c
000002a0: dcac 203c 5960 023d 8a32 a2bb e306 343d
000002b0: 2381 cc3c 8f83 9f3c e425 133d 059b a3bb
000002c0: 0ff6 c13c db1e 263d 73d4 04bd 1923 eabc
000002d0: 7be4 5a3a 67bd 07bc 9a6a 96bb d7c7 69bc
000002e0: 466a 90bd 5ce7 d4b9 24e3 7c3c c2ba 943c
000002f0: 9b9a 70bc 54d8 0f3c 9b89 c9bc 5f94 113d
00000300: 6f0d 953b 9e3e d13b cf96 71bb f9bb 333c
00000310: a411 6abd 0729 3abd ef26 e33b 9b23 883c
00000320: a610 413b dc48 36bc aeca 76bc ad6d b43c
00000330: 29a7 f4bc 0769 7bbb 74cf ed3c a177 26bd
00000340: f7a6 a23c e93b e63d 80ca 1abd 5e1b 9fbd
00000350: e892 1ebc 7314 c0bd 4435 de3d 562c ffbb
00000360: 64ea b33b bb5a ca3c 045a e93b 4f12 0f3d
00000370: 4a14 be3c dcab cb3b 2675 eebc d47b 0bbd
00000380: dc10 53bd d006 453d e4ad 89bb 00ee 243c
00000390: b4ad c03a 6dc3 08bd 9e14 22bd f889 b53b
000003a0: 0a4d 7a3d 79e5 e23c 7e0d 4ebd 4a7c c9b7
000003b0: 453a a2bc 727b e0bd cf3c 13bd a566 0b3d
000003c0: 969e f73b f754 3f3c b76c e63a dce2 26ba
000003d0: 6b0e d8bb ce04 d3bc 222b 0bbd 56d7 373d
000003e0: a237 29bd 53b9 4ebd c36d b4bb 58a5 a63d
000003f0: be63 c6bc 4031 153d 1641 a5bd 7c36 e0bd

network_body._body_endoder.seq_layers.0.bias f4 [128]
0.0049847267 0.005205361 0.018117106 0.016649438 -0.018732542 0.015342854 -0.024031214 -0.0204544
-0.0011620139 -0.015170631 0.019379921 -0.002801673 -0.0072405986 0.0065142293 -0.005396187 0.011711869
-0.0061456272 -0.011391059 -0.003696665 -0.0013114956 -0.004505521 0.019829715 0.029984923 0.015467301
0.008024651 0.015854564 0.032730997 0.0072941924 0.008108094 0.01012208 -0.01905085 -0.011647303
-0.010116612 -0.008734147 0.018753322 0.022712696 -0.0006494776 -0.0075585567 0.011650728 0.016142653
-0.004470167 -0.027189488 -0.014490455 0.013767549 -0.001752914 0.0048297406 -0.018777382 0.009218961
0.0045306953 -0.008010158 -0.008474614 -0.017376296 -0.022330478 0.024374194 0.015701782 0.010367659
-0.0033762539 -0.053814508 0.021910414 0.0314702 0.0022951132 0.007661961 0.026434792 0.02535507
0.0362371 -0.008261449 0.002001653 -0.0054573948 0.022551907 0.013986713 0.00846449 0.015617567
0.0011289687 0.01997941 0.007059161 0.014448424 0.01703781 -0.0031062968 0.007035952 -0.011019147
0.008329561 0.016332438 0.009222426 -0.004402755 0.006715667 0.019222755 0.009004722 4.0377683e-05
0.021686293 0.01013961 0.020994252 0.015092223 0.011172595 0.00056001596 0.00994996 -0.014597014
-0.00074216584 0.029734004 0.01102813 0.030729542 -0.0062056007 0.014546927 -0.0073107854 0.014819059
-0.011568377 0.0061317827 0.029448004 -0.0035890741 0.012408379 0.007851839 0.015174956 0.019091565
-0.006752975 -0.036999885 0.010921902 -0.0017974797 -0.03167244 0.028906148 -0.0035980705 0.030750467
0.0005844359 0.010011038 0.0041371183 0.02569912 0.010459425 0.009830837 0.037014272 0.01997034
00000000: eb56 a33b bc91 aa3b 536a 943c 6764 883c
00000010: fd74 99bc 9860 7b3c 1cdd c4bc fc8f a7bc
00000020: b74e 98ba 3d8e 78bc a4c2 9e3c 469c 37bb
00000030: 8b42 edbb 5175 d53b 7fd2 b0bb 24e3 3f3c
00000040: 4261 c9bb 90a1 3abc bf43 72bb 7de6 abba
00000050: 0da3 93bb ed71 a23c f1a2 f53c 906a 7d3c
00000060: d379 033c 6ee1 813c f010 063d 1f04 ef3b
00000070: d0d7 043c 15d7 253c 8710 9cbc 54d4 3ebc
00000080: 25c0 25bc ab19 0fbc 91a0 993c fa0f ba3c
00000090: b441 2aba c5ad f7bb b2e2 3e3c 993d 843c
000000a0: 7b7a 92bb 7dbc debc 6069 6dbc 4991 613c
000000b0: 09c2 e5ba cd42 9e3b 06d3 99bc 200b 173c
000000c0: 3a76 943b 0a3d 03bc 1bd9 0abc bc58 8ebc
000000d0: 68ee b6bc 64ac c73c 06a1 803c 1ddd 293c
000000e0: 2444 5dbb 9a6c 5cbd 787d b33c e5e6 003d
000000f0: 9c69 163b 3011 fb3b c78d d83c 70b5 cf3c
00000100: 5a6d 143d 075b 07bc 2a2e 033b f2d3 b2bb
00000110: c7be b83c 8728 653c a5ae 0a3c d3e0 7f3c
00000120: e7f9 933a dcab a33c 8950 e73b 15b9 6c3c
00000130: e192 8b3c 0393 4bbb d88d e63b a789 34bc
00000140: b678 083c 9bcb 853c a919 173c fc44 90bb
00000150: 190f dc3b 0a79 9d3c 8b88 133c 355b 2938
00000160: 74a7 b13c 9b20 263c 23fc ab3c 5f45 773c
00000170: 430d 373c 09ce 123a 2805 233c 5028 6fbc
00000180: e88d 42ba ba94 f33c 54af 343c 85bc fb3c
00000190: 5a58 cbbb 3c56 6e3c 508f efbb a3cb 723c
000001a0: 4a89 3dbc 1fed c83b f13c f13c ac36 6bbb
000001b0: 844c 4b3c 00a5 003c 61a0 783c ea65 9c3c
000001c0: 0f48 ddbb 318d 17bd c7f1 323c 6999 ebba
000001d0: f6ba 01bd 96cc ec3c 9bcd 6bbb 67e8 fb3c
000001e0: d434 193a 5605 243c aa90 873b f686 d23c
000001f0: 025e 2b3c 8511 213c 479c 173d d798 a33c

network_body._body_endoder.seq_layers.0.weight f4 [128, 373]
-0.07666312 0.03528808 0.04676107 0.0924926 -0.16204193 0.04450605 0.008755685 0.10997197
0.009454523 0.05751902 -0.07502385 0.066251524 0.011187702 0.06278388 0.07117887 0.029552475
-0.117739126 -0.026347153 0.03307184 0.038546305 -0.0212151 0.058950048 0.017277703 0.06554537
-0.14290477 0.07230462 0.035302393 0.058297016 -0.08135644 0.022765707 0.01404779 -0.0063738613
-0.010372319 0.025162943 -0.0032037308 -0.0020942572 -0.0835928 0.0003137596 -0.0048417584 -0.06367655
0.3135094 -0.22723222 0.042682227 0.020833902 0.0052330852 -0.05831207 -0.0064352388 0.04189799
0.3487032 -0.18728757 -0.0366377 -0.071885675 0.013831746 0.11381656 0.058824122 0.09362297
0.318548 -0.10695484 -0.011664331 -0.11045376 -0.07824402 0.01650532 0.035385065 0.09677074
0.1784667 -0.050589234 -0.02041582 -0.03547873 -0.04529141 0.09517392 0.043415774 0.07563208
0.15836246 -0.032175038 0.058618706 0.025781387 -0.015950818 -0.00087448204 0.019630792 0.15060906
0.08968819 -0.012561286 0.032050528 0.070208825 0.005548213 0.010373095 -0.024215942 0.02448396
0.11500721 -0.050918624 0.055828225 -0.003914233 -0.044426687 0.0030703202 -0.05305729 0.030807707
0.17157726 -0.049234267 -0.07993612 0.00377178 -0.060892113 0.08745158 0.009229852 0.03456703
0.00786759 -0.089810655 0.054984964 0.065501034 0.009181391 -0.05891387 0.030473419 -0.0019487365
0.023305986 0.04825386 0.09405242 -0.030747859 -0.090699166 0.0717667 -0.045461994 0.012813242
0.052379407 0.013286911 0.041434135 -0.088682 -0.03224747 0.09389152 0.04731788 0.022578234
0.06325948 -0.0648983 0.043448854 -0.004950194 0.061895672 0.04637401 -0.024427557 -0.03518853
0.048886124 -0.0095481295 0.0038551427 -0.037501156 0.01786023 -0.056491707 0.027371906 -0.06386586
0.0808099 -0.0076104226 0.019544462 0.036324993 -0.04729173 0.021186437 0.040726945 0.023008544
0.02990384 -0.10785809 0.06637952 -0.0046400237 0.016355349 0.04615626 0.10634198 -0.014543798
-0.04634091 -0.02845054 0.0931662 -0.03863356 0.028810594 0.05500512 0.0004700017 0.019620843
0.09431044 0.07068225 0.113694556 0.0062505878 0.023315495 0.045835964 0.014554949 -0.012268713
0.012984047 -0.11330561 0.070910744 0.048260815 -0.068354115 -0.03812636 0.0012626504 0.11436765
-0.003590073 -0.033476397 0.036074396 -0.061748777 -0.07943744 0.09920037 0.01412769 0.050157152
0.030842716 -0.14481504 0.035726774 -0.04097901 -0.02491073 0.03753157 0.055518538 0.04687306
0.019387318 -0.0051046656 0.03684761 -0.05347874 0.014663764 0.12059985 -0.05062309 -0.06545923
0.017199315 0.0029160471 0.084339686 -0.05278182 0.096901216 0.0032103888 -0.047899812 0.024952553
0.01770966 -0.007892145 -0.02308753 0.015458376 -0.10471571 0.004377903 -0.003400676 0.052142676
0.047517687 0.0154666845 0.021281978 0.031627856 -0.06953763 0.084163144 -0.010412619 0.081569396
-0.010647005 0.019800264 0.039618548 -0.09512258 -0.06416501 -0.06146422 0.011796014 0.07863263
-0.037587445 0.06777907 -0.055850193 -0.007631555 0.045068234 0.08886396 -0.034148544 -0.024709713
-0.0132595245 0.033532094 0.05957382 -0.054042287 0.036450315 0.06826612 -0.011403986 0.08483303
00000000: 8e01 9dbd 3c8a 103d 8988 3f3d c36c bd3d
00000010: 52ee 25be fa4b 363d 0174 0f3c fc38 e13d
00000020: 25e7 1a3c 1099 6b3d 1ba6 99bd e1ae 873d
00000030: a04c 373c d694 803d 3ac6 913d 0818 f23c
00000040: 3621 f1bd fcd5 d7bc 5676 073d bbe2 1d3d
00000050: 4acb adbc 9b75 713d f889 8d3c a73c 863d
00000060: a155 12be 7214 943d 3e99 103d dac8 6e3d
00000070: 359e a6bd 267f ba3c b428 663c d3db d0bb
00000080: a9f0 29bc 8422 ce3c aff5 51bb ce3f 09bb
00000090: b432 abbd 1a80 a439 9da7 9ebb da68 82bd
000000a0: 4e84 a03e 90af 68be 8fd3 2e3d dcab aa3c
000000b0: 4d7a ab3b a3d8 6ebd b2de d2bb 3a9d 2b3d
000000c0: 3a89 b23e 50c8 3fbe 6a11 16bd cc38 93bd
000000d0: 8c9e 623c a818 e93d 90f1 703d 66bd bf3d
000000e0: b918 a33e 240b dbbd c01b 3fbc 9535 e2bd
000000f0: 673e a0bd 2a36 873c eeef 103d bd2f c63d
00000100: f9bf 363e a836 4fbd 143f a7bc 2552 11bd
00000110: 7c83 39bd 8bea c23d bdd4 313d fee4 9a3d
00000120: c529 223e f9c9 03bd 2b1a 703d 7d33 d33c
00000130: 4aab 82bc 7f3d 65ba c1d0 a03c 4339 1a3e
00000140: 71ae b73d dacd 4dbc 6a47 033d a5c9 8f3d
00000150: c9cd b53b eaf3 293c 8360 c6bc 9692 c83c
00000160: e688 eb3d 0c90 50bd 23ac 643d f742 80bb
00000170: c2f8 35bd 6d37 493b 9a52 59bd 7260 fc3c
00000180: f3b1 2f3e dfa9 49bd 8cb5 a3bd f82f 773b
00000190: 026a 79bd d019 b33d ce38 173c 2896 0d3d
000001a0: 10e7 003c a6ee b7bd ea37 613d 6825 863d
000001b0: 8c6d 163c ac4f 71bd 64a3 f93c bf6c ffba
000001c0: 32ec be3c d7a5 453d 8e9e c03d efe2 fbbc
000001d0: 7cc0 b9bd 6bfa 923d 5b36 3abd a2ee 513c
000001e0: ca8b 563d 58b1 593c d7b6 293d e99e b5bd
000001f0: ec15 04bd 324a c03d 65d0 413d fdf5 b83c
00000200: 308e 813d 66e9 84bd 6df7 313d 3d35 a2bb
00000210: 5186 7d3d adf2 3d3d 4d1c c8bc d921 10bd
00000220: d13c 483d c26f 1cbc 90a6 7c3b d09a 19bd
00000230: 9e4f 923c d963 67bd 0c3b e03c 1bcc 82bd
00000240: a97f a53d da60 f9bb b51b a03c 84c9 143d
00000250: f9b4 41bd 2e8f ad3c 4cd1 263d 6a7c bc3c
00000260: e6f8 f43c b4e4 dcbd fcf1 873d 570b 98bb
00000270: a7fb 853c 590e 3d3d d3c9 d93d 1c49 6ebc
00000280: f7cf 3dbd 1b11 e9bc eccd be3d 393e 1ebd
00000290: 3204 ec3c 0c4d 613d 8f6a f639 e4bb a03c
000002a0: d525 c13d dbc1 903d b1d8 e83d bbd1 cc3b
000002b0: 2300 bf3c 7ebe 3b3d e177 6e3c b602 49bc
000002c0: 0abb 543c c60c e8bd a739 913d 22ad 453d
000002d0: 3efd 8bbd 632a 1cbd 847f a53a 9639 ea3d
000002e0: 6e47 6bbb 8c1e 09bd bfc2 133d 49ec 7cbd
000002f0: 19b0 a2bd 9029 cb3d d477 673c 9671 4d3d
00000300: dda9 fc3c 654a 14be 3d56 123d 9bd9 27bd
00000310: 9611 ccbc b4ba 193d 6867 633d f7fd 3f3d
00000320: 27d2 9e3c 0a45 a7bb 85ed 163d 860c 5bbd
00000330: 4940 703c 0efd f63d 285a 4fbd 7d0f 86bd
00000340: 94e5 8c3c 271b 3f3b 49ba ac3d c031 58bd
00000350: 2574 c63d 6365 523b 9832 44bd 4c69 cc3c
00000360: d913 913c 0e4e 01bc 0f22 bdbc 2145 7d3c
00000370: 3175 d6bd 8374 8f3b e0dd 5ebb 8f93 553d
00000380: e8a1 423d fa67 7d3c 8b57 ae3c 368c 013d
00000390: bf69 8ebd ba5d ac3d b199 2abc db0d a73d
000003a0: c770 2ebc 2a34 a23c 0f47 223d a1cf c2bd
000003b0: f268 83bd e8c1 7bbd 1244 413c 250a a13d
000003c0: 4bf5 19bd c1cf 8a3d 2cc3 64bd 2012 fabb
000003d0: 7899 383d 4ffe b53d 58df 0bbd 066c cabc
000003e0: 7a3e 59bc f358 093d ae03 743d 725b 5dbd
000003f0: ed4c 153d 1ccf 8b3d c9d7 3abc f1bc ad3d

network_body._body_endoder.seq_layers.2.bias f4 [128]
-0.03042806 -0.018957604 -0.019371679 0.028814245 -0.0052506994 -0.006971158 0.0057706563 0.01760217
0.023723176 0.035106424 0.015491903 -0.02638325 -0.0050969934 0.012967474 -0.0016182587 -0.018797906
-0.026964687 -0.026651999 -0.025768537 -0.011649502 0.0024882664 0.011622585 0.0049355566 0.0038964786
0.010338935 0.0063796113 0.011251447 -0.02013366 -0.0025859787 0.023703234 -0.0012731738 -0.03464052
0.008037453 0.0063640196 0.0023766558 0.01610616 0.014760723 -0.008435048 -0.015033919 0.0039135027
-0.0067708595 0.0074831275 -0.0007501127 -0.015478563 -0.023722103 0.014378845 0.04505897 -0.004289499
-0.008295652 0.017067652 0.02068845 0.016028056 -0.0119451815 -0.013594167 0.03064416 -0.008890758
0.0032302737 -0.017988402 0.006774404 0.004067592 -0.01835797 0.06847723 0.009481379 0.018173749
-0.0007372605 0.026286962 -0.016485428 0.00027205402 0.014067671 0.021921 -0.015015259 -0.004468024
0.003559455 0.014179426 0.0033733237 -0.0023595886 0.01411259 0.0035495262 0.0018024419 0.008155831
0.029230269 0.03449934 0.039513294 0.01683287 -0.020835815 0.016369088 0.034733873 -0.046521742
-0.003343654 -0.009863221 -0.018080417 0.021441076 0.029120024 7.847515e-05 -0.0094369 0.027284052
0.01002931 0.010592771 -0.017746981 -0.007459807 -0.012961673 0.0028689376 0.011233459 -0.0011934747
0.011700988 0.029152296 0.017422138 -0.023129065 0.005425351 0.02526563 0.022488657 0.019232627
-0.017560862 -0.026968943 -0.008486273 -0.0146498075 -0.0013465752 -0.025373131 -0.006511774 0.007838655
0.012998227 0.01165151 -0.0015398174 0.035643175 0.01690943 0.0036540835 0.01886053 0.03753811
00000000: 4444 f9bc fa4c 9bbc 5bb1 9ebc da0b ec3c
00000010: 0f0e acbb 506e e4bb c617 bd3b 6d32 903c
00000020: 1b57 c23c c1cb 0f3d c0d1 7d3c af21 d8bc
00000030: ae04 a7bb 8775 543c c01b d4ba 11fe 99bc
00000040: 0ce5 dcbc 4b55 dabc 8a18 d3bc 8edd 3ebc
00000050: 2f12 233b a86c 3e3c 73ba a13b 105c 7f3b
00000060: a364 293c 0f0c d13b fd57 383c 58ef a4bc
00000070: 8679 29bb 492d c23c a0e0 a6ba 38e3 0dbd
00000080: 85af 033c 4489 d03b abc1 1b3b 11f1 833c
00000090: f6d6 713c 2833 0abc d450 76bc d73c 803b
000000a0: 16de ddbb 0635 f53b 36a3 44ba cc99 7dbc
000000b0: db54 c2bc 3f95 6b3c c18f 383d ed8e 8cbb
000000c0: 7dea 07bc 76d1 8b3c d37a a93c 454d 833c
000000d0: b9b5 43bc 12ba 5ebc 7609 fb3c 8baa 11bc
000000e0: 00b3 533b 6a5c 93bc d2fb dd3b 6f49 853b
000000f0: 7463 96bc ca3d 8c3d c957 1b3c 1de1 943c
00000100: b744 41ba c157 d73c 730c 87bc 79a2 8e39
00000110: 177c 663c ab93 b33c 9002 76bc 8068 92bb
00000120: bf45 693b d350 683c fb12 5d3b 54a3 1abb
00000130: 7e38 673c 2b9f 683b ea3f ec3a 09a0 053c
00000140: 5174 ef3c 2e4f 0d3d b1d8 213d 16e5 893c
00000150: dfaf aabc 7718 863c 1b45 0e3d 958d 3ebd
00000160: 3521 5bbb 5999 21bc 621d 94bc 32a5 af3c
00000170: 1e8d ee3c 0693 a438 3a9d 1abc ce82 df3c
00000180: fa51 243c 4d8d 2d3c 1e62 91bc 6671 f4bb
00000190: 325d 54bc c904 3c3b 8b0c 383c 5e6e 9cba
000001a0: 80b5 3f3c ccd0 ee3c dfb8 8e3c 2a79 bdbc
000001b0: 25c7 b13b def9 ce3c 223a b83c be8d 9d3c
000001c0: ccdb 8fbc f9ed dcbc 020a 0bbc bf05 70bc
000001d0: 917f b0ba 50db cfbc b860 d5bb b46d 003c
000001e0: 84f6 543c fae5 3e3c b3d3 c9ba 94fe 113d
000001f0: a585 8a3c 5979 6f3b 6681 9a3c 90c1 193d

network_body._body_endoder.seq_layers.2.weight f4 [128, 128]
-0.05737784 0.027424319 -0.051492583 0.003531847 -0.022634622 -0.0033854665 0.14617595 -0.022812853
0.1695874 -0.14624053 0.13505633 -0.09546945 0.12952246 0.103212036 0.014928931 -0.02018869
0.096187524 0.0714592 -0.06655109 0.012748306 0.089480445 -0.12040683 0.024415143 0.047131788
-0.062188387 -0.15794612 -0.0704442 -0.048851747 -0.23453411 0.047273565 0.10187941 0.050394185
-0.040068142 -0.16659869 -0.012418185 -0.07633987 -0.00991315 -0.005186895 -0.078509994 -0.16474119
-0.07581086 -0.06204496 0.022835625 -0.08807235 0.008714572 0.10830905 0.12989028 0.08671221
-0.0013824713 0.04617155 -0.062358093 0.07479677 0.18505509 -0.15155011 -0.12159473 0.12125249
0.10501454 0.070072584 -0.18548277 0.020841034 0.062227447 0.028292643 -0.04789356 -0.06606644
-0.06452229 0.06393933 0.06814936 -0.04377849 0.031213656 -0.025377413 0.100893974 -0.14807609
-0.06395553 -0.15183976 -0.087314256 0.2633859 -0.10135129 -0.0092471745 -0.11714786 0.043295868
-0.03870847 -0.019429859 0.08782427 0.03898615 0.017130135 -0.04886447 -0.11644231 -0.0063853874
0.10781154 -0.038861077 -0.10875476 -0.092480704 -0.012293642 -0.026187303 -0.08851245 -0.06591452
0.167494 -0.05744813 -0.05675548 0.1030712 -0.24533851 0.0034711051 -0.08002764 0.0029660221
-0.0036921704 0.006688533 -0.08337908 -0.07173504 0.02391105 -0.16287325 0.120317586 -0.06593539
-0.02675695 -0.028135601 -0.055197094 -0.05822787 -0.086020105 0.021289226 -0.115212105 0.026430998
0.008040387 0.0029775114 -0.10555407 0.023108384 -0.12200899 0.09389853 -0.05287249 -0.0041576116
-0.021418829 0.02980415 -0.14545561 -0.030243324 0.04300798 -0.20453127 0.0008651422 0.022034094
0.048458785 0.06568403 -0.03030784 0.11348541 -0.11043337 -0.058634557 0.07495132 0.05323232
0.007951406 -0.027701428 -0.0142787 0.009791434 -0.14508744 0.0106317755 0.049067702 -0.072460726
0.022588855 -0.01389181 -0.082856074 -0.041945595 0.037672956 0.095318325 -0.049580958 0.0715724
-0.07907974 -0.0020744891 -0.04814457 -0.16072947 -0.08064471 -0.11251283 -0.033168465 -0.011768819
-0.0661092 0.06048269 0.069295995 0.117304176 -0.07946239 -0.19997014 0.047386378 -0.16810784
0.010352231 -0.07018649 0.062977605 0.10291165 0.113793865 -0.117934324 0.15914969 -0.16219875
0.03478089 0.058504593 0.16845863 -0.08785202 -0.040081523 -0.009522813 0.12397292 -0.0014756942
0.062976696 -0.07725503 -0.040242657 -0.014466281 -0.020011622 0.08448538 0.04722653 0.052514505
-0.0053125997 -0.05657281 -0.19870798 -0.11750722 -0.11428508 -0.049278915 -0.15192963 0.046039376
0.05748851 0.17043719 -0.00818583 0.015505324 0.06437956 -0.088037446 0.03284618 0.036098983
-0.023799095 0.04458626 0.23427165 0.0017539404 0.022845276 0.06846925 -0.13711229 0.08674916
0.16296576 0.03884649 -0.10527929 0.01856133 -0.0014981827 -0.06893155 0.0071490766 0.1153718
-0.025692042 -0.02998582 0.02257072 -0.085083894 -0.14598653 0.041627213 0.092438966 0.057459127
-0.20123902 -0.004109452 0.20964299 -0.08370649 0.0013193866 0.0034064453 -0.021268167 0.012573151
-0.15399647 -0.046949595 -0.047332 -0.119588666 -0.17115417 -0.08389773 0.047425296 0.18974334
00000000: 0705 6bbd f7a8 e03c e3e9 52bd 8f76 673b
00000010: 3e6c b9bc b4de 5dbb 26af 153e 05e2 babc
00000020: 52a8 2d3e 14c0 15be 354c 0a3e 7d85 c3bd
00000030: 89a1 043e d560 d33d 7a98 743c c062 a5bc
00000040: f7fd c43d 3359 923d f04b 88bd 45de 503c
00000050: 8641 b73d db97 f6bd 4402 c83c 430d 413d
00000060: 40b9 7ebd a1bc 21be 0c45 90bd c518 48bd
00000070: b629 70be eda1 413d 27a6 d03d 226a 4e3d
00000080: 7e1e 24bd d998 2abe a575 4bbc 1458 9cbd
00000090: c46a 22bc d4f6 a9bb d9c9 a0bd eab1 28be
000000a0: b942 9bbd db22 7ebd c711 bb3c 475f b4bd
000000b0: 90c7 0e3c 23d1 dd3d f501 053e 2c96 b13d
000000c0: 0a34 b5ba 611e 3d3d 336b 7fbd 0d2f 993d
000000d0: 157f 3d3e f42f 1bbe a806 f9bd 3a53 f83d
000000e0: dd11 d73d 3782 8f3d 32ef 3dbe d1ba aa3c
000000f0: 35e2 7e3d f9c5 e73c 0a2c 44bd d74d 87bd
00000100: 4324 84bd a0f2 823d e491 8b3d 1351 33bd
00000110: c8b3 ff3c 4be4 cfbc 80a1 ce3d 42a1 17be
00000120: 1efb 82bd e27b 1bbe d1d1 b2bd 84da 863e
00000130: 4491 cfbd 7681 17bc 38eb efbd 0257 313d
00000140: c68c 1ebd 5e2b 9fbc 36dd b33d f1af 1f3d
00000150: 7f54 8c3c 1c26 48bd 4e79 eebd 833c d1bb
00000160: 4ccc dc3d cb2c 1fbd d1ba debd 8666 bdbd
00000170: 466b 49bc c186 d6bc 0446 b5bd 31fe 86bd
00000180: 8c83 2b3e bb4e 6bbd 6f78 68bd fe16 d33d
00000190: 053a 7bbe 7b7b 633b 88e5 a3bd 9861 423b
000001a0: 57f8 71bb 7b2b db3b a7c2 aabd d2e9 92bd
000001b0: 1be1 c33c 3fc8 26be 1169 f63d 2209 87bd
000001c0: 6431 dbbc a27c e6bc 5916 62bd 5980 6ebd
000001d0: 4f2b b0bd be66 ae3c 53f4 ebbd d285 d83c
000001e0: d4bb 033c 5a22 433b bb2c d8bd cb4d bd3c
000001f0: d9df f9bd df4d c03d d390 58bd 933c 88bb
00000200: 8a76 afbc d527 f43c 51f2 14be d9c0 f7bc
00000210: 2329 303d a570 51be b6ca 623a d880 b43c
00000220: b87c 463d 5985 863d 2648 f8bc 0a6b e83d
00000230: e42a e2bd ca2a 70bd 1480 993d 220a 5a3d
00000240: 9d46 023c 1bee e2bc 35f1 69bc 406c 203c
00000250: cd91 14be e630 2e3c 37fb 483d 4a66 94bd
00000260: 430c b93c 799a 63bc 72b0 a9bd 25cf 2bbd
00000270: f54e 1a3d 4136 c33d 6715 4bbd 8d94 923d
00000280: 8ff4 a1bd 27f4 07bb 3e33 45bd 4496 24be
00000290: 0e29 a5bd 206d e6bd a8db 07bd 01d2 40bc
000002a0: 4364 87bd b2bc 773d 0feb 8d3d 2c3d f03d
000002b0: 2dbd a2bd f9c4 4cbe 3818 423d 7624 2cbe
000002c0: 679c 293c efbd 8fbd 67fa 803d 58c3 d23d
000002d0: c20c e93d 8d87 f1bd 23f8 223e 6e17 26be
000002e0: 6876 0e3d 83a2 6f3d 6b80 2c3e c3eb b3bd
000002f0: 862c 24bd 9305 1cbc 84e5 fd3d 156c c1ba
00000300: edf9 803d e337 9ebd 7cd5 24bd fb03 6dbc
00000310: 6aef a3bc ac06 ad3d 9b70 413d 7319 573d
00000320: 5115 aebb e4b8 67bd 1b7a 4bbe a0a7 f0bd
00000330: 4c0e eabd b0d8 49bd 7193 1bbe c993 3c3d
00000340: 1279 6b3d 1687 2e3e dc1d 06bc 0b0a 7e3c
00000350: 6ed9 833d fa4c b4bd b789 063d 87dc 133d
00000360: 52f6 c2bc 15a0 363d e8e4 6f3e 79e4 e53a
00000370: 0426 bb3c 9b39 8c3d 2a67 0cbe 8ba9 b13d
00000380: 7fe0 263e 7f1d 1f3d ab9c d7bd ee0d 983c
00000390: ab5e c4ba fc2b 8dbd cd42 ea3b 0d48 ec3d
000003a0: 1e78 d2bc d3a4 f5bc 3be6 b83c 7740 aebd
000003b0: 7e7d 15be 4c81 2a3d a450 bd3d 435a 6b3d
000003c0: 9a11 4ebe 95a8 86bb a7ac 563e 4f6e abbd
000003d0: 45ef ac3a ab3e 5f3b 943a aebc 9eff 4d3c
000003e0: 40b1 1dbe 384e 40bd 33df 41bd e7ea f4bd
000003f0: 0a43 2fbe 93d2 abbd 0741 423d 144c 423e
