FPS AI/results/1/FPS Agent/FPS Agent-6736013.onnx (onnx, 309950 bytes, 9 tensors)

action_model._continuous_distribution.log_sigma f4 [1, 3]
0	0xbd7d2150	-0.061799347
1	0xbc89d3f0	-0.016824692
2	0xbda3882a	-0.079849556

action_model._continuous_distribution.mu.bias f4 [3]
0	0x3c98bcf4	0.018644787
1	0xbc34310c	-0.010998022
2	0xbbd578e1	-0.006514654

action_model._continuous_distribution.mu.weight f4 [3, 128]
0	0x3d41ec91	0.047344748
1	0xbcadaa01	-0.021199228
2	0xbbd6c0d2	-0.0065537477
3	0xbbf0dbc2	-0.007350416
4	0xbcd287a9	-0.025699453
5	0x3c805c36	0.01566897
6	0x3c34d1d0	0.011036351
7	0x3d1c53a3	0.0381657
8	0xbd202bef	-0.0391044
9	0xbd2ca9bf	-0.04215407
10	0x3d35e3be	0.044406645
11	0xbd0ce90e	-0.034401946
12	0xbca9303b	-0.02065288
13	0xbcad7296	-0.021172803
14	0xbd86a3e8	-0.065742314
15	0x3c1acfb0	0.009448931
16	0xbc833c8b	-0.01602008
17	0x3da6af8c	0.08138952
18	0xbdabe0f9	-0.083925195
19	0xbdc9712c	-0.09836039
20	0x3da720f5	0.08160583
21	0x3cbc02ce	0.022950556
22	0x3d237cde	0.039914005
23	0x3d43072c	0.04761426
24	0x3d867a7a	0.06566329
25	0xbc0e2c3d	-0.008677539
26	0x3b62bbc1	0.0034596773
27	0x3d1950c6	0.037430547
28	0xbcce4c82	-0.025182966
29	0x3d5d794c	0.054070756
30	0x3c09d6aa	0.008412996
31	0x3b1d1cf7	0.0023973563
32	0x3c2abf97	0.010421655
33	0x3d74af90	0.059737742
34	0x3d451103	0.048111927
35	0xb9791248	-0.00023753301
36	0x3cc90854	0.024540104
37	0x3c96239b	0.018327525
38	0xbc3df40c	-0.01159383
39	0xbcf2c919	-0.029636906
40	0xbc887432	-0.016656969
41	0xbd935167	-0.07193261
42	0x3b27fb96	0.0025632135
43	0xbd19a7fa	-0.03751371
44	0xbc895e5a	-0.016768623
45	0xbbbdb4a7	-0.0057893577
46	0x3d7d5d43	0.06185652
47	0x3b2b7b2a	0.002616594
48	0x3b45d7bc	0.0030188402
49	0xbd7ede5e	-0.062223785
50	0xbd1729ea	-0.036905207
51	0xbcab7369	-0.020929055
52	0xbc5352ca	-0.012898156
53	0x3d094041	0.033508543
54	0xbd56c1c5	-0.052430887
55	0xbcb54a03	-0.022130018
56	0x3d2a4ac1	0.041575197
57	0x3d592948	0.053017884
58	0xbcf61bda	-0.030042578
59	0x3da379c9	0.07982213
60	0xbd8d05ca	-0.0688587
61	0xbd880640	-0.06641817
62	0xbcb60664	-0.022219844
63	0x3c9a70f4	0.018852688
64	0xbcaeeeb9	-0.021354066
65	0xbd35186f	-0.044212755
66	0x3b99c16c	0.004692247
67	0xbbfa3c70	-0.0076365992
68	0xbc06a7d0	-0.008218721
69	0x3c0f3c9a	0.008742476
70	0x3d12c4b1	0.03583211
71	0xbd9742f0	-0.07385814
72	0xbcbc3859	-0.022976087
73	0xbc62518e	-0.013813389
74	0x3b83e36c	0.0040249135
75	0xbc8031fc	-0.015648834
76	0xbd8f3130	-0.06991804
77	0x3b880283	0.00415069
78	0xba8031ca	-0.0009780463
79	0xbd285a22	-0.041101582
80	0xbca0a411	-0.019609483
81	0xbc1dad1d	-0.009623793
82	0xbc340f4b	-0.010989974
83	0x3b498ced	0.0030754164
84	0x3cac9db2	0.021071289
85	0x3d89cf3e	0.067289814
86	0xbc83546f	-0.016031472
87	0xbd56cefb	-0.052443486
88	0xbca05699	-0.019572543
89	0xbbbe1d8e	-0.005801863
90	0xbd046825	-0.032325882
91	0x3cee5e7a	0.029097784
92	0x3b8d344f	0.004309214
93	0x3c823865	0.015896032
94	0xbc73eeed	-0.014888507
95	0x3c3da611	0.011575238
96	0x3bb630c1	0.005560011
97	0xbd9e4841	-0.07728625
98	0x3bfd7a8a	0.007735555
99	0x3d4f4c90	0.050610125
100	0x3ccaf3e8	0.024774507
101	0x3c64cdc5	0.013965075
102	0xbc6185f9	-0.013764852
103	0x3cf51e3d	0.029921645
104	0xbbe1ef47	-0.006894979
105	0x3de21538	0.110392034
106	0xbd0157ce	-0.031577878
107	0xbd5edce4	-0.054409876
108	0xbd95112a	-0.072786644
109	0x3d0203ab	0.03174178
110	0xbd0fd12d	-0.035111595
111	0xbd1e88c1	-0.038704637
112	0xbc9d50b5	-0.019203523
113	0x3d9d6781	0.076857574
114	0xbc8f9c02	-0.017530445
115	0xbc2b94f4	-0.010472525
116	0x3cf278ff	0.029598711
117	0xbd786269	-0.060640726
118	0xbcf8a1b0	-0.030350536
119	0xbd131ecf	-0.035918053
120	0xbcfcff8d	-0.030883575
121	0x3b7b8e3d	0.0038384341
122	0xbc83eb75	-0.016103486
123	0xbcf2bec1	-0.029631974
124	0x3d0a8cb3	0.033825587
125	0xbca2136a	-0.019784648
126	0x3a5b7ad0	0.00083724875
127	0x3bfa8648	0.007645402
128	0x3c8e582d	0.01737603
129	0x3c81bb4f	0.015836386
130	0x3c63c5e6	0.013902163
131	0x3bd7c4a8	0.0065847225
132	0x3cdc05a4	0.026858158
133	0xbd2d1454	-0.042255715
134	0x3c4f2968	0.012644149
135	0xbd684b6e	-0.05671256
136	0x3c8387c1	0.016055943
137	0x3d2e7c75	0.04259916
138	0xbcaa4f54	-0.02078978
139	0x3d6c022d	0.057619262
140	0x3c7942c5	0.015213673
141	0xbd4510ea	-0.048111834
142	0x3e1485c0	0.14504147
143	0x3b9149a7	0.004433829
144	0x3c27bcea	0.010237912
145	0xbdb0526a	-0.08609469
146	0x3b888a0d	0.0041668476
147	0x3d5e51d1	0.054277245
148	0x3d984a03	0.074359916
149	0x3c8b2a06	0.016987812
150	0x3cc0b18b	0.02352216
151	0x3d451c8f	0.04812294
152	0xbd356f29	-0.044295464
153	0xbc4408f0	-0.0119650215
154	0x3d49a1cd	0.04922657
155	0xbc1fbdc1	-0.009749831
156	0x3d338341	0.043826345
157	0xbbd91d69	-0.0066258204
158	0x3d03c2a7	0.032168057
159	0x3c3a7d3f	0.0113824
160	0xbc988a64	-0.018620677
161	0x3cec12db	0.028817585
162	0xbd347a9d	-0.044062246
163	0xbc4f3951	-0.012647943
164	0xbc897ac3	-0.01678217
165	0xbd71039d	-0.058841337
166	0xbcff2834	-0.0311471
167	0xbcf2a899	-0.02962141
168	0xbcee86e6	-0.029117059
169	0x3c8f36de	0.017482217
170	0xbcc0b0dc	-0.023521833
171	0xbd016d66	-0.03159847
172	0xbd27d72d	-0.040976692
173	0x3c0ceb4d	0.008601022
174	0x3d1a91c2	0.03773666
175	0x3c8b3965	0.016995141
176	0x3c94bdff	0.018157003
177	0xbcc86fe7	-0.024467422
178	0x3c80c01e	0.015716609
179	0x3c2ca736	0.010537913
180	0xbc20ab5d	-0.009806481
181	0x3c3f30d4	0.011669356
182	0xbc392be6	-0.01130197
183	0xbcf921fd	-0.030411715
184	0xb9b38a9c	-0.00034244813
185	0x3ceb1093	0.028694427
186	0xbd5a3f5e	-0.053283088
187	0x3e3d8439	0.1850747
188	0x3d729c12	0.05923087
189	0x3d3a78df	0.045525428
190	0xbcf57276	-0.029961806
191	0x3cb3468d	0.021884227
192	0x3c6c9e24	0.014442001
193	0x3dc9c036	0.098511145
194	0xbbdb8180	-0.006698787
195	0x3c76b4a2	0.015057715
196	0xbd2453b1	-0.040118877
197	0xbc419853	-0.011816102
198	0xbb752230	-0.003740441
199	0xbd005093	-0.03132684
200	0x3df7cea3	0.1209996
201	0x3c9c0d35	0.019049266
202	0xbc377995	-0.011198421
203	0xbc99320a	-0.018700618
204	0x3d1334da	0.035939075
205	0x3c242f53	0.010021049
206	0xba088b9e	-0.0005208793
207	0xbd0f0bf9	-0.034923527
208	0x3dfddbcf	0.12395441
209	0x3d11d5d1	0.0356043
210	0xba0ba8ea	-0.00053275994
211	0x3cc11fc3	0.023574715
212	0xbd5598fe	-0.052147858
213	0xbc311234	-0.010807563
214	0x3d40471f	0.046942826
215	0x3d64a00c	0.055816695
216	0xbd3abe90	-0.04559189
217	0xbb3b04d5	-0.0028536816
218	0xbdbfdf54	-0.09368768
219	0x3d668197	0.05627593
220	0x3e05f8d7	0.13083206
221	0x3cb7dce9	0.022444205
222	0x3cff05da	0.03113072
223	0x3ce3d724	0.027812548
224	0xbcf3e963	-0.029774373
225	0xbcfb5c87	-0.030683769
226	0xbd6c5087	-0.057693984
227	0xbc60c481	-0.013718725
228	0xbbcf6bf5	-0.006330008
229	0xbd17190b	-0.036889117
230	0xbc717130	-0.014736459
231	0x3db3498c	0.08754262
232	0xbccd694e	-0.025074627
233	0x3d97cdaf	0.07412278
234	0xbcb197e2	-0.021678869
235	0x3d85202a	0.065002754
236	0xbcc13197	-0.023583217
237	0xbcba933d	-0.022775287
238	0xbcccb47e	-0.02498841
239	0x39a4fd27	0.0003146913
240	0x3d312101	0.043244366
241	0x3d070ee0	0.03297317
242	0xbcad83fa	-0.021181095
243	0x3da06dcc	0.07833442
244	0xbd1b6dbf	-0.03794646
245	0x3cd3df22	0.025863234
246	0x3ccf7851	0.025325926
247	0x3d31bcba	0.043392874
248	0xbc9ec9b9	-0.019383298
249	0xbc2eb65c	-0.010663595
250	0xbaf8578f	-0.0018946993
251	0x3c35f38b	0.011105428
252	0xbd499e30	-0.049223125
253	0xbced987c	-0.029003374
254	0xbc187bc7	-0.009306855
255	0xbbd89122	-0.006609098

action_model._discrete_distribution.branches.0.bias f4 [2]
0	0x3b9191a9	0.004442413
1	0xbb919100	-0.004442334

action_model._discrete_distribution.branches.0.weight f4 [2, 128]
0	0x3de4a361	0.111639746
1	0x3a8c4c97	0.0010703978
2	0x3c854798	0.01626949
3	0x3d71eed2	0.059065647
4	0x3c10f069	0.008846381
5	0x3ce8b0cc	0.028404616
6	0x3dcdb734	0.10044709
7	0xbd7f74f8	-0.06236741
8	0xbdc3797a	-0.09544654
9	0xbd886fbb	-0.06661936
10	0x3d175cfb	0.036953907
11	0x3d05cab6	0.032664023
12	0x3d908390	0.070563436
13	0x3c852ac6	0.016255748
14	0x3c265745	0.010152643
15	0xbd65ccd8	-0.056103557
16	0x3db96663	0.09052732
17	0x3d159cb9	0.036526415
18	0xbd0a46d9	-0.03375897
19	0x3d704eb5	0.05866881
20	0xbd0fefea	-0.03514091
21	0xbdc0ed57	-0.09420269
22	0xbc535747	-0.0128992265
23	0x3e0f5d4e	0.14000437
24	0x3dd2b607	0.10288625
25	0x3c0c829c	0.008576062
26	0xbd060ea9	-0.032728825
27	0xbcbae8c2	-0.022816066
28	0xbc630346	-0.013855761
29	0x3bc1a7fb	0.0059099174
30	0xbad8ad5f	-0.0016531161
31	0x3d6c92bb	0.05775712
32	0x3e95e6fa	0.29277784
33	0x3e3c9565	0.18416364
34	0x3da0215d	0.078188635
35	0x3da2cc51	0.079491265
36	0xbd6433b3	-0.055713367
37	0xbb64568d	-0.0034841627
38	0xbc3c4d59	-0.0114930505
39	0x3d4b86a3	0.049688946
40	0x3d0825b5	0.033239085
41	0xbd027747	-0.031852033
42	0x3a083171	0.00051953556
43	0x3c6fe6b2	0.014642404
44	0xbb2bfc68	-0.0026242975
45	0xbc359ba0	-0.011084467
46	0xbdf4b23a	-0.119480565
47	0x3da10b0a	0.07863434
48	0xbd6bfd05	-0.057614345
49	0xbc9e4638	-0.019320592
50	0x3e0a2395	0.13490136
51	0x3cc5339b	0.024072459
52	0xbbf0402b	-0.007331868
53	0xbb362e2d	-0.002779852
54	0x3d08b4d6	0.033375584
55	0x3a7ef337	0.0009725573
56	0x3d8fb1cd	0.07016335
57	0xbdb43d37	-0.08800738
58	0x3c902b7b	0.017598858
59	0xbd4947b6	-0.049140655
60	0x3bb4ee51	0.0055215736
61	0x3d0477a1	0.03234065
62	0x3ca41f54	0.02003447
63	0xbda51d22	-0.08062197
64	0x3d3cdcd2	0.04610903
65	0x3d406b36	0.046977244
66	0x3d37c997	0.044869985
67	0xbd41f6f3	-0.04735465
68	0x3de54916	0.11195581
69	0x3d7f4c6d	0.062328745
70	0xbc3429c5	-0.010996287
71	0x3b9a3d4d	0.0047070147
72	0x3c8aa803	0.016925817
73	0xbc3c2771	-0.011484013
74	0x3c8f046f	0.017458169
75	0x3bef1bc9	0.0072970134
76	0x3dddfae6	0.10838871
77	0x3c639192	0.013889687
78	0xbd0a99b2	-0.03383798
79	0x3d9c57e4	0.07633951
80	0xbce04b3d	-0.027379626
81	0xbe09a6c0	-0.13442516
82	0x3c75bdfa	0.014998907
83	0x3e258b7e	0.16166493
84	0xbcdbd02f	-0.026832668
85	0x3e0806d2	0.13283852
86	0xbd894aa7	-0.06703692
87	0x3a07b518	0.00051768264
88	0x3d71183a	0.058860995
89	0xbd96ff66	-0.07372932
90	0x3c062e9c	0.0081898235
91	0xbd962024	-0.07330349
92	0xbd36e2a5	-0.04464974
93	0xbce9a101	-0.028519155
94	0x3d00c79c	0.031440362
95	0x3d5ca825	0.053871293
96	0x3dd0cfef	0.1019591
97	0xbd69085f	-0.05689275
98	0x3d6a0a56	0.057138763
99	0xbdc78100	-0.09741402
100	0x3d2f8517	0.042851534
101	0x3d88ce4d	0.06679974
102	0x3dba5f22	0.091001764
103	0xbd044de9	-0.032300863
104	0xbbd113d6	-0.0063805385
105	0xbe05b914	-0.13058883
106	0x3cef612e	0.029221144
107	0xbcfebc35	-0.031095603
108	0xbd13252f	-0.035924133
109	0x3e4c31a5	0.19940813
110	0x3da49c86	0.08037667
111	0xbd1ff637	-0.03905317
112	0x3c54e8ff	0.012995004
113	0xbcd1e9bc	-0.025624149
114	0x3d391c27	0.045192864
115	0x3dbea9e5	0.093097486
116	0xbd1423e2	-0.036167033
117	0x3cd613fb	0.026132574
118	0x3df997dd	0.12187169
119	0xbd32b6be	-0.043631308
120	0x3d4cfd00	0.050045967
121	0x3e4c9b17	0.19981037
122	0xbcfd3add	-0.030911857
123	0xbe1cfb3d	-0.15330215
124	0x3d329c89	0.043606315
125	0x3c70ac30	0.01468949
126	0x3e540d42	0.20708182
127	0x3e3e8d8c	0.18608683
128	0xbdc0026b	-0.09375461
129	0xbadb409d	-0.001672763
130	0xbc69df3d	-0.014274416
131	0xbd817a64	-0.06322172
132	0x3919960e	0.00014647117
133	0xbd3960e1	-0.045258407
134	0xbddf13bf	-0.10892438
135	0x3d4517d8	0.048118442
136	0x3ddf35ee	0.10898958
137	0x3d72f9b0	0.05932015
138	0xbd8f7f93	-0.07006755
139	0xbd128147	-0.03576782
140	0xbd6b3edf	-0.057433005
141	0xbc8dcd73	-0.01730988
142	0xbcc42457	-0.02394311
143	0x3d93eb83	0.07222655
144	0xbdb91cd3	-0.09038701
145	0xbd1bb142	-0.038010843
146	0x3c29f719	0.010373854
147	0xbd47656c	-0.048680708
148	0x3d32fba1	0.043697003
149	0x3dcee437	0.10102122
150	0x3d037d3e	0.032101862
151	0xbe0c9cfd	-0.13731761
152	0xbdc35f12	-0.095396176
153	0xbce2fdf6	-0.027708989
154	0x3d4e3985	0.050347824
155	0x3d237ac3	0.039911997
156	0x3c830de5	0.015997836
157	0xbc48e5cc	-0.012261819
158	0xbb66e7f6	-0.0035233474
159	0xbd8c1c82	-0.06841375
160	0xbe99018e	-0.29884
161	0xbe3cd226	-0.1843954
162	0xbd5bf69e	-0.05370199
163	0xbdbf4a2f	-0.09340321
164	0x3d4d55f8	0.050130814
165	0x39c24ebe	0.0003706123
166	0x3ca0cfdf	0.01963037
167	0xbd072e2d	-0.03300302
168	0xbce20e47	-0.027594699
169	0x3d0ab0b1	0.033859912
170	0xbced4175	-0.028961876
171	0x3be0027b	0.006836233
172	0xbad96427	-0.0016585634
173	0x3c68f2e2	0.014218064
174	0x3e12ed4b	0.14348333
175	0xbdaa471b	-0.083143435
176	0x3d923484	0.07138923
177	0x3cc9b0b6	0.024620395
178	0xbe0aed94	-0.13567191
179	0xbd2b4ba4	-0.041820183
180	0x3c3c31d5	0.01148649
181	0x3c6ded02	0.014521839
182	0xbd5b00cb	-0.053467553
183	0xbaf5f04d	-0.0018763632
184	0xbd95fea7	-0.07323962
185	0x3db0c5e8	0.086314976
186	0x3bb10e6f	0.005403332
187	0x3d538436	0.051639758
188	0xbd04412c	-0.032288715
189	0xbb883f9c	-0.0041579735
190	0xbd0fd848	-0.03511837
191	0x3db90ca8	0.09035617
192	0xbc93722c	-0.017998777
193	0xbd6d1ad3	-0.05788691
194	0xbcc4a272	-0.024003241
195	0x3d1efd7a	0.038815953
196	0xbdee4177	-0.1163358
197	0xbdad4c40	-0.08461809
198	0x3cb8b8fc	0.022549145
199	0x3b6c8c6a	0.0036094435
200	0xbc517a96	-0.012785574
201	0x3c42d1c0	0.011890829
202	0xbc8362d8	-0.016038343
203	0xbbd306a1	-0.006439999
204	0xbdaf7fb3	-0.085692786
205	0xbd0f4159	-0.03497443
206	0x3d405790	0.046958506
207	0xbdae3230	-0.08505666
208	0x3cfbe161	0.030747117
209	0x3e227309	0.15864195
210	0xbd275048	-0.040848047
211	0xbe21418b	-0.15747659
212	0x3c459bf8	0.012061112
213	0xbdfd0440	-0.12354326
214	0x3d99c579	0.07508368
215	0xbb85a137	-0.004078056
216	0xbd8024b4	-0.062570006
217	0x3d8de3a4	0.06928185
218	0xbb92de0c	-0.0044820365
219	0x3d8d2d44	0.06893399
220	0x3d36dbf4	0.044643357
221	0x3d2a98ce	0.041649632
222	0xbd530350	-0.05151683
223	0xbd2ab84c	-0.041679665
224	0xbdcee43d	-0.10102127
225	0x3d5b09cf	0.05347615
226	0xbd496be5	-0.049175162
227	0x3db1e14d	0.08685551
228	0xbd45d605	-0.048299808
229	0xbdb0543d	-0.08609817
230	0xbddde00a	-0.10833748
231	0x3d475ab2	0.04867048
232	0x3caaea4f	0.02086368
233	0x3e12d3b5	0.14338572
234	0xbcae99c4	-0.021313556
235	0x3d03a95e	0.032143943
236	0x3d40c846	0.047065996
237	0xbe469ef5	-0.19396575
238	0xbdba13a8	-0.090857804
239	0x3cfb0555	0.030642191
240	0xbb65f381	-0.0035087767
241	0x3c94039c	0.018068127
242	0xbd63b3e3	-0.055591475
243	0xbdd0b51a	-0.101907924
244	0x3cbec387	0.023286594
245	0xbcd3bc01	-0.025846483
246	0xbe00333a	-0.12519541
247	0x3d6b0eaa	0.05738703
248	0xbd24a19a	-0.040193178
249	0xbe3dc0ab	-0.18530528
250	0x3c73cbe4	0.014880154
251	0x3e234bd2	0.15946892
252	0xbd13a8d6	-0.036049686
253	0xbc445ba6	-0.011984741
254	0xbe5720f3	-0.21008663
255	0xbe483645	-0.19551952

network_body._body_endoder.seq_layers.0.bias f4 [128]
0	0x3cbd904b	0.023140093
1	0xbc918dc8	-0.017767802
2	0x3be418b6	0.0069609536
3	0xbc0c170e	-0.008550419
4	0xbd225e2a	-0.039640583
5	0x3c839ef3	0.016067004
6	0xbc48f4d3	-0.012265402
7	0xbd224dfd	-0.039625157
8	0x3cef59c5	0.02921761
9	0xbc38e87b	-0.011285896
10	0x3bcc2ba9	0.0062307906
11	0xbb9af65a	-0.0047290744
12	0x3b8c7534	0.0042864326
13	0xbcc20db1	-0.02368817
14	0x3d28edc6	0.041242383
15	0x3d30ff1e	0.04321205
16	0xbc95a7d9	-0.018268513
17	0xba774e54	-0.0009433974
18	0x3ca5a1d5	0.02021877
19	0x3b47aa58	0.0030466523
20	0xbc051dba	-0.008124763
21	0x3d2afa06	0.041742347
22	0x3d4c7d6e	0.049924307
23	0x3c8ae4d6	0.01695482
24	0x3a1e1ac0	0.0006031208
25	0x3cc5100b	0.024055501
26	0x3cdc0f22	0.026862685
27	0xbbe2182f	-0.0068998556
28	0x3c7313bb	0.014836247
29	0xbc2f3aff	-0.010695218
30	0xbd898b5e	-0.06716035
31	0xbcbb094f	-0.022831587
32	0xbb67a7bf	-0.0035347787
33	0xbd3e0038	-0.046386927
34	0x3c5bf513	0.0134251295
35	0x3ca336d6	0.019923609
36	0x3ced3db7	0.028960092
37	0xbbd7a28f	-0.006580658
38	0x3c562733	0.013070869
39	0x3c017250	0.007900789
40	0xba232bc0	-0.0006224476
41	0xbd7ee49b	-0.062229734
42	0xbc49ccd0	-0.0123168975
43	0x3c389635	0.011266281
44	0xbc0931fb	-0.008373733
45	0x3c8b673f	0.017017005
46	0xbc6e74d0	-0.014554217
47	0xbc0833f3	-0.008313167
48	0x3be39065	0.0069447034
49	0xbb38f89d	-0.0028224357
50	0xbbd82d8e	-0.0065972274
51	0xbd08d693	-0.03340776
52	0xbd0c15fe	-0.03420066
53	0x3d2372d9	0.03990445
54	0x3c3c7767	0.011503077
55	0x3d47e453	0.04880173
56	0x3c4cf831	0.012510345
57	0xbd9eb658	-0.07749623
58	0x3cc60255	0.024171034
59	0x3d4410d4	0.04786761
60	0x3c078b1e	0.008272914
61	0x3c1a290f	0.009409203
62	0x3c836da2	0.016043488
63	0x3a949c43	0.0011338074
64	0x3d386f7a	0.045028187
65	0xbd073d68	-0.033017546
66	0xbcec85e1	-0.028872432
67	0x3c917b00	0.017758846
68	0x3bea744d	0.0071549774
69	0x3ce9f9a6	0.028561424
70	0x3c926c6c	0.017873965
71	0x3c51ca75	0.012804617
72	0xb9509a55	-0.00019893919
73	0x3cb27de1	0.02178854
74	0xbc56a79c	-0.013101485
75	0x3cf69d0a	0.030104179
76	0x3be00050	0.0068359748
77	0x3befed71	0.0073220064
78	0x3d1b95a5	0.03798451
79	0xbc838632	-0.0160552
80	0xbbda4e2c	-0.006662151
81	0x3cac9940	0.021069169
82	0x3c7e4aec	0.015520792
83	0xbc82da0f	-0.015973119
84	0x3b907210	0.0044081286
85	0x3d53e859	0.051735256
86	0xbc370f7f	-0.011173128
87	0x3cae16d2	0.021251116
88	0x3ce893e4	0.028390832
89	0xbd014c59	-0.03156695
90	0x3c4243fc	0.011857029
91	0x3b3fef3a	0.0029286877
92	0x3c525d76	0.012839666
93	0xbcbcc7ed	-0.02304455
94	0xbc9ea15b	-0.01936405
95	0xbbb36dfe	-0.0054757586
96	0x3bbffa62	0.0058587054
97	0x3bcd82a8	0.006271679
98	0x3a7239ed	0.0009240199
99	0x3d1b08de	0.037850253
100	0xbce6602a	-0.028122026
101	0x3b9d864d	0.0048072697
102	0x3c52a2c7	0.012856192
103	0xbbaa86d6	-0.005204062
104	0x3c8b80aa	0.017029125
105	0x3b23b513	0.0024979755
106	0x3ce26f36	0.02764092
107	0xbc21e93b	-0.009882267
108	0x3d421cd1	0.047390763
109	0x3d04f3ae	0.032458954
110	0x3d2b1b6f	0.04177421
111	0x3a1bbdd8	0.00059410697
112	0xbd166c76	-0.03672453
113	0xbd32b26d	-0.04362719
114	0x3cea4487	0.02859713
115	0xb8843b5e	-6.3053085e-05
116	0xbcee87ff	-0.029117582
117	0x3d6a8bed	0.05726235
118	0x3c67f321	0.014157088
119	0x3d695a5b	0.056970935
120	0x3bf518ac	0.0074797478
121	0x3c5dcfd8	0.013538323
122	0xbc415328	-0.011799611
123	0x3cd89ef6	0.026442986
124	0x3c9d8f2f	0.019233314
125	0xbcc78a61	-0.024357976
126	0x3d3d950c	0.04628472
127	0x3ced7099	0.028984355

network_body._body_endoder.seq_layers.0.weight f4 [128, 464]
0	0xbdc81218	-0.09769076
1	0x3c52a183	0.01285589
2	0xbd7c867d	-0.061651696
3	0xbd8138c7	-0.063096575
4	0x3cd8ec50	0.02647987
5	0xbd56df3e	-0.052458994
6	0x3d9d0265	0.07666472
7	0xbc584ac8	-0.013201423
8	0xbd95dbfd	-0.0731735
9	0x3d346d78	0.04404971
10	0xbc315cfa	-0.01082539
11	0x3ccd907d	0.025093311
12	0xbda77389	-0.081763335
13	0xbbdab852	-0.0066748047
14	0x3c6b3adb	0.014357294
15	0xbcb08305	-0.02154685
16	0x3ce3a332	0.027787779
17	0xbcd41381	-0.025888206
18	0x3d15f92c	0.036614582
19	0xbd06c75a	-0.03290496
20	0x3d3b6a49	0.04575566
21	0x3d5656ac	0.05232875
22	0xbda15b90	-0.07878792
23	0xbab518f6	-0.0013816643
24	0x3d7ec6ec	0.062201425
25	0xbd80f8ec	-0.06297478
26	0xbbf85eb8	-0.0075796507
27	0xbd5de25a	-0.054170944
28	0x3ce428f0	0.027851552
29	0xbc01c479	-0.007920378
30	0x3c4d4109	0.012527713
31	0xbcaa19db	-0.020764282
32	0xbd0a4d85	-0.033765335
33	0xbc01d87d	-0.00792515
34	0x3a968230	0.0011482891
35	0xbce6fee8	-0.02819772
36	0xbd659e52	-0.05605919
37	0xbe03e54e	-0.12880442
38	0x3cf0def2	0.029403184
39	0x3da3b2f5	0.07993118
40	0x3dae6fa9	0.08517391
41	0x3dab8cb5	0.08376447
42	0xbe111e80	-0.14171791
43	0xbca443eb	-0.020051917
44	0x3be48eb2	0.0069750184
45	0xbdc43f3f	-0.09582376
46	0x3cc129a3	0.023579424
47	0xbd6e913d	-0.05824398
48	0x3b909fe4	0.0044135917
49	0x3cf3e8ff	0.029774187
50	0x3e472943	0.19449334
51	0x3cb9bd08	0.022673145
52	0x3d0c167c	0.03420113
53	0xbb1a6f09	-0.0023564717
54	0x3b8e009e	0.0043335697
55	0xbcb3c219	-0.021943139
56	0xbc8a6560	-0.016894042
57	0xbdb7cac9	-0.08974225
58	0x3c4cfc8a	0.012511382
59	0xbcf533c1	-0.029931905
60	0x3e3eb6b6	0.18624386
61	0xbd7224a5	-0.05911698
62	0xbd5f6592	-0.054540224
63	0xbd40ed60	-0.04710138
64	0x3a9cdde9	0.001196799
65	0xbd33c9c5	-0.043893594
66	0x3d09247e	0.033482067
67	0xbdcad59c	-0.09904024
68	0x3d63f5ea	0.055654444
69	0x3c46067a	0.012086505
70	0x3dc09bc3	0.09404709
71	0xbd8d6bf6	-0.069053575
72	0xbd5295bb	-0.051412325
73	0x3bf867a4	0.0075807143
74	0xbd4a2a4c	-0.049356744
75	0xbcee4560	-0.029085815
76	0x3dbe2889	0.09285075
77	0xbe080215	-0.13282044
78	0x3d1f433f	0.03888249
79	0xbbda0f7a	-0.006654677
80	0x3cc50e49	0.024054663
81	0xbcc75ee1	-0.024337234
82	0xbe07120e	-0.13190481
83	0x3d3ebab2	0.046564765
84	0xbcc05e96	-0.023482602
85	0xbd6af85c	-0.05736576
86	0x3d6f6530	0.05844611
87	0xbe294c75	-0.16533072
88	0x3c82e711	0.015979322
89	0x3de458b7	0.111497335
90	0xbc69adef	-0.01426266
91	0x3cd740de	0.026276048
92	0xbe255b47	-0.16148101
93	0x3c8c76f7	0.01714657
94	0xbc8876cd	-0.016658211
95	0xbdc48bf7	-0.09597009
96	0x3c04f93c	0.008116063
97	0x3d8bf330	0.06833494
98	0xbcf4eb48	-0.029897347
99	0x3d00d85a	0.03145633
100	0x3b1de862	0.002409481
101	0xbd152784	-0.03641464
102	0xbcb0102f	-0.021492092
103	0x3d404b2f	0.0469467
104	0x3ca91954	0.02064196
105	0xbdd62f26	-0.104582116
106	0x3b17c022	0.0023155292
107	0xbcb69ec7	-0.022292508
108	0xbc56c990	-0.01310958
109	0xbdb7ec86	-0.0898066
110	0x3e201c99	0.15635909
111	0x3d2c8e48	0.042127877
112	0x3cd49f0a	0.025954742
113	0xbd5021ff	-0.05081367
114	0x3c92b6ce	0.017909434
115	0xbbe23f90	-0.00690455
116	0xbc6577e5	-0.014005636
117	0xb91e27fd	-0.00015082951
118	0x3c44d193	0.012012857
119	0xbac7977b	-0.001522764
120	0x3d58d64a	0.052938737
121	0xbdbdcbe0	-0.09267402
122	0xbd46b88d	-0.048515845
123	0x3b673675	0.0035280262
124	0xbc223deb	-0.009902458
125	0xbde7674c	-0.11298999
126	0xbc871c95	-0.016493121
127	0x3ce6159e	0.02808648
128	0x39144a6d	0.00014142106
129	0xbcb375e8	-0.021906808
130	0x3d9e6721	0.07734514
131	0x3c7944e2	0.015214177
132	0xbd55568a	-0.052084483
133	0x3b8e1a25	0.0043366128
134	0xbd2b22e1	-0.04178131
135	0xbda2ca03	-0.07948687
136	0xbd87eef4	-0.066373736
137	0xbd85f297	-0.06540411
138	0xbbd21c5c	-0.006412072
139	0xbbb6e4dd	-0.005581482
140	0x3e190567	0.14943467
141	0xbd661a3e	-0.05617737
142	0xbda39fc7	-0.079894595
143	0x3de3bc2f	0.111198775
144	0x3d6b248d	0.057407904
145	0xbd874e72	-0.06606759
146	0x3d526500	0.051365852
147	0x3d226011	0.039642397
148	0xbbfbaec3	-0.0076807453
149	0x3da1c09e	0.07898067
150	0x3dd6bf85	0.10485748
151	0x3b2c6d98	0.002631044
152	0x3c46e585	0.012139683
153	0xbd4943e3	-0.049137007
154	0xbc83f680	-0.016108751
155	0xbd4c735f	-0.049914714
156	0x3d9ca2fa	0.07648273
157	0xbcdc5183	-0.026894337
158	0xbaaf6311	-0.0013380965
159	0x3cbb0268	0.022828296
160	0x3e080ad0	0.13285375
161	0xbdf762c2	-0.120793834
162	0xbe28c40c	-0.16481036
163	0xbcd07866	-0.025448035
164	0x3da6e90a	0.081499174
165	0xbdd92567	-0.10602837
166	0x3d8db044	0.069183856
167	0x3d88b28b	0.06674679
168	0xbb1cdc0b	-0.0023934867
169	0xbd0d7f68	-0.034545332
170	0x3cdfd846	0.027324807
171	0xbd7e101c	-0.06202708
172	0xbcf92168	-0.030411437
173	0x3ba6aa0e	0.00508619
174	0x3c42222f	0.01184897
175	0xbda261dc	-0.079288214
176	0x3db1d786	0.08683686
177	0xbce8ea5d	-0.028432066
178	0xbd00e71b	-0.0314704
179	0xbc4f6712	-0.012658851
180	0xbd9298fb	-0.07158085
181	0x3c108355	0.0088203745
182	0x3c3ed51b	0.011647488
183	0xbc32fc97	-0.01092448
184	0x3cae7fac	0.021301113
185	0xbe068f49	-0.13140596
186	0x3d8158f1	0.06315792
187	0xbdcd360b	-0.100200735
188	0x3d801783	0.062544845
189	0xbd938f2b	-0.072050415
190	0x3d916664	0.070996076
191	0xbda1b110	-0.078951
192	0x3c90c177	0.017670376
193	0xbda6b46d	-0.08139882
194	0x3b074c29	0.002064476
195	0xbcdb44b1	-0.026766153
196	0x3da8f550	0.08249915
197	0x3c96041c	0.018312506
198	0xbd6ab807	-0.05730441
199	0x3cbadb5f	0.022809682
200	0x3d27525e	0.040850036
201	0xbde02529	-0.10944588
202	0x3dc25575	0.09488956
203	0xbd00c89a	-0.03144131
204	0x3c3a0d07	0.011355645
205	0x3d0264b6	0.031834327
206	0x3d61e733	0.05515213
207	0xbe02edbf	-0.12786005
208	0xbd3c3417	-0.045948114
209	0x3d382e3d	0.04496597
210	0x3e4e8994	0.2016967
211	0xbda12f4b	-0.078703485
212	0xbd39a3c7	-0.045322206
213	0xbc6764c5	-0.014123146
214	0xbb2df81b	-0.0026545587
215	0x3bbada2c	0.0057022776
216	0x3c8f02d6	0.017457407
217	0xbd50e549	-0.050999913
218	0x3c7a45df	0.015275448
219	0xbd201b43	-0.0390885
220	0x3d1efa7b	0.038813096
221	0xbd26bdd0	-0.040708363
222	0x3bc00c1b	0.005860818
223	0xb8eef139	-0.000113936556
224	0x3c88e8c7	0.01671256
225	0xbdd1331e	-0.10214828
226	0x3da29e9f	0.07940411
227	0xbd617182	-0.05503989
228	0x3d099a5e	0.03359448
229	0x3cf29606	0.029612552
230	0x3e1314ba	0.14363375
231	0x3b7e9540	0.0038846284
232	0x3cfd8391	0.030946525
233	0x3d424bcd	0.04743557
234	0x3e01b997	0.12668453
235	0xbdefb6b1	-0.117047675
236	0xbb4dfaf1	-0.003143009
237	0x3dad9c7d	0.084771134
238	0xbd916cba	-0.07100816
239	0x3d82d6c6	0.06388621
240	0x3e2b7244	0.16742808
241	0xbddea281	-0.10870839
242	0xbc085b73	-0.008322584
243	0x3db34a6a	0.08754428
244	0x3e0df4f6	0.13862976
245	0xbe23fa18	-0.16013372
246	0x3d043f01	0.032286648
247	0xbcf778ac	-0.030208908
248	0x3ccb78b4	0.02483783
249	0x3d7572b6	0.05992385
250	0x3e119b63	0.14219432
251	0xbcf79230	-0.030221075
252	0x3d8a3c2d	0.06749759
253	0x3d2feb11	0.042948786
254	0x3d2ef8d3	0.042717766
255	0xbd68a27a	-0.056795575

network_body._body_endoder.seq_layers.2.bias f4 [128]
0	0xba7d65be	-0.0009666345
1	0x3aa0a029	0.0012254763
2	0xbc850676	-0.016238432
3	0x3c74bcbc	0.014937576
4	0x3c0923af	0.008370324
5	0x3c54fd6e	0.0129998755
6	0x3c9643b0	0.018342823
7	0x3c8d3e32	0.017241571
8	0x3c53fc9f	0.0129386475
9	0x3d1fa937	0.038979735
10	0x3c88d8fe	0.016705032
11	0x3cd1dbba	0.02561747
12	0xbcafde7b	-0.021468392
13	0xbc80653f	-0.015673278
14	0x3c8e7b9e	0.01739293
15	0x3ac6ecbc	0.0015176754
16	0xbd03cf36	-0.032180034
17	0xbc78a264	-0.015175436
18	0xbc935eee	-0.017989602
19	0x3d4f54bb	0.050617915
20	0x3d4ab901	0.04949284
21	0x3cf2d09c	0.029640488
22	0xbcac2485	-0.021013508
23	0x3cab1fb9	0.02088915
24	0x3cb015ef	0.021494834
25	0xbcac530b	-0.021035692
26	0x3cd18ee3	0.025580829
27	0xbc65032b	-0.013977806
28	0x3bb7dbd3	0.005610922
29	0x3d205db5	0.039151866
30	0xbd77cb8f	-0.060496863
31	0xbc65e55f	-0.014031737
32	0x3c9a552c	0.018839441
33	0x3d027918	0.031853765
34	0xbc93506b	-0.017982682
35	0x3cdc4be0	0.026891649
36	0x3ceff776	0.029292803
37	0xbb981334	-0.004640961
38	0xbcd9335e	-0.026513752
39	0x3cab1be2	0.020887319
40	0x3d2edca6	0.042690895
41	0x3ba5f433	0.005064511
42	0xbb3d9613	-0.0028928563
43	0xbbf81399	-0.0075706956
44	0xbd69381f	-0.056938287
45	0x3cb5ad00	0.02217722
46	0x3dc203fc	0.09473416
47	0x3d08132a	0.0332214
48	0x3bfd926b	0.0077384016
49	0x3d11dfaa	0.035613693
50	0x3d2e0db6	0.042493545
51	0x3c3118d0	0.010809138
52	0x3c91b132	0.017784689
53	0x3c977674	0.0184891
54	0x3d2f419c	0.04278718
55	0x3c11f79e	0.008909134
56	0x3bde6182	0.006786526
57	0xbcbd16ac	-0.0230821
58	0x3d12411f	0.035706636
59	0x3d32613e	0.04354977
60	0x3ccee1aa	0.02525409
61	0x3d983420	0.07431817
62	0xbcfd880f	-0.030948667
63	0x3d2747a4	0.040839806
64	0xbd0a89dc	-0.03382288
65	0x3d353ca7	0.044247296
66	0xbc1878b5	-0.009306123
67	0xbb084e5e	-0.0020798664
68	0x3b626334	0.0034543993
69	0x3d3852a2	0.04500068
70	0x3cf7ae88	0.03023459
71	0xbd108c0b	-0.035289805
72	0x3da22da7	0.07918864
73	0xbcc1fb47	-0.023679389
74	0xbd033030	-0.032028377
75	0xbbff515f	-0.0077916826
76	0x3c8e6a66	0.01738472
77	0xbafab9d9	-0.0019128873
78	0xbca039d7	-0.01955883
79	0x3c8d7b7d	0.017270798
80	0x3d108c5e	0.035290115
81	0x3d64a6b4	0.055823043
82	0x3c58c7c0	0.013231218
83	0x3ce358d9	0.027752327
84	0xbd33648a	-0.043797053
85	0x3cd0d1ab	0.025490602
86	0x3cbee736	0.02330361
87	0x3d21ae04	0.039472595
88	0xbac88098	-0.0015297113
89	0x3b9aa052	0.0047188187
90	0xbd7c765c	-0.061636314
91	0x3d1aaf4c	0.037764832
92	0x3d54197c	0.051782116
93	0x3c1ab550	0.009442642
94	0x3c1fa469	0.009743788
95	0x3d23fc5f	0.0400356
96	0x3c0f3ae4	0.008742068
97	0xbc17fe5e	-0.009276954
98	0x3bfa2f6a	0.0076350467
99	0x3c878e7a	0.01654743
100	0x3cc03fae	0.023467865
101	0x3cb52030	0.022110075
102	0x3ca82cdb	0.020529201
103	0x3d50d4de	0.050984256
104	0x3c94c18f	0.018158702
105	0x3d8d90d6	0.06912391
106	0xbcf68901	-0.030094625
107	0xbb583011	-0.0032987634
108	0xbccc7366	-0.02495737
109	0x3d0a0e32	0.033704944
110	0x3cf951e6	0.03043456
111	0x3b8eae6c	0.004354289
112	0xbd440b90	-0.04786259
113	0xbaec02fa	-0.0018006258
114	0x3b3af203	0.0028525598
115	0x3d638e11	0.055555407
116	0x3bfdc8b6	0.007744874
117	0x3b8bb297	0.004263233
118	0x3c8ffadc	0.017575674
119	0x3c126115	0.008934279
120	0x3d00a601	0.031408314
121	0xbb7cc1bc	-0.0038567623
122	0xbd81fe7e	-0.06347369
123	0x3d82ca53	0.063862465
124	0x3ce2168b	0.02759864
125	0x3ccbbdae	0.02487072
126	0x3ca6ebf0	0.020376176
127	0x3d1a4e86	0.037672542

network_body._body_endoder.seq_layers.2.weight f4 [128, 128]
0	0xbddcf057	-0.10788029
1	0x3d0a94e3	0.033833396
2	0xbcc17849	-0.023616927
3	0xbc101e45	-0.008796279
4	0xbcadd729	-0.02122076
5	0xbbaaa4b9	-0.0052076248
6	0x3e3a4cb1	0.18193318
7	0xbdac0724	-0.083997995
8	0x3e532f9b	0.20623629
9	0xbe6d1735	-0.23153384
10	0x3df27296	0.11838262
11	0xbdcda1c2	-0.100406185
12	0x3e0eee5e	0.13958117
13	0x3da7fd04	0.08202556
14	0x3bfc90ac	0.007707676
15	0x3d52512b	0.05134694
16	0x3db1184c	0.086472124
17	0x3d930640	0.071789265
18	0xbd7b1f44	-0.061309114
19	0x3c63998b	0.013891588
20	0x3db01982	0.08598615
21	0xbdf35f33	-0.11883392
22	0x3d051e0a	0.03249935
23	0x3d4fdc15	0.050746996
24	0xbdbf1c3b	-0.093315564
25	0xbe43b59b	-0.19112246
26	0xbd817bcb	-0.0632244
27	0xbd9d1447	-0.07669883
28	0xbe81a16f	-0.25318477
29	0x3ca87cc8	0.020567313
30	0x3d90ed8e	0.0707656
31	0xbca65d13	-0.020308053
32	0xbce9cc8c	-0.028539918
33	0xbe4d7e15	-0.20067628
34	0x3b2f7080	0.0026769936
35	0xbd86a992	-0.06575312
36	0x3ce8c744	0.02841533
37	0xbc8565e7	-0.016283942
38	0xbdcbfc40	-0.09960222
39	0xbe2acd76	-0.1667994
40	0xbd5ed229	-0.054399643
41	0xbda49e9a	-0.08038063
42	0xbc836cf5	-0.016043166
43	0xbdd54339	-0.10413212
44	0xbb2579cc	-0.0025249599
45	0x3dca75c1	0.09885741
46	0x3e062288	0.1309911
47	0x3d4963ed	0.049167562
48	0xbd15d566	-0.036580466
49	0x3da3f07f	0.08004855
50	0xbd4c770c	-0.04991822
51	0x3d809d1f	0.062799685
52	0x3e26867e	0.16262242
53	0xbe2b1865	-0.16708525
54	0xbe430079	-0.19043149
55	0x3dd496c1	0.103803165
56	0x3dc17fa6	0.09448175
57	0x3dc51a5d	0.09624169
58	0xbe495d6b	-0.19664542
59	0x3d77f432	0.060535617
60	0x3d976621	0.073925264
61	0x3d1aaede	0.037764423
62	0xbd176492	-0.036961146
63	0xbdd31aa8	-0.10307819
64	0xbd34594a	-0.044030465
65	0x3d81616f	0.06317412
66	0x3d3f66fa	0.046729065
67	0xbd5662b9	-0.052340243
68	0x3d6cc117	0.057801332
69	0x3c732ed2	0.014842706
70	0x3df53ac8	0.11974102
71	0xbe1e229a	-0.15442887
72	0xbd8d5e34	-0.069027334
73	0xbe396bd3	-0.18107538
74	0xbdd69b26	-0.10478811
75	0x3e8e812a	0.2783292
76	0xbde20319	-0.11035747
77	0x3bfc68ad	0.007702908
78	0xbe55a227	-0.20862637
79	0xbc7052ed	-0.014668209
80	0xbd9f54af	-0.07779824
81	0xbcfa8ed2	-0.03058568
82	0x3d3f3b5b	0.046687465
83	0x3cb919f6	0.022595387
84	0xbacafd93	-0.0015486948
85	0xbd020ef0	-0.031752527
86	0xbe0f5aff	-0.13999556
87	0xbd37bfd1	-0.044860665
88	0x3e2ab942	0.16672233
89	0xbd928715	-0.07154671
90	0xbe137a74	-0.14402181
91	0xbdefa76c	-0.11701855
92	0xbcdc3f10	-0.02688554
93	0xbc933aec	-0.017972432
94	0xbdfa27ec	-0.12214646
95	0xbd9d908e	-0.07693587
96	0x3e228044	0.15869242
97	0xbd934017	-0.071899585
98	0xbd877f9f	-0.06616139
99	0x3ddbc621	0.107311495
100	0xbe789750	-0.24276471
101	0x3ac5a34f	0.0015078577
102	0xbdae056a	-0.084971264
103	0xbd255175	-0.040360887
104	0xbcf76988	-0.030201688
105	0x3adeee9e	0.0017008369
106	0xbdcd0655	-0.10010973
107	0xbd9cf021	-0.076629885
108	0x3cf9ce5f	0.030493913
109	0xbe13df19	-0.14440574
110	0x3e03971f	0.12850617
111	0xbda99050	-0.082794785
112	0xbd389836	-0.045067035
113	0xbd7afb53	-0.061274838
114	0xbd4f01dc	-0.050538883
115	0xbd6ef453	-0.058338474
116	0xbe105cca	-0.14097896
117	0x3d4ff321	0.050768975
118	0xbe49deef	-0.19713949
119	0x3cb70ae4	0.02234406
120	0x3bc66837	0.006054904
121	0xbd222e3d	-0.039594878
122	0xbe1dd9c7	-0.15415107
123	0x3b8a7ead	0.0042265267
124	0xbd964592	-0.07337488
125	0x3cb3c802	0.021945957
126	0xbd3451e9	-0.044023428
127	0xbd289baf	-0.041164096
128	0xbb85e223	-0.0040857955
129	0xbcadd4c2	-0.021219615
130	0xbe4152b8	-0.18879211
131	0xbd81626d	-0.06317601
132	0x3dabacd0	0.08382571
133	0xbe53b348	-0.20673859
134	0xbc463286	-0.012097007
135	0x3b704b61	0.0036666023
136	0x3d4a02bb	0.04931901
137	0x3d399c7f	0.045315262
138	0xbc0b8728	-0.0085161105
139	0x3e2898c8	0.16464531
140	0xbe1667cb	-0.14688031
141	0xbcda5202	-0.026650432
142	0x3d8d4631	0.068981536
143	0xbc17976a	-0.0092524085
144	0xbbafcb7b	-0.005364833
145	0xbd671e3d	-0.05642532
146	0xbc615e90	-0.013755456
147	0xbc436732	-0.011926459
148	0xbde4303f	-0.11142015
149	0x3c395a78	0.011313073
150	0x3d32f9ae	0.043695144
151	0xbd970f6d	-0.07375989
152	0x3a991187	0.0011678197
153	0x3af44be7	0.0018638343
154	0xbda8fd65	-0.08251456
155	0xbd1b549f	-0.037922498
156	0x3d5d37f4	0.05400844
157	0x3d815c84	0.06316474
158	0xbd52de0d	-0.051481295
159	0x3d3c5237	0.045976844
160	0xbddf19fe	-0.108936295
161	0xbd122378	-0.035678357
162	0xbc43f123	-0.011959347
163	0xbe49e86c	-0.19717568
164	0xbd822957	-0.06355541
165	0xbd496e1e	-0.04917728
166	0xbda0b0e6	-0.07846241
167	0x3d124bb3	0.035716724
168	0xbdbd184e	-0.092331514
169	0x3d42d4ae	0.04756611
170	0x3d9bb645	0.076031245
171	0x3e09743f	0.1342325
172	0xbcc8e603	-0.02452374
173	0xbe27cc0d	-0.16386433
174	0x3cad1807	0.021129621
175	0xbe4d9abf	-0.20078562
176	0xbc49f1d7	-0.0123257255
177	0xbdc6ecf5	-0.09713165
178	0x3d4c28f4	0.049843743
179	0x3db36359	0.087591834
180	0x3db30444	0.08741048
181	0xbddcc33a	-0.10779424
182	0x3e24b914	0.16086227
183	0xbe395b24	-0.18101174
184	0xbc1c8b5f	-0.009554713
185	0x3d18513f	0.037186857
186	0x3e1cff79	0.1533183
187	0xbdd755bb	-0.10514399
188	0xbd53416f	-0.051576074
189	0x3c64dc55	0.013968547
190	0x3e296d9f	0.16545723
191	0x3c4ba36e	0.012429101
192	0x3d9de726	0.07710104
193	0xbdb063e4	-0.086128026
194	0xbdb85a07	-0.09001546
195	0xbb3f49bf	-0.0029188243
196	0x3c38bcef	0.011275514
197	0x3d9eaed7	0.07748192
198	0x3dc82056	0.097717926
199	0x3d65defe	0.056120865
200	0xbb9a30de	-0.0047055325
201	0xbd403dcc	-0.046933934
202	0xbe5397ce	-0.20663378
203	0xbdc91742	-0.09818889
204	0xbdb969e5	-0.09053401
205	0xbcdc549e	-0.026895817
206	0xbe2d2dcd	-0.16912003
207	0x3d40a3f4	0.047031358
208	0x3d124144	0.035706773
209	0x3e1e4141	0.1545458
210	0x3b8f269b	0.004368616
211	0x3d69ba84	0.05706264
212	0x3d59de31	0.053190414
213	0xbcf26276	-0.029587965
214	0x3c8afa56	0.016965073
215	0x3ce54a6c	0.027989589
216	0x3ca00dc8	0.019537821
217	0x3b941f65	0.004520344
218	0x3e60a90a	0.21939483
219	0xbd3c2347	-0.04593208
220	0xbc1b905a	-0.009494865
221	0x3d58be16	0.052915655
222	0xbe3791be	-0.1792669
223	0x3d381939	0.04494593
224	0x3e350e2e	0.1768119
225	0x3d4c47ac	0.04987304
226	0xbdb26e5f	-0.08712458
227	0x3d823043	0.063568614
228	0x3d89d39f	0.06729817
229	0xbd5092e3	-0.050921332
230	0xbd2f98e2	-0.04287041
231	0x3dd788cd	0.105241396
232	0x3d061001	0.032730106
233	0xbcc2809f	-0.023742972
234	0x3d2a42a0	0.041567445
235	0xbda5f6c2	-0.08103706
236	0xbd8da219	-0.06915683
237	0x3d083313	0.033251833
238	0x3da7f105	0.08200268
239	0x3d3d9cb0	0.046292007
240	0xbe5618d2	-0.20907906
241	0xbadd3685	-0.001687721
242	0x3e69c431	0.22828747
243	0xbd5ec92d	-0.054391075
244	0xbcd2d9e8	-0.025738671
245	0xbbd8a7bb	-0.006611792
246	0xbc40d53f	-0.011769592
247	0x3c7a8404	0.015290264
248	0xbe1b67d6	-0.15176329
249	0x3ac372a4	0.0014911485
250	0xbd8422f3	-0.064519785
251	0xbdf5836b	-0.119879566
252	0xbe1fba19	-0.15598334
253	0xbdc29d6a	-0.095026806
254	0x3cbafea0	0.022826493
255	0x3e5b9f59	0.21447505
