FPS AI/results/1/FPS Agent/FPS Agent-1023583.onnx (onnx, 263358 bytes, 9 tensors)

action_model._continuous_distribution.log_sigma f4 [1, 3]
00000000: 457b dfbd 1658 a2bc e7c9 bbbd
-0.10912184 -0.019817393 -0.09169369

action_model._continuous_distribution.mu.bias f4 [3]
00000000: cc8f 9f3b 4291 c2bc e0e3 b23c
0.004869437 -0.023750905 0.021837175

action_model._continuous_distribution.mu.weight f4 [3, 128]
00000000: 7ca7 053d 8305 45bb 7be0 d33c e0a5 9b3c
00000010: ca33 dfbb e0bb a9bc 6fd2 c83c 7531 2e3b
00000020: 9b75 85bc dd90 61bd 39f3 a83b 31f2 d03c
00000030: db9d f9bc 8b49 d23b 5acf 71bc 83fa 3cbc
00000040: 77b9 97ba 9972 363d 068d 56bc 065a 3bbc
00000050: fd39 523c 5c42 733c 2fce f13b 4159 ea3c
00000060: 26af c23c f698 41bc b941 243c fb27 023c
00000070: abb7 6dbc 0a4b 2f3d 54cd 3e3c 1453 883c
00000080: 8ef4 e33b 4b99 493c 6eab 573d 4d23 8dbc
00000090: 2221 f23c a63c b8bc 7259 06bc 67b3 81bc
000000a0: 496e baba f481 d9bc 89eb bdba 638d 9dbc
000000b0: f531 873a 2da1 58bc 3ef9 9f3c 59c3 b73c
000000c0: 0dcb ad3b 75f9 32bc 318f a5bc c8c9 803b
000000d0: def5 903b a1ec 013d 475d 42bd fd9d 35bc
000000e0: acea 213d 81fc d4b9 6424 84bc 57bc 1c3c
000000f0: 562a 02bd b217 a4bc 90e9 a2bb 099f de3b
00000100: 3f3c 13bb 03fa 9fbc cf13 1a3b ca8f f5bc
00000110: d08d 81b9 ccad 583c 4e34 ea3b cd9a cebc
00000120: 654d 073c ffe1 b7bb bf6d 2bbb cab1 26bd
00000130: 3583 41bd b46f 48bc 5cbd f0bb a1d4 3ebd
00000140: 763a c6bc c2a1 9bbb 75f5 2e3c fc85 063c
00000150: 8e9b 9fbb 5222 3a3d cfd5 b0bc ac87 5b3c
00000160: 5aec 803b 1e4c 32bc eb87 96bc 245b b53c
00000170: 684a 5c3c cf0c ab3c 944f bc3b 6354 aa3c
00000180: 213d 76bc 5ef0 71bd 0fd4 18bb 3dc0 853b
00000190: 5299 8cbb f908 83bc 5e7f bebc c1bf c43c
000001a0: 0f43 c3bc 50e5 1a3d f0d3 dbbc d035 9ebc
000001b0: 877e 72bc 0ab5 c53c 8e40 07bd 9d4e 16bd
000001c0: 36a4 8abc a75d 373d 13b8 ecbc 6b3b b63c
000001d0: cfa2 8f3c d852 b9bc 616c 56bc aa8d b3bc
000001e0: 1800 efbc 8435 1abc 1828 d4bc dfe0 bcbc
000001f0: f56d 9dbc 084f 2cbc 1d34 903b 1ec1 fd3b
00000200: 3770 cb3b 3c70 2ebb 16a5 ae3c d647 343b
00000210: 4ea7 af3c 25f2 8fbc d55c 8bba 6789 9fbc
00000220: 27a5 bd3b 0031 1c3c 3466 17bc 17fc dc3c
00000230: ce59 063d b6ea 03bc 15c9 c53d a837 69bb
00000240: c37b 8a3c 0386 d2bc 4988 763c 29f3 9b3c
00000250: 4095 56ba f68e de3c c44e 6d3c 1986 933b
00000260: 7497 d7bb 8703 d33a 5ab0 393c 9898 b13a
00000270: 599b 0f3c cab4 8dbc cce9 453c c7f8 f43c
00000280: e5c7 f53a 3679 b03b 0592 34bc b098 16bd
00000290: 1bc1 e63a 7a04 b7bc e37a 2b3b afc8 b4bc
000002a0: 9f6b f83a 6b8b 9e3c c109 f0bc de26 1d3c
000002b0: 1467 b83b 784c ccbc c5cc 3d3c a6c8 9bbc
000002c0: 8611 053c ad2c a1bc 8fc8 98bc 98bb a6bc
000002d0: 0b75 27bc 2237 583c f421 d9ba 03de bcbc
000002e0: 35f7 c83b e4d9 fb3b 3efb 3cbd 7212 4a3d
000002f0: a048 e83c d2bc 833d ddf6 4fbc 92af 303c
00000300: c44b 593d fc90 203d 3499 a1bb 5ade 33bc
00000310: 8baf 53bd 34f5 ddbb 9880 0b3d 9153 d73c
00000320: 3e92 223c d7ec 1e3d 8691 183c e143 24ba
00000330: 23f5 b03c 61ff 613c 4ca9 b23b d13a d0b9
00000340: 1b8a 703d 030e 4d3c e155 c13b 26d1 28bc
00000350: b397 cc3c de97 ff3a 1915 753d 84f9 2b3d
00000360: 6e4f dabc 8ca0 da3a 04e1 d5bc 35a4 a53c
00000370: e974 a63d 79fa ccbc 4849 d23c b7da ccbc
00000380: f7bb ffbc bfb2 af3c 9be9 abbb 7149 85bb
00000390: 74e4 bbbc 7125 6dba e6de 87bb 924f 973b
000003a0: eb55 89bc 3cd8 a1bc f232 823b ca00 123d
000003b0: 4000 e73b 435c a7bc 1428 993c 8825 3bbc
000003c0: abbe 3c3d 23ff 6e3d c197 62bc 0bc5 be3c
000003d0: d195 e1bc ed38 bf3c 2dd2 de3c 8bcd 5c3b
000003e0: ab07 c4ba 885c 2d3c 6a03 f73b 16a1 46bc
000003f0: 9cdd 92bc 5912 bbbb 177b 33bb f67b a1bb
0.03263043 -0.00300631 0.025863877 0.018999994 -0.0068115937 -0.020719469 0.024514405 0.0026579772
-0.01629143 -0.055069793 0.0051559475 0.02550611 -0.03047078 0.0064174584 -0.014758909 -0.011534336
-0.0011575659 0.044542883 -0.013095146 -0.0114350375 0.012831208 0.014847364 0.0073793153 0.028607013
0.023765158 -0.011816254 0.010025435 0.007944102 -0.014509122 0.042796172 0.011645634 0.016641177
0.0069566434 0.012304614 0.052653722 -0.017228747 0.029556815 -0.022489857 -0.008200036 -0.015832616
-0.0014223541 -0.026551224 -0.0014489751 -0.019232458 0.0010314571 -0.013222021 0.019528028 0.022432016
0.0053037466 -0.010923733 -0.02020988 0.003930304 0.004423841 0.031719808 -0.047452237 -0.011085031
0.03953044 -0.0004062392 -0.016130634 0.009566388 -0.031778656 -0.02003083 -0.0049716905 0.006793861
-0.002246633 -0.019528395 0.0023510342 -0.02997579 -0.00024710456 0.01322503 0.0071473485 -0.0252203
0.008258198 -0.0056116576 -0.0026157943 -0.040696897 -0.04724427 -0.012233663 -0.007346792 -0.046589497
-0.024197798 -0.0047495076 0.010678639 0.008210655 -0.0048708385 0.045442887 -0.021586327 0.013399046
0.0039344253 -0.010882406 -0.018375358 0.022138186 0.013445474 0.020880131 0.005746791 0.020792192
-0.015029223 -0.059067123 -0.0023319756 0.0040817545 -0.004290738 -0.01599549 -0.023254093 0.024017217
-0.023835687 0.037816346 -0.026834458 -0.01931277 -0.014800674 0.024134178 -0.03302055 -0.036696065
-0.016924005 0.04476705 -0.028896367 0.02224513 0.017533688 -0.02262251 -0.013087363 -0.021918137
-0.02917485 -0.009412173 -0.025898024 -0.023056446 -0.01921747 -0.010516889 0.0044007436 0.0077439686
0.0062084454 -0.002661719 0.021318953 0.0027508638 0.021442082 -0.017571518 -0.0010632524 -0.019474698
0.00578751 0.009533167 -0.009240676 0.026975675 0.03280049 -0.008051565 0.09657494 -0.0035586152
0.016904717 -0.025698667 0.015047141 0.019036846 -0.0008185692 0.027167778 0.014484111 0.0045020697
-0.006579334 0.0016099074 0.011333549 0.0013549505 0.008765065 -0.017298121 0.012079667 0.029903783
0.001875159 0.005385543 -0.011021142 -0.036766708 0.0017605157 -0.022341002 0.0026165775 -0.02206835
0.0018952972 0.019353589 -0.029301526 0.009591786 0.0056275222 -0.024938807 0.011584465 -0.019016575
0.008121854 -0.019674623 -0.018650321 -0.020353124 -0.010220776 0.013196738 -0.0016565905 -0.023055082
0.006132985 0.0076858867 -0.04613804 0.049333997 0.028354943 0.06432499 -0.012693134 0.010784047
0.05305077 0.039200768 -0.0049315933 -0.010978306 -0.051681083 -0.0067736153 0.034058183 0.026284965
0.009922562 0.038800087 0.009312039 -0.0006266218 0.021601265 0.013793797 0.0054523107 -0.00039716673
0.058725458 0.012515548 0.00590013 -0.010303771 0.02497468 0.0019500216 0.059834573 0.041986004
-0.026649203 0.0016679927 -0.026108272 0.020219902 0.081277676 -0.025021778 0.025669709 -0.025006635
-0.031217558 0.021447537 -0.005246354 -0.004067593 -0.022936083 -0.0009046412 -0.0041464446 0.00461764
-0.016764602 -0.019756429 0.0039733583 0.035645284 0.0070495903 -0.020429736 0.018695869 -0.011422522
0.046080273 0.058348786 -0.013830126 0.023287317 -0.027537258 0.023342574 0.027199829 0.003369185
-0.0014955899 0.010581143 0.007538249 -0.012123367 -0.017927937 -0.0057089743 -0.00273866 -0.0049281074

action_model._discrete_distribution.branches.0.bias f4 [2]
00000000: 6c5b d83a 9b5b d8ba
0.0016506738 -0.0016506793

action_model._discrete_distribution.branches.0.weight f4 [2, 128]
00000000: 072a 0a3c 2c97 2539 c64f 52bc 5f40 343d
00000010: 2ce1 423a 4dcb 38bc dbcc cf3c 304e 0bbd
00000020: dd72 bdbd c470 83bd 1511 293c 42f3 513a
00000030: 65de 733c befa 14bc 6af8 68bc 7d08 aebc
00000040: 7ecd 073c 2de5 373c b23b afbb 75b3 92bc
00000050: 535a 10bd 47c7 1abd 7e88 943c 3c72 293d
00000060: 8735 f53c 7c1e 9dbc d970 15bc c228 25bc
00000070: f03b b43b 19ed 323c b8c8 1dbc 4c69 e3bb
00000080: e046 943d f161 f43c 9b83 4b3d 2747 2b3b
00000090: 6076 7abc 5f93 f0ba 93e6 77bc 25c1 5a3b
000000a0: eb8f ac3b 9e58 fcbc 6709 d1bc 0440 64bc
000000b0: 7c05 17bc 6c4d eabb 142d 9abc 6ca0 86bb
000000c0: cdf3 82bc 8808 29bd 2250 bd3c 4220 7f3b
000000d0: aefa 883b f5f2 0d3d a54a abbc 6b7d ea3b
000000e0: 87c7 203d af4c 1cbc f3e0 4a3c b39a 5aba
000000f0: 1b21 14bc 1c7f 8b3b d5ac f63b b0ca 00bd
00000100: 14b1 073d ea98 89bb 7311 a23c 2599 bdbc
00000110: 0bd3 033d 5b24 8c3c 0819 663c c8f5 80bc
00000120: c2d5 66ba 2033 cfbb c0b1 3f3b 46be b3bc
00000130: bcdf ae3c e103 88bc 2d4d aabc a8e4 623c
00000140: b3f6 01bd 235e b1bd 495a 743a db85 6a3d
00000150: 812a c7bb 0cee 9c3d 9270 bebd b4c9 163c
00000160: 2822 ffbb c605 debc 4ecb 533a 98de 4cbd
00000170: 08a1 febc 44a4 303c f8e0 da3b a58d 103d
00000180: 1fc4 163d 218f 76bd 28ba ed3b ea62 cbbc
00000190: fd32 d83b c605 6a3b e24b a53c ca95 d13b
000001a0: 9c95 13bd 7b67 adbc 8ebf 173d f33b cf3b
000001b0: c040 8c3c e862 963d c5c2 693c 850e 28bd
000001c0: c63a e73a 8f39 86bc 363d e9bb 5e29 933b
000001d0: bf8d 7ebc aff9 233d 45e5 b93c b1fa babc
000001e0: 02b7 0d3d a182 283d b64c 41bc e8fe 9abd
000001f0: 864a 183d d4e0 e5bc b97b 323d 2d2b 703d
00000200: ffde 1a3c dd4f 47ba 7dff 723c 2146 45bd
00000210: 7428 073c 22ad b6bb cc9f 0abd 15e2 a13c
00000220: 572f d93d c9fb 683d 5ee6 31bd 39e6 7fbb
00000230: e5e9 e5ba 5ab5 033c 45c0 e039 660e 193d
00000240: 6b81 05bc a737 50bc 2fc3 93bc df85 e43c
00000250: db65 333d 0eb5 363d c062 8c3a 0e71 1ebd
00000260: 03da b7bc 5bb3 4338 0a0e db3c 01a2 de3c
00000270: f216 5cbb 997f 8dbc 23f2 913b a98f 73bb
00000280: 56b1 a0bd 5548 f6bc 256f cebc 5d61 87bc
00000290: 5000 1f3c 4d85 a7ba 6b9c be3c 72b1 5a3c
000002a0: dd40 c639 ca65 063d 08b7 3fbb 9c09 113d
000002b0: 7bb4 a13b 227e 283c 4467 2f3d 33ff d1b9
000002c0: afcb f33c e6bd 3e3d 8ba0 c3bc b147 b1bc
000002d0: 6f05 d7b7 79b5 bbbc 5e53 563a 8b0d 04bc
000002e0: 6761 2dbd 2392 003c cdfc 2d3c df6e 5a3b
000002f0: ad36 91bc 6cff c33c 1d3c b9bc 84a9 283d
00000300: 706b a4bb 6fe6 dbbb 83f5 8d3a 244c 6f3c
00000310: aac3 15bd 045e 21bd 8443 23bb a016 c53c
00000320: 8685 a43b b187 dc3b a949 c5ba 49c3 ba3c
00000330: 12c9 b03a bcd8 92bb c5e4 0a3d 49dc b8bc
00000340: c0c1 0f3d 9ff6 e23d 1965 dbbc 425e 59bd
00000350: b36e 0ebc c5e4 89bd 64eb ce3d a81f 51bc
00000360: 3a98 853b 0697 b93c 130b 3e3b d3f8 3a3d
00000370: a893 fe3c 16f0 193b bc2f dbbc 843b bdbc
00000380: c8ec 12bd 9190 683d f8c5 393a 3dc8 693c
00000390: 275d 45bc 2d59 bbbc eba7 19bd 2368 233c
000003a0: 1fe8 4e3d 9b1e 0b3d 76b7 eebc f0e1 acbb
000003b0: f3e8 c3bb 9d3d 8bbd 02be cabc e99a 053d
000003c0: 2109 fd3b 99a6 103c b200 57bb a8ee 59bc
000003d0: 6e13 2e3b c4cd 22bd a320 d5bc 30d5 153d
000003e0: 59b7 cabc 1533 dabc 50ba 8abb 29a0 a73d
000003f0: f8ad f2bc e108 fc3c 0fcb 3ebd 7867 8bbd
0.008432872 0.00015791942 -0.012836402 0.0440067 0.0007434066 -0.011278939 0.025366237 -0.034010112
-0.09250424 -0.06417993 0.010319014 0.00080089655 0.014884566 -0.009092985 -0.014219383 -0.021244282
0.008288739 0.011224073 -0.0053476924 -0.017907837 -0.03524239 -0.037787702 0.01813149 0.041368708
0.02993275 -0.019179575 -0.009121143 -0.010080518 0.005500309 0.010920786 -0.009630375 -0.0069400426
0.07240081 0.029831858 0.049686056 0.002613494 -0.015287012 -0.0018354467 -0.015130657 0.0033379283
0.00526618 -0.030803975 -0.025517179 -0.013931278 -0.009217616 -0.0071503427 -0.018820323 -0.0041084792
-0.015985394 -0.0412679 0.0231095 0.003892914 0.004180274 0.03465553 -0.020909617 0.0071560643
0.039252784 -0.009539767 0.012382734 -0.0008339092 -0.009041096 0.004257096 0.0075279274 -0.031443298
0.03312786 -0.004199137 0.019783711 -0.023144314 0.032183688 0.01710718 0.014044054 -0.015742198
-0.0008805656 -0.0063232332 0.0029250234 -0.021941315 0.02134692 -0.016603412 -0.020788753 0.013848461
-0.03172941 -0.08660533 0.0009321315 0.05725656 -0.006078065 0.07662591 -0.09298815 0.009203363
-0.007786054 -0.027102362 0.0008079306 -0.05001697 -0.031082645 0.0107813515 0.0066796504 0.035291333
0.03680813 -0.060195092 0.0072548576 -0.02482744 0.006597875 0.0035709008 0.020177785 0.00639603
-0.03603135 -0.021167507 0.037047915 0.006324285 0.017120719 0.073430836 0.014267628 -0.041029472
0.0017641417 -0.016384868 -0.0071178926 0.0044910153 -0.015536725 0.04003304 0.022692332 -0.022824617
0.034598358 0.041140202 -0.0117980745 -0.07568151 0.037180446 -0.028061308 0.043575022 0.058634926
0.0094525805 -0.0007603148 0.014831421 -0.048162583 0.008249391 -0.0055748383 -0.0338438 0.019761125
0.106047325 0.056880746 -0.043432586 -0.0039047136 -0.001754102 0.008038843 0.0004286786 0.037367247
-0.008148531 -0.012708581 -0.018037407 0.027895866 0.04379831 0.04460626 0.0010710582 -0.038682036
-0.022442823 4.665866e-05 0.026740093 0.027176859 -0.0033583012 -0.017272757 0.004453914 -0.0037164486
-0.07846324 -0.030063787 -0.025199482 -0.016525919 0.009704664 -0.0012780816 0.023267945 0.01334797
0.0003781383 0.032811917 -0.0029253382 0.035409555 0.004934845 0.010283979 0.04282309 -0.00040053725
0.02976021 0.04656782 -0.023880264 -0.02164063 -2.5632527e-05 -0.022913681 0.0008175875 -0.0080598695
-0.04232922 0.007847342 0.010619354 0.0033330244 -0.017726267 0.023925506 -0.022611672 0.041177288
-0.0050176904 -0.0067108194 0.0010830614 0.014605556 -0.036563553 -0.0393963 -0.0024912069 0.02405864
0.0050208 0.006730043 -0.001505186 0.022798197 0.0013487658 -0.004481403 0.033909578 -0.022565978
0.035096884 0.110821955 -0.026781606 -0.053068407 -0.008693385 -0.067330875 0.10103491 -0.012763895
0.0040769847 0.022655021 0.00289983 0.045647454 0.031076267 0.002348905 -0.02675616 -0.023099668
-0.035870343 0.056778494 0.00070866896 0.014268932 -0.012046135 -0.02286967 -0.037513655 0.009973559
0.050514337 0.033964735 -0.029140215 -0.0052759573 -0.0059786974 -0.06798861 -0.024748806 0.032618437
0.0077220355 0.0088287825 -0.003280681 -0.013301529 0.0026561874 -0.039747015 -0.026016539 0.036580265
-0.02474563 -0.026635686 -0.004233636 0.08184845 -0.02962397 0.030765953 -0.04658037 -0.068068445

network_body._body_endoder.seq_layers.0.bias f4 [128]
00000000: b86a 213c 621a 173c a7cd 873c 2aea 1fbb
00000010: fa64 9dbc cd3d 783c 4609 5abc 4597 2ebc
00000020: 2e69 4f3b ca04 9abc 0b9a 9d3c 0f6b b9bb
00000030: 7e38 cbbb 6bff 073c 7137 873b eb0f 813c
00000040: e049 b1ba 899b 8a3b 4cd9 cd3b 8f81 883c
00000050: 78a9 90ba 7a3c b63c 7735 093d ab18 c13c
00000060: b0a8 1b3c 7f7a 143c c019 103d 8a3a 193c
00000070: 4f6f 433c db7f ef3b 7915 7cbc 5862 a4bc
00000080: 8a3f edbb 398e e13a 1b47 7a3c fc05 df3c
00000090: 53ae 24bb 0246 49bb 3d7c 913b 0917 833c
000000a0: f889 0dbc a3e0 bdbc 6d8b 96bc 4080 093c
000000b0: 6550 f53a f211 b13b 163d 1fbc fecc c83c
000000c0: 7f3c 0e3b 5ec6 4dbc 6e5d 65bc bd7d 27bb
000000d0: 7fa2 69bc ea11 dc3c 5580 9d3c 4458 b53c
000000e0: 1253 98bb a20d c7bc 351d a73c 8d3d 093d
000000f0: 536d 63bb fe85 9d3b 13d9 c63c 73e7 aa3c
00000100: 1a94 743c cfcc e1bb 9691 15bc 47bd 70bb
00000110: 8565 da3c 24ec b53b bd28 4c3b c417 873c
00000120: ea71 3e3b 2b87 923c f65e 98ba cfbb 8c3c
00000130: d9a6 963c 557c 88bb 7206 3b3c 3c7f 2dbc
00000140: d496 603b f4f6 793c e41c f33b 303c f9b9
00000150: 9fbf 0d3c 43a0 083c 3da0 1e3c 2980 2e3c
00000160: d94a 883c 1992 72bb 177a e63c 8c5c e23b
00000170: da0e 023c 3a35 4a3c c3c9 df38 622e 49bc
00000180: 1518 0abb d174 e03c d300 f73b 011d 583c
00000190: 1d05 3ebb 834c 793c 99aa 3cbb 391b 503c
000001a0: cd0e 383b 35a4 e63b ed85 7d3c bf37 513c
000001b0: 2ccf b03b a994 d93b 2dda 823c 90fa 5c3c
000001c0: 2ad7 91bc 1d90 e2bc 421b 7a3a 79ff 9cbb
000001d0: dea3 6bbc 887b dc3c 88c2 cf3b 14dd e93c
000001e0: 3917 553c f32b 8e3b d251 02bc 8b99 f53c
000001f0: 315e 063c 0873 283c aab2 0d3d f700 543c
0.009852104 0.009222599 0.016577555 -0.0024401047 -0.019213188 0.015151453 -0.013307875 -0.010656183
0.0031648385 -0.018801112 0.019238492 -0.0056585143 -0.0062018028 0.0083006425 0.004126482 0.01575466
-0.0013526045 0.004229967 0.0062820073 0.01666334 -0.0011036834 0.022245634 0.033498254 0.023571333
0.009500667 0.0090624085 0.035180807 0.009352336 0.0119283935 0.0073089427 -0.015385979 -0.020066425
-0.0072402405 0.0017208523 0.015275742 0.027224533 -0.002512832 -0.0030711894 0.004439859 0.016002195
-0.008638851 -0.023178404 -0.01837703 0.008392394 0.0018715976 0.0054037506 -0.009719154 0.02451181
0.002170354 -0.012559501 -0.013999326 -0.0025557124 -0.0142599335 0.02686401 0.019226233 0.022136815
-0.0046485746 -0.024298493 0.02039967 0.033505965 -0.0034702613 0.004807233 0.02427343 0.020862317
0.014927888 -0.00689087 -0.009128949 -0.0036733912 0.026659736 0.005551832 0.0031152212 0.016490825
0.0029059597 0.017886719 -0.001162498 0.017179398 0.018390106 -0.004165212 0.011415111 -0.010589417
0.0034269588 0.015256632 0.0074192155 -0.00047537824 0.008651643 0.008338991 0.0096817585 0.010650673
0.016637253 -0.003701335 0.028134389 0.006908005 0.007938111 0.012341792 0.0001067105 -0.012279125
-0.0021071483 0.027399452 0.00753794 0.013190509 -0.0028994747 0.015215996 -0.0028788208 0.012701803
0.0028084994 0.007038618 0.015473825 0.012769639 0.0053957906 0.006640036 0.015973175 0.013487473
-0.017802794 -0.02765661 0.0009540805 -0.004791197 -0.014382331 0.026914373 0.0063403286 0.028547801
0.013006025 0.0043387352 -0.007954078 0.029980442 0.008201168 0.010281332 0.034594215 0.012939683

network_body._body_endoder.seq_layers.0.weight f4 [128, 373]
00000000: ee5b 6ebd feb4 103d 7392 113d bc4d 9f3d
00000010: a63e 26be a61d 543d 3632 2ebb d881 c53d
00000020: 577b 053d 38a2 703d ec79 b0bd b3b6 5d3d
00000030: 4b57 c73b de9a 913d 2445 753d f77e 943c
00000040: 3db0 d0bd 5a0c b3bc db9a b53c 2c66 de3c
00000050: ecb9 93bc f160 813d d0e4 c93b 3813 563d
00000060: 499c b2bd 74cf 463d 69f7 e93c 3a6b 213d
00000070: 7903 adbd af66 003d d589 3b3b 165c a1bc
00000080: 8cb6 fd3c faab 313c 7066 78bc 8c5d adbc
00000090: 1898 cbbd 1803 653c 0bd2 82bc ed17 98bd
000000a0: 060e a33e d74e 5dbe 5f1d ec3c 5a30 103c
000000b0: 9d59 19bd 99ac 0dbd bfbb 91bc 657e 093d
000000c0: 62d7 a53e 7946 21be 888b 4abd 7b2c 98bd
000000d0: 577b 38b9 63d1 013e 0698 423d a759 a73d
000000e0: 7984 8f3e 202e 9fbd f187 8cbc dd29 dfbd
000000f0: 5d27 9dbd 5514 c33c 2436 c63c b0c4 ad3d
00000100: 22d9 1d3e 684c 20bd 9393 d0bc 09b2 13bd
00000110: 900a 6ebd 330f dd3d 7e3e 033d a7b4 823d
00000120: 6e1f 163e 6a01 cfbc 81ac 413d 49c8 d33c
00000130: cb2b 3abc b031 963b 9833 0a3c 6cfc 0d3e
00000140: bb3e ae3d 90cb c7bb 6397 593b 6584 8b3d
00000150: d773 f8bb 1599 a73c 7e88 10bd 21f0 743c
00000160: ee6e df3d 3be4 35bd d825 e93c 8190 f7bb
00000170: 4ff0 64bd 6f5d 713c 886c 83bd 056f a93c
00000180: c4ee 4a3e d180 55bd 186a cdbd 222f 1939
00000190: 038c 74bd 9e26 bf3d afc5 01bb 8ab3 a53c
000001a0: 13f7 e43c 4fa9 babd f6df 113d 6502 823d
000001b0: 0a2e d13b 64eb 53bd 6149 9e3c cc79 6dbc
000001c0: 8288 103d 7c2c 4a3d 2d05 a13d f7cc fbbc
000001d0: d945 a3bd b94b 983d 46fb 67bd 2b48 f939
000001e0: 936f 5e3d 1c25 9f3c ecf1 4c3b c795 b4bd
000001f0: c691 57bd a839 de3d 2ae2 133d d53b 5c3c
00000200: f65e 603d e840 62bd b879 ae3b 17df f538
00000210: 1b0c 523d da45 6a3d d3fe 11bd b7d5 37bd
00000220: 1489 593d 65f3 c6bb b029 f5bc 2776 febc
00000230: 8db5 c33b 113a 3dbd d3af 843c 44c3 98bd
00000240: b374 a63d 4501 03bb d6f6 7cbc cd02 2d3d
00000250: d3f0 43bd 3543 e33c fc94 f43c daf9 503c
00000260: 10fa f53c a663 d1bd 3e6a 253d aefe fe3a
00000270: 1540 8d3c 24e0 583d 89cc c33d 6f20 bdbc
00000280: e0d2 cabc 8acd f1bc 42f0 8c3d b6ef fcbc
00000290: 9821 233d 5fb7 6a3d 9960 26bc 9d1e 473c
000002a0: 60b9 d03d f9e5 983d aba7 b33d fb96 623c
000002b0: 5c52 c83c 0832 563d 2399 7e3b 697c afbc
000002c0: 06f0 d23b 093b d5bd 3a0c 303d 480a 6c3d
000002d0: 112c 3fbd d379 28bd 14e9 1bbc b22a d33d
000002e0: e869 2fbc b8c2 cfbc ed70 b33c 8c1f 55bd
000002f0: 480c a6bd 8d9c d73d bb3d 5c3b 990f 2f3d
00000300: e072 1b3d 4635 11be a7d4 1c3c edbf fabc
00000310: 6980 0cbc b731 1b3d 0c7a 373d f527 183d
00000320: d281 503d f2f0 0abc c72d e5bb 6c05 3dbd
00000330: 7c7e 563c 85e7 013e 635a 7bbd b390 91bd
00000340: f8e4 eb3c e7cb e03b 6596 203d 466e 34bd
00000350: dee9 bb3d 6623 323c 2b26 70bd d7d3 953c
00000360: 5675 a93c 3fb7 0cbb b382 88bd 3f01 c83c
00000370: 58a1 01be 525d a03c 6f09 68bc 12ad 423d
00000380: faeb e63c 0bc4 e53c 3cdc 9fbc 2cf1 2a3d
00000390: 47a9 a3bd fdee c03d 359f adbc e63c 9d3d
000003a0: a47d 91bc 7416 e83c 4c1c 973a 82bc acbd
000003b0: 614d 20bd e8df 82bd 7e31 853a f26f 913d
000003c0: ee79 dcbc 2f6f 903d 0014 c1bd c2ed 633a
000003d0: 3b21 6a3d d3e6 bb3d 7804 38bd 2cc1 f8bc
000003e0: 9568 3fba 52ac 103d 9831 b03c 8a0b 3bbd
000003f0: 9e91 2e3d 4965 973d 078f b5bc abb7 a63d
-0.05819314 0.035328858 0.035540055 0.077784985 -0.16234836 0.051786087 -0.002658022 0.09643906
0.03258833 0.058748454 -0.08617005 0.054129314 0.006083404 0.07109617 0.05988039 0.018126948
-0.10189865 -0.021856476 0.022168567 0.027148329 -0.01803299 0.06317318 0.00616131 0.052264422
-0.08721215 0.048537686 0.028560357 0.0394089 -0.08447928 0.031347927 0.002861609 -0.01969723
0.030970834 0.010844225 -0.015161142 -0.02116277 -0.09941119 0.013977788 -0.015969297 -0.074264385
0.31846637 -0.21612106 0.028822599 0.00880059 -0.037438978 -0.03458843 -0.01778972 0.033567805
0.32390887 -0.1574954 -0.049449474 -0.07430359 -0.00017593555 0.12677531 0.047508262 0.08171397
0.28030756 -0.077724695 -0.017154666 -0.10896657 -0.076735236 0.023813406 0.024195738 0.08484781
0.15414861 -0.039135367 -0.025460994 -0.03605846 -0.058115542 0.10793915 0.03204202 0.06382113
0.14660427 -0.025269229 0.047283653 0.02585234 -0.01136298 0.00458356 0.0084351525 0.13865823
0.08508059 -0.0060972646 0.0033201806 0.06812362 -0.0075821686 0.020458737 -0.03528642 0.014949829
0.1090983 -0.04440711 0.028460428 -0.007555068 -0.05589324 0.014731749 -0.06417185 0.020682821
0.19817644 -0.052124802 -0.100300014 0.00014608775 -0.059703838 0.093335375 -0.0019801666 0.020227212
0.027949845 -0.09114324 0.035613976 0.06348113 0.006383662 -0.051738158 0.0193221 -0.014494371
0.035286434 0.04935883 0.07862315 -0.030737383 -0.07972307 0.07436318 -0.056636117 0.0004754675
0.054305624 0.019426875 0.0031272126 -0.0881763 -0.052629255 0.10850841 0.03610436 0.013441999
0.05477806 -0.05523768 0.0053245686 0.00011724064 0.051281076 0.057195522 -0.03564341 -0.04488155
0.053109244 -0.0060714954 -0.029927105 -0.031062199 0.0059725703 -0.046197955 0.01619712 -0.07459119
0.08127727 -0.001998977 -0.01543971 0.042239 -0.04783709 0.027742008 0.029856198 0.012754882
0.030026466 -0.102240846 0.040384524 0.0019454563 0.01724247 0.052948132 0.09560496 -0.023086755
-0.024758756 -0.029516954 0.06881763 -0.030876022 0.03982696 0.057303783 -0.010154867 0.012153295
0.101916075 0.07465739 0.087722145 0.013829942 0.024453335 0.052293807 0.00388486 -0.021421628
0.0064373044 -0.10411651 0.04298041 0.057626992 -0.046672884 -0.041131806 -0.009516019 0.10310878
-0.010706402 -0.025361404 0.021904433 -0.05203204 -0.08107811 0.105279066 0.003360613 0.042739484
0.03795135 -0.14180478 0.009572185 -0.030609095 -0.008575537 0.03788921 0.044794127 0.03714748
0.050905056 -0.008480297 -0.0069939825 -0.04614775 0.01309168 0.12685974 -0.061365496 -0.07107677
0.028795704 0.0068602446 0.039205927 -0.044050477 0.09175466 0.010872697 -0.05863015 0.01828949
0.020685833 -0.0021471528 -0.06665554 0.024414657 -0.12659204 0.019575749 -0.014162405 0.047528334
0.028188694 0.028047582 -0.019514196 0.041733906 -0.079912715 0.094205834 -0.02119408 0.07677631
-0.017760105 0.028331019 0.0011528819 -0.084343925 -0.039136294 -0.06390363 0.0010161845 0.0710143
-0.02691361 0.070524566 -0.09427643 0.00086947915 0.057160597 0.091748856 -0.044926137 -0.030365549
-0.0007301656 0.035320587 0.021508023 -0.0456653 0.04261934 0.073923655 -0.022162927 0.08140501

network_body._body_endoder.seq_layers.2.bias f4 [128]
00000000: 2ea4 3abc 3038 19bc 9a07 0abc 91aa 0d3d
00000010: ef14 7fbc 602f 223c 9500 013b 8397 9f3c
00000020: 61ce c93c 30c6 153d 1a69 c43c cf45 68bc
00000030: 67e0 19bc e507 733c 4b83 783c 09e6 21bc
00000040: 47de 06bd 642a c2bc f8d0 15bc 2ffb 10bc
00000050: 4338 da3b 5290 083c 2534 943b 8da2 093c
00000060: 1adc 163c bfb0 a43b b8f2 843c e0fa a4bb
00000070: d2c1 a7bb 2b6c de3c a16d 1fbc 93f0 c4bc
00000080: 0b00 3e3c 7780 10ba eca7 803b cba1 083d
00000090: 8f25 273c dd04 5f3a d5b7 10bc 768c 693c
000000a0: 265d 58bb 4a25 1e3c 44ef 603c d60b 26bc
000000b0: efad 97bc eecd b23c 932d 343d d96f 0a3c
000000c0: 5d5d 7dbb 7a8b df3c 4fbc 8e3c 5f31 cb3c
000000d0: 1f34 21bc 6f31 1cbc 5d3c e43c 8ee5 5fbb
000000e0: 4d2f 5f3b e752 62bc ef57 3a3c b63f 85bc
000000f0: 16d9 03bc abf4 303d a110 893c 7689 ab3c
00000100: af44 773c 572b 153c 42d5 a5bc 1a45 a43b
00000110: fcf2 ad3c 4b14 5f3c 97e3 46b9 8ec5 1fbc
00000120: 531f 283c e836 72ba d1c3 3d3b 93f1 acba
00000130: 103c 1fbc 30a0 92bb fa43 653b 51e5 1539
00000140: 3396 463c 52bd 2d3d 3d5f 243d 10ca 1e3c
00000150: bada e4bc c011 cc3b 015e 123d 28b0 cdbc
00000160: 6e14 133b 1821 24bc 8da9 0cbd c3f9 e03c
00000170: 8f12 513b a6ea 9d3b b44e 2cba 1c1b fc3c
00000180: 994e 2d3c deb1 1b3c 8c45 2cbc 2a70 0739
00000190: b81d e1bb f61f 8b3b 6420 8d3b 188d b2bb
000001a0: acac 783c 0894 053d c84f dcbb b8ba 91bc
000001b0: 12df 9abc 9c0b b33c 9d14 3d3c d744 e03c
000001c0: d7ad a6bc 727a fabc 96df c2ba 459e d8ba
000001d0: 1c90 573c 9f04 1fbc ee8e 55bc d05d 833c
000001e0: 45f2 833b c88c faba d021 32bb 5a01 3e3d
000001f0: de54 743c 6454 6e3b 841d 763c b70e 123d
-0.011391683 -0.009351775 -0.008424664 0.034586493 -0.015568956 0.00989899 0.0019684185 0.019481426
0.024634542 0.03656596 0.023975898 -0.0141768 -0.009391881 0.014833425 0.015168021 -0.009881505
-0.032926824 -0.023701854 -0.00914406 -0.008848949 0.006659539 0.00833519 0.0045228177 0.0084005715
0.00920775 0.0050259526 0.016229019 -0.0050347894 -0.0051195407 0.027151188 -0.009730727 -0.024040496
0.01159669 -0.0005512307 0.003926268 0.033357423 0.010201826 0.00085074996 -0.0088328915 0.01425468
-0.0033014505 0.009652445 0.01372892 -0.010134658 -0.018515555 0.02182671 0.043988775 0.008449518
-0.0038660385 0.027288187 0.017423777 0.024803815 -0.009839087 -0.00953327 0.027860815 -0.0034163925
0.0034055293 -0.013813711 0.011373504 -0.016265731 -0.008047363 0.043202084 0.016731562 0.02093957
0.015092059 0.009104571 -0.02024329 0.0050131204 0.021234028 0.013615678 -0.00018967535 -0.009751691
0.0102613745 -0.0009239749 0.0028955827 -0.0013194553 -0.00971891 -0.0044746622 0.0034983144 0.00014295174
0.012120771 0.042416878 0.04012989 0.00969173 -0.027936328 0.006227702 0.03573418 -0.025108412
0.0022442597 -0.010017656 -0.034341384 0.027462846 0.003190193 0.004819232 -0.0006573007 0.030774646
0.010577821 0.009502856 -0.010514628 0.00012916388 -0.006869998 0.0042457534 0.00430684 -0.0054489486
0.015177887 0.032611877 -0.006723378 -0.01778923 -0.018905196 0.021856122 0.011540559 0.027376575
-0.020346565 -0.030575965 -0.0014867659 -0.001652666 0.013156917 -0.009705692 -0.013034565 0.016035944
0.0040266835 -0.0019115442 -0.0027180798 0.046388008 0.014912812 0.0036366219 0.0150216855 0.035658564

network_body._body_endoder.seq_layers.2.weight f4 [128, 128]
00000000: 8e72 60bd 8436 253d d31c 1cbd ff2b 863c
00000010: bd10 81bc 0185 433c dcce 1c3e b03a b3bc
00000020: e2f2 333e 4f1a 08be 68f9 193e 7696 d5bd
00000030: 43e0 043e 9c91 d73d c4ee 663c 1d4a 88bc
00000040: 3e37 d53d 264c 993d 573d 6abd f77a b03c
00000050: 35ae b73d 5a21 debd c2ea 003d 943e 533d
00000060: 0d4d 3abd 52a3 0fbe ea18 85bd 288c 10bd
00000070: 9d62 6abe 56bd 743d 6918 e63d 1b7f 803d
00000080: 861b eabc fb3e 1fbe 5328 fdbb 9a7e 73bd
00000090: 80c0 81bc a350 6fbb 77bd a1bd fe6e 1abe
000000a0: f89c 94bd 01f2 76bd 705f d83c 4785 98bd
000000b0: b434 0e3c deae f93d fbf4 073e d2d9 ce3d
000000c0: c753 cb3b 6d71 4f3d 82ef 87bd f8ff ae3d
000000d0: 599d 3e3e 8419 14be 6efb e5bd 817a 083e
000000e0: 94af dd3d 5943 993d 9e02 2ebe 88ea 203d
000000f0: 5eb2 873d 88b4 3a3d 40da 03bd e701 79bd
00000100: 911c 51bd 4bc4 9e3d ac07 913d ea9e 26bd
00000110: b6fd 403d b960 07bc a69e f13d 7d32 00be
00000120: b905 4abd a2b3 16be 6e9f 93bd ee25 903e
00000130: 22db adbd 3477 16bc 31ec dcbd fcd9 2c3d
00000140: 498f 06bd 57c2 44bb 9296 cc3d c588 303d
00000150: c658 963c 074f 3cbd d407 dfbd 2728 18bb
00000160: cea0 fd3d b75a ddbc ce8d c2bd 0105 82bd
00000170: fd83 b2bb a7c0 c9bc 3cc3 b5bd 6175 7bbd
00000180: ad51 2c3e 4d88 28bd e755 67bd 45f2 093e
00000190: bf28 77be bfda 323c f748 96bd 420a 123c
000001a0: e5a6 1f3c ce36 523c c50d 74bd f0fb 9cbd
000001b0: 19e2 c83c d663 18be 2696 f93d a9d8 77bd
000001c0: 7ad3 88bc e5d2 eabc fa4f 1dbd ad5c 3bbd
000001d0: fdd6 a7bd 7994 bb3c 2805 e1bd 9d6f 2d3d
000001e0: c573 333c 7eca 793c d9bb bfbd a7bd 0f3d
000001f0: eb6d d7bd 2ef5 d53d 5e70 0dbd 3097 303c
00000200: c556 cdbb 2600 333d d975 13be 249b 9cbc
00000210: 13b8 673d 10dc 47be af14 3d3c 61e1 003d
00000220: 62bb 663d b51f 9b3d c129 b9bc d005 e83d
00000230: da56 d4bd b240 3dbd 3ba8 9f3d 4089 4a3d
00000240: b390 973c 8948 bebc bf3b 09bc 367c 8c3c
00000250: f976 0cbe 9920 e83c 7c5d 823d 4159 8abd
00000260: 1d67 023d 3e67 9fbb bc8f 9abd 4b2c ddbc
00000270: 316a 313d 12e8 d63d 79f8 3abd 6443 ad3d
00000280: 1a9c 8abd dd8c 673c a6f3 37bd 57ce 1abe
00000290: 3311 90bd 3d0d d6bd 7592 24bd f543 40ba
000002a0: 85ca 85bd 9178 873d fb66 a23d bb96 033e
000002b0: cd54 94bd eb50 41be 65e5 273d 1cc3 25be
000002c0: fec0 923c 0ce7 82bd 2d43 7b3d a6a3 df3d
000002d0: 9b6c e33d b85a e2bd 7ef0 293e e594 1abe
000002e0: 91fc 243d b801 873d de97 333e af0e a3bd
000002f0: c122 1fbd 043c 923a ae31 0a3e 14ee 0a3c
00000300: 14fd 923d 7e7b 84bd 888f 1ebd a3cf b1bb
00000310: 3c67 0fbc 91c7 9c3d 88db 473d c0ce 803d
00000320: 02c0 6b3b 80c4 43bd 1670 40be 267b dfbd
00000330: b9a1 c7bd 6b5b 24bd 82c6 16be e1f5 623d
00000340: 5492 833d 4f38 363e a4a2 763b bb65 023d
00000350: 6389 893d b4fa a8bd c240 3d3d eb8b 293d
00000360: 02e2 30bc a3ee 543d 1eda 783e e7de c53b
00000370: 1ab1 e83c 0192 913d 0bfe 06be a41c bb3d
00000380: 3113 353e 84c4 4b3d bbf0 cdbd a304 a43c
00000390: 42c8 4f3b e9c4 5dbd cc03 a33c 1b94 ff3d
000003a0: 885c 93bc 96d6 7dbc 2790 543c 16e7 afbd
000003b0: 9108 06be 36a5 303d ee1e ce3d d7a0 803d
000003c0: c6d4 43be d2bd 973a ad4b 5d3e 65b2 99bd
000003d0: 167f 043c 3ee0 843c 3502 46b9 29f6 b63c
000003e0: 46f6 12be 1fb7 07bd 76b7 2ebd fc07 d0bd
000003f0: 4f93 25be c497 99bd d069 803d 8054 4d3e
-0.054796748 0.040335193 -0.038113426 0.0163784 -0.015755052 0.011933566 0.15313286 -0.02187857
0.17573121 -0.13291286 0.15036547 -0.10429089 0.12976174 0.1052582 0.014095012 -0.016636902
0.10410927 0.07485227 -0.057187404 0.02154301 0.08968774 -0.10846205 0.031473882 0.05157335
-0.045483638 -0.14027146 -0.064988926 -0.035289913 -0.2288918 0.059750877 0.112351246 0.062742434
-0.028577577 -0.15551369 -0.0077257543 -0.05944691 -0.015838861 -0.003651657 -0.07897466 -0.15081403
-0.07256502 -0.060289387 0.026412696 -0.07447296 0.008679558 0.121915564 0.13277046 0.1010014
0.0062050554 0.05064528 -0.06637479 0.08544916 0.18614711 -0.14462858 -0.11229597 0.13327982
0.108245045 0.07483549 -0.16993186 0.039286166 0.06625818 0.045582324 -0.03219056 -0.06079283
-0.051052634 0.07752284 0.070815414 -0.040678896 0.047116958 -0.008262807 0.11797838 -0.1251926
-0.049321864 -0.14716962 -0.07208143 0.28153938 -0.08489062 -0.009183694 -0.107872374 0.042200074
-0.03285149 -0.0030023062 0.099896565 0.043099184 0.018352877 -0.045973804 -0.10890165 -0.0023217292
0.12384187 -0.027020795 -0.09499703 -0.06348611 -0.005447863 -0.024627997 -0.088751286 -0.061391238
0.16828032 -0.04114561 -0.056478407 0.13471325 -0.24136637 0.010916411 -0.07338136 0.008913578
0.009744381 0.012830449 -0.059583444 -0.07665241 0.024521874 -0.14881834 0.12186842 -0.060509358
-0.016702402 -0.028665015 -0.03840635 -0.04574268 -0.08195303 0.022897946 -0.109873116 0.04234277
0.010952895 0.015246032 -0.09362001 0.035092976 -0.10519012 0.10447155 -0.03453099 0.010778233
-0.0062664472 0.043701313 -0.14400424 -0.019116946 0.05657203 -0.19517541 0.011540576 0.031464938
0.056331046 0.07574407 -0.022602918 0.11329234 -0.10368128 -0.046204276 0.07795759 0.049447298
0.018501615 -0.023227947 -0.008376061 0.017149072 -0.1371726 0.028335856 0.06365487 -0.06755305
0.031836618 -0.0048646023 -0.075469464 -0.02699866 0.043314163 0.10493483 -0.04564712 0.08460119
-0.06768055 0.0141327055 -0.044910096 -0.15117775 -0.070345305 -0.10451744 -0.040178735 -0.0007334345
-0.06532768 0.06614793 0.07929798 0.12850468 -0.07242737 -0.18878524 0.040990252 -0.1618771
0.017914291 -0.06391725 0.06134336 0.10919885 0.11104699 -0.110524595 0.16595647 -0.15095861
0.04027993 0.06592125 0.17538401 -0.07961785 -0.038851503 0.0011156802 0.13495514 0.008479614
0.07177177 -0.06468867 -0.0387111 -0.0054263636 -0.00875264 0.07655252 0.048793346 0.062894344
0.00359726 -0.04779482 -0.18792757 -0.109121606 -0.09747643 -0.040126245 -0.14724162 0.05541027
0.06424394 0.17794918 0.0037633562 0.0318353 0.067156576 -0.08250943 0.046204336 0.0413932
-0.010796072 0.051985394 0.24301955 0.006038535 0.028404761 0.07107926 -0.13182847 0.09136322
0.17683102 0.04974796 -0.10055681 0.020021742 0.0031705056 -0.054142866 0.019899271 0.12479421
-0.017988458 -0.015493056 0.012973822 -0.08588998 -0.13089205 0.043126307 0.10064493 0.06280678
-0.19124135 0.0011576957 0.216109 -0.07504729 0.00808694 0.016220208 -0.00018883574 0.022334175
-0.14351758 -0.033133622 -0.04265543 -0.10157773 -0.16169475 -0.0749965 0.06270182 0.20051765
