FPS AI/results/1/FPS Agent/FPS Agent-2897976.onnx (onnx, 263358 bytes, 9 tensors)

action_model._continuous_distribution.log_sigma f4 [1, 3]
000000 63 34 1c be f4 04 ea 3c e4 a4 46 be
       -0.15254359 0.028566815 -0.19398838

action_model._continuous_distribution.mu.bias f4 [3]
000000 e4 ef 96 3c 07 0c 6e bc 0d 74 91 3c
       0.018424936 -0.014529235 0.017755533

action_model._continuous_distribution.mu.weight f4 [3, 128]
000000 ac 2d a5 3c 81 d4 3c bc b0 ca bd 3c d1 50 27 3d
       0.02016338 -0.011525274 0.023167938 0.040848557
000010 4d f7 a6 3b 34 79 a9 bc 05 15 71 3c de b8 9b 3c
       0.0050953985 -0.020687677 0.014714484 0.01900905
000020 0a d0 9b 3b 4e 38 56 bd 9d c8 7a 3c 45 84 0b 3c
       0.004755025 -0.05229979 0.015306619 0.008515422
000030 62 01 ef bc a4 6a 2d bb 32 0a b4 bc 41 9f e1 bb
       -0.029175464 -0.0026461268 -0.021977518 -0.0068854396
000040 8c f2 55 bb 2c 67 77 3d 4b 6d 09 bc a8 83 e8 bc
       -0.003264579 0.060401127 -0.008387874 -0.028383091
000050 e9 8a 4c 3d 75 e8 eb 3c 43 f2 3d 3c 87 17 8f 3c
       0.049937163 0.028797368 0.011593404 0.017467273
000060 f1 77 a3 3c a8 14 41 3a 8a ca cd 3c d0 c9 04 3c
       0.019954653 0.0007365444 0.025120992 0.0081047565
000070 e1 b7 ba bc b3 7f 2c 3d d3 85 b6 3c 1c d8 3d 3c
       -0.022792758 0.04211397 0.02228061 0.011587169
000080 a0 7d 5e 3c 10 5f 95 3c 68 25 61 3d 61 a0 87 bc
       0.013579756 0.018233806 0.054967314 -0.016555967
000090 9d 9e 32 3d d0 c3 b6 bc 72 46 1d 3b aa c2 d1 bc
       0.043608297 -0.022310168 0.0023998288 -0.025605518
0000a0 56 68 4e bc ec 0b be bc 02 83 7c 3a eb ca 32 bd
       -0.012598118 -0.023199044 0.0009632559 -0.04365055
0000b0 52 76 1d bc 22 91 bc 3a fa 97 30 3d da 6d 60 3c
       -0.009610729 0.0014386515 0.043113686 0.013698066
0000c0 e6 26 e6 3c 2e f7 0c bd aa a5 96 bc 94 79 de 3c
       0.02809472 -0.034415416 -0.018389542 0.027157582
0000d0 ef 93 fa bb 38 c9 9b 3c 1e 61 3f bd e0 57 96 bc
       -0.0076470296 0.019016847 -0.046723478 -0.018352449
0000e0 63 b5 06 3d 3d b3 5b bb 9e 6e bf bc 07 b0 15 3d
       0.032887828 -0.0033523582 -0.023368176 0.036544826
0000f0 2a 5c 3c bd da 74 df bc db fd 65 bc 8f 8b 3b 3d
       -0.045986332 -0.027277399 -0.014037575 0.04578739
000100 c1 b1 a2 b9 12 02 15 bd a1 66 9c 3b bc 5b e7 bc
       -0.00031031485 -0.036378928 0.0047729765 -0.028241985
000110 b0 d6 76 3c e4 38 c4 3b 1f e7 19 ba 28 78 cc bc
       0.015065834 0.005988227 -0.00058709265 -0.024959639
000120 43 30 76 3b fa 7a 68 bc 71 29 a5 3b 65 7f ed bc
       0.0037565387 -0.014189476 0.0050403406 -0.02899141
000130 70 9a 7c bd 3d 82 7e bc 1e d8 00 bd 9c 77 23 bd
       -0.06167072 -0.015533981 -0.031456105 -0.03990899
000140 9b fe 97 bc d3 1b 0e 3d c9 40 31 3c 08 41 51 3b
       -0.018554023 0.034694504 0.010818669 0.003192963
000150 a9 c3 0a 3a ac 44 14 3d d4 2f a0 bc b3 7c bb bb
       0.0005293438 0.036198303 -0.019554056 -0.0057216524
000160 43 77 8e 3b 24 19 27 3c 68 31 28 bd c8 df 2d 3d
       0.004347713 0.010198865 -0.041062742 0.042449743
000170 03 25 72 3d 50 16 b2 3c 16 c5 ef b9 88 e5 31 3c
       0.05911733 0.021739155 -0.00045732473 0.010857947
000180 28 91 93 bc 0b 19 90 bd f5 bc 63 bc ee 25 82 bc
       -0.018013552 -0.070360266 -0.013900031 -0.015887227
000190 d3 0c 98 bb 34 3d 04 bd a8 a7 e3 bc e2 4b a1 3c
       -0.0046402006 -0.03228493 -0.027789906 0.019689504
0001a0 48 d8 00 bd b6 1b 46 3d e4 2e 09 bd 45 b2 c8 bc
       -0.031456262 0.04836627 -0.033491984 -0.024499068
0001b0 13 83 47 bd cd 67 13 3c b2 57 04 bd 0e b6 d5 bb
       -0.048708986 0.008996916 -0.032310195 -0.0065219468
0001c0 4f ad 52 bc 4e b1 6c 3d fb c2 ec bc a8 91 c1 3c
       -0.012858703 0.05778628 -0.028901568 0.023629025
0001d0 11 50 ba 3c b4 e0 b9 bc 19 66 6a bc a7 b4 be bb
       0.022743257 -0.022690155 -0.014306569 -0.0058198753
0001e0 0c b2 b6 bc a1 00 6a bc ac 2d 9b bc ba ff 83 bc
       -0.022301696 -0.0142823765 -0.018942676 -0.01611315
0001f0 33 68 02 bd 1d 70 28 bc 9c 01 67 3a 92 99 21 bb
       -0.031837653 -0.010280636 0.00088121905 -0.0024658185
000200 7c 6b 98 3a 6c b8 ba 3b 72 40 d3 3b 95 15 3d 3b
       0.0011628713 0.0056982543 0.0064468915 0.0028851975
000210 03 f9 87 3c c6 0b 2d bc 1b 0a 43 bc 18 67 aa bc
       0.01659823 -0.010561889 -0.011904265 -0.020801112
000220 f6 ee c7 3c 38 bc 98 bb 72 19 a2 bc 94 c7 95 3c
       0.024405938 -0.0046611093 -0.019787524 0.018283643
000230 5c ba df 3c 6e e2 c8 bc 9e 14 b9 3d 63 df 73 bc
       0.027310543 -0.024522033 0.090371355 -0.0148848025
000240 e2 3b 1e 3b a9 7f 11 bd 19 05 da 3a f8 7c b3 3c
       0.002414458 -0.035522137 0.0016633599 0.021910176
000250 30 71 ad 3c b4 1a 0f 3d 8c 73 1a 3c 18 98 60 3c
       0.021172136 0.034937575 0.009426963 0.013708137
000260 d9 d8 50 bc d5 eb ce bb 87 ee 72 3c 12 c8 eb bb
       -0.012747013 -0.0063147345 0.014827377 -0.007195481
000270 76 4c 45 3c 19 97 23 bc 67 9f 45 bb ed b7 80 3c
       0.0120421555 -0.009984755 -0.0030154826 0.015712703
000280 ef 8d a9 3c cd 27 9e 3c e5 21 a3 bc 2c e1 75 bd
       0.020697562 0.019306088 -0.019913623 -0.060029194
000290 47 d9 82 3c 0f 5f 02 bd 2e 68 64 bc 5f 02 c0 bc
       0.015972747 -0.031828936 -0.013940854 -0.02343863
0002a0 20 c7 b3 36 50 12 a8 3c 48 0f 79 bc ea f1 2b bc
       5.357797e-06 0.020516545 -0.015201397 -0.0104946885
0002b0 27 ea 9a bc cf 8d ed bc 4d 51 0d 3d 8c 1d 46 bc
       -0.01891048 -0.028998284 0.034501363 -0.012092005
0002c0 97 81 9f 3c 0e 7c 36 bd 69 64 df bc 72 81 05 bd
       0.019470973 -0.0445519 -0.027269559 -0.03259415
0002d0 3c 85 55 bc e9 70 67 3b 17 2c f0 bb 51 21 0d bd
       -0.013032254 0.0035315102 -0.0073294747 -0.0344556
0002e0 dc c7 d3 3b 49 9c 84 3c 62 14 62 bd 15 ee 8d 3d
       0.006463034 0.016187804 -0.05519522 0.06930176
0002f0 7a db f5 3c 1e 03 b4 3d c5 1a d1 bc 40 68 22 3d
       0.030011881 0.08789657 -0.02552546 0.0396502
000300 08 bc 2c 3d fe af 17 3d 4a 73 35 bc 73 1f 83 bc
       0.042171508 0.037033074 -0.01107485 -0.016006207
000310 75 4a 1b bd 40 f4 49 bb cb 0c 0c 3d ea 6f 43 3c
       -0.037912805 -0.003081575 0.034191888 0.011928538
000320 14 71 8b 3a 20 b7 31 3d 99 b1 8d 3c 96 a0 dd bb
       0.0010638558 0.043387532 0.0172966 -0.006763528
000330 24 4c 1a 3d 16 b3 4b 3c 83 38 37 3c 62 bd 77 bc
       0.03767027 0.012432834 0.011182907 -0.015120836
000340 04 cf b6 3d 28 85 03 3d c2 b3 1f 3c 9c d3 92 bc
       0.08926204 0.03210941 0.009747447 -0.017923169
000350 f8 ef 40 3c 7a 1c aa 3c 61 61 c9 3d 87 5a d4 3c
       0.011775963 0.020765532 0.09833027 0.025922073
000360 e6 a0 e2 bc 17 8e 03 3b b2 1c 11 bd 60 fb f6 3c
       -0.027664613 0.0020073706 -0.035427757 0.030149162
000370 4d b1 e4 3d 13 e7 92 bc 23 a7 3e 3c df 56 21 bd
       0.1116663 -0.01793245 0.011636528 -0.039389487
000380 68 e6 03 bd bb 4e 28 3c 7a a6 95 bc 90 68 b0 3b
       -0.032202154 0.010272677 -0.018267859 0.0053835586
000390 52 a7 01 bd 5b 7f 39 bb 46 d3 a4 bc f3 b8 99 3c
       -0.03165371 -0.002830467 -0.020120274 0.018764948
0003a0 87 8e ec bc e7 4c 85 bc 01 84 1f 3c 4e 34 80 3c
       -0.028876556 -0.016272021 0.009736062 0.01564994
0003b0 88 ae 68 3d 3e 18 49 bc 84 1d 65 3c 10 96 ab ba
       0.05680707 -0.012273846 0.013984088 -0.0013090987
0003c0 dc df 04 3d ab 53 20 3d ba 14 c7 bc 1b 3e 9c 3b
       0.03244005 0.039142292 -0.024301875 0.0047681457
0003d0 8c 4b ce bc 98 0b 79 3c b0 f5 3b 3c a2 05 95 ba
       -0.025182508 0.015200518 0.011472151 -0.0011369477
0003e0 75 a6 51 bc f4 ed d0 3a 14 cc 27 3c 53 42 43 bc
       -0.012796034 0.0015940056 0.010241527 -0.011917668
0003f0 dc 97 2f bd c2 fd 27 bc c7 26 bf bb a9 8a 0e bc
       -0.042869434 -0.010253372 -0.00583348 -0.008700051

action_model._discrete_distribution.branches.0.bias f4 [2]
000000 fa 4c 8b 3c f9 4c 8b bc
       0.017004479 -0.017004477

action_model._discrete_distribution.branches.0.weight f4 [2, 128]
000000 2c 5d 53 3b 56 1e 37 bc a4 46 88 bc b0 5e 87 3d
       0.003225158 -0.011176666 -0.016635247 0.06609857
000010 68 6e 77 3c e5 f9 41 bc 78 3f 61 3d 9a bc 6a bd
       0.0151020065 -0.011839365 0.05499217 -0.05730877
000020 b6 43 d4 bd c1 cf 9b bd 18 40 dc 3c 72 d6 4e bb
       -0.10364477 -0.07607985 0.026886031 -0.0031560925
000030 11 b4 a7 3c 8e 04 91 bc da 58 a9 bc 6c 80 ec bc
       0.020471605 -0.017702367 -0.02067225 -0.02886983
000040 ab e8 85 3c d0 84 52 bd d2 00 f8 bc 29 be 1b bd
       0.016346296 -0.05139619 -0.030273829 -0.038023148
000050 4e 24 14 bd 96 f6 28 bd fb 90 e4 3c 3c a3 8c 3d
       -0.036167435 -0.041250788 0.027901163 0.06867072
000060 2a be 9f 3d a7 e2 db bc 16 45 b5 bb 19 48 cb bc
       0.07799943 -0.026841475 -0.0055319173 -0.024814652
000070 6c 0d 32 3c a7 69 0c 3d e7 c3 cf bc 29 f1 79 bc
       0.010867458 0.034280445 -0.025361968 -0.015255251
000080 b5 e8 ec 3d d2 5c 9b 3d b0 46 a6 3d 1a 8d 36 3c
       0.11567823 0.075860634 0.08118951 0.01114204
000090 41 5b 85 bc 3d f1 61 bb 93 55 b1 bc 07 c0 7a bc
       -0.016278865 -0.0034476065 -0.02164725 -0.015304572
0000a0 11 73 db ba 80 65 e5 bc 5e 99 07 bd 08 a8 b7 bc
       -0.0016742666 -0.0280025 -0.033105247 -0.02241899
0000b0 db 7d 27 bd ae ef cc bc be bf a6 bb df 5d eb bb
       -0.04089151 -0.025016632 -0.0050887754 -0.007182821
0000c0 0a 62 1d bc d6 44 6a bd 54 90 b9 3c 6c 58 12 bc
       -0.009605894 -0.057194553 0.022651829 -0.008932214
0000d0 aa a5 a9 39 b1 57 61 3c cc 59 e8 bc a6 f5 9c bb
       0.0003235762 0.013753817 -0.028363131 -0.0047900258
0000e0 f7 c9 95 3d f3 6d 6c bb 68 2e 43 bc 8d 07 9f bb
       0.07313912 -0.0036076277 -0.01191292 -0.004853195
0000f0 53 53 8d bc 40 b5 ac 3c 0c 06 69 3c 90 0d 42 bd
       -0.017251646 0.02108252 0.014222633 -0.047376215
000100 34 6a e3 3c 1b ce b2 bc db d6 9b 3c fe 2a 01 bd
       0.027760603 -0.021826794 0.01902335 -0.03153514
000110 0c a1 5e 3d 11 17 c9 3c 4b 71 d6 3b 0a 50 47 bc
       0.054352805 0.024547132 0.0065442673 -0.012165079
000120 7d 71 0a 3c 50 3d e6 3b 40 53 8b 3b d3 6d ed bc
       0.008449909 0.007026352 0.0042518675 -0.028983032
000130 fd 61 95 3d 8a e7 0a bd a6 2d 95 bc 3f 73 91 3c
       0.072940804 -0.03391222 -0.018210243 0.017755149
000140 74 c6 56 bc 63 e8 ba bd ee ce 70 3c c6 47 ca 3d
       -0.013108838 -0.091263555 0.014697773 0.09876971
000150 8c 2a 8d 3a e7 d9 ec 3d 81 75 c3 bd 50 01 d9 3a
       0.0010770126 0.11564999 -0.095438965 0.0016556177
000160 3c 57 0a bc b0 f8 19 bd 18 04 61 bc 52 ff 23 bd
       -0.00844365 -0.037590683 -0.013733886 -0.040038414
000170 06 a1 6d bc ff 20 b4 3b 92 2d ce 3b b6 97 4a 3d
       -0.014503723 0.0054970975 0.0062920535 0.04946109
000180 9d 44 76 3d a8 4d 45 bd 1c cb 27 3c b8 8e 15 bd
       0.06012403 -0.048169762 0.010241296 -0.03651306
000190 ed e6 4a bc 9a 0c 0a 3d d9 66 a5 3c 95 ff 99 3c
       -0.012384159 0.033703424 0.020190643 0.018798629
0001a0 26 7b 50 bd 6f 3a 28 bc ab 85 5d 3d f2 35 fa bc
       -0.050898694 -0.010267838 0.054082554 -0.030543301
0001b0 55 8c 36 3d e8 e6 0d 3e 7c f7 c7 3c d5 c0 24 bd
       0.044567425 0.13857615 0.024410002 -0.04022296
0001c0 86 1b 87 bb 13 22 07 bd fe 9b dd bc 1a 5d 32 bc
       -0.004123154 -0.03299148 -0.027051922 -0.010886455
0001d0 7d 0a 4d bc d3 56 ce 3c 50 85 09 3d 69 4d 13 bd
       -0.012514708 0.025187885 0.033574402 -0.035962496
0001e0 2c a3 13 3d b9 85 8c 3d 63 9e 6f bc 2a 95 a9 bd
       0.036044285 0.06861443 -0.014625165 -0.08280404
0001f0 d2 09 0b 3d 01 9d 41 bd 1e a2 c0 3d 32 24 f1 3d
       0.033944912 -0.04726887 0.094059214 0.11774482
000200 9e 31 70 3c bd 3f 2d 3c 76 9e 98 3c 92 e1 8f bd
       0.014660267 0.010574278 0.018630248 -0.07025446
000210 b1 2f c8 bb a5 4f a4 bb 6a fc 81 bd 80 5f 30 3d
       -0.006109201 -0.005014377 -0.06346972 0.043059826
000220 33 00 f0 3d e1 dc 8c 3d 3d c2 75 bd 3d 46 5b 38
       0.11718788 0.06878067 -0.059999693 5.2279083e-05
000230 cf 8d f0 bb de 61 88 3c bc 7e e1 3b 75 4a 38 3d
       -0.0073411237 0.01664823 0.006881563 0.044992883
000240 a7 c2 84 bc 35 70 4c 3d 05 bb e1 3b 67 a7 44 3d
       -0.016206099 0.049911696 0.0068887495 0.04801121
000250 d3 2f 37 3d 5c e4 44 3d aa 84 0e bc a6 22 87 bd
       0.044723343 0.048069343 -0.008698622 -0.065984055
000260 4b 67 90 bd 94 97 fc 3b f4 a6 bd 3c bb aa 2b 3d
       -0.070509516 0.007708499 0.023150899 0.04191087
000270 0d f5 0e bc 17 6e 26 bd 26 5c a5 3c 2b b1 96 3b
       -0.008725417 -0.040632334 0.020185541 0.004598757
000280 2a 53 f9 bd 6f d6 9b bd 58 41 68 bd 13 3f cd bc
       -0.121740654 -0.07609259 -0.05670294 -0.02505449
000290 30 40 2f 3c 96 26 af 39 e5 fe f3 3c 65 08 03 3d
       0.010696456 0.0003340735 0.02978463 0.031990428
0002a0 bb d0 ef 3b 88 d8 f5 3c 42 ca 98 3b a3 cd 33 3d
       0.007318584 0.030010477 0.004662783 0.043897282
0002b0 08 f3 15 3d 78 9b e6 3c 5a 51 ee 3c c9 3a 2f 3b
       0.036608726 0.028150305 0.029091526 0.002673792
0002c0 f3 88 bf 3c 3e fa 7f 3d e0 e0 bf bc ef 6e 10 bc
       0.023380732 0.06249451 -0.023422658 -0.008815511
0002d0 de 12 7b 3b eb db 03 bb a0 83 07 3c 9d af 7e 3b
       0.0038310806 -0.0020120095 0.008271128 0.0038861998
0002e0 f0 16 9c bd 02 08 fb 3a 0c 03 0f 3d 73 eb f0 3b
       -0.076215625 0.0019152167 0.034915015 0.0073522865
0002f0 da e7 1b bc d1 a7 e8 3b c6 13 f0 bc 8b ec 69 3d
       -0.009515727 0.0071000834 -0.029306304 0.05711035
000300 d3 44 b7 39 80 dc 32 3c 8b a1 f1 3a ba 62 bc 3c
       0.00034955758 0.010916829 0.0018434984 0.022996295
000310 ad 91 70 bd 67 d7 3f bd f5 1e a4 3b df c8 a7 3c
       -0.058732677 -0.046836283 0.005008573 0.020481525
000320 0c 38 8d bb d3 e8 d8 bb f9 99 39 bb d3 72 f4 3c
       -0.00430966 -0.0066195517 -0.0028320535 0.029839909
000330 d1 cd 4d bd 36 2a 52 3c 01 55 00 3d 5d dd d8 bc
       -0.05024511 0.012827447 0.031331066 -0.026472742
000340 3e f9 86 3c e4 80 ec 3d f9 14 26 bd ff b3 c1 bd
       0.01647627 0.115480214 -0.040547345 -0.0945816
000350 b4 d4 81 bc 96 d0 d9 bd 54 f0 d3 3d 33 ec aa bb
       -0.015848495 -0.10635488 0.10348573 -0.0052161454
000360 71 24 9b 3b 52 c1 07 3d d4 e1 8e 3c 8d 19 12 3d
       0.0047345688 0.03314335 0.017441668 0.0356689
000370 39 86 6d 3c dc 1f fa 3b 05 03 d8 bc eb a7 18 bd
       0.014497333 0.0076331925 -0.026368627 -0.037269514
000380 41 6d 72 bd 19 4f 37 3d ff 46 15 bb c3 9e d4 3c
       -0.059186224 0.044753168 -0.0022777913 0.02595461
000390 98 46 e3 3b cb 18 59 bd 61 b5 19 bd 9d 30 1f bb
       0.0069359057 -0.05300216 -0.037526492 -0.002429045
0003a0 d5 e6 85 3d f7 f2 bc 3c e4 21 3d bd 46 66 01 3d
       0.06538168 0.023065073 -0.0461749 0.031591676
0003b0 20 e9 08 bd 3d 54 08 be e8 e9 0e bd 4a 4d 02 3d
       -0.03342545 -0.13313384 -0.03489104 0.03181199
0003c0 a1 f9 5e 3c ff 5d d0 3c 83 6c 88 3c eb 0c 08 3b
       0.013609321 0.025435446 0.016653305 0.0020759653
0003d0 d9 ce bf b9 fb fe cb bc 03 23 17 bd 59 a5 4b 3d
       -0.00036584472 -0.024901858 -0.036898624 0.049718235
0003e0 f2 8f d6 bc 3f a2 5d bd 40 5c b8 ba 6e 36 b6 3d
       -0.026191685 -0.054109808 -0.0014065579 0.088971004
0003f0 d0 2c d8 bc 0d b1 4c 3d d0 c9 c6 bd 03 3b 02 be
       -0.026388556 0.049973536 -0.097064614 -0.12717824

network_body._body_endoder.seq_layers.0.bias f4 [128]
000000 f6 35 cd bb 5f 64 68 3b 69 84 79 3c 4e df f5 3b
       -0.006262536 0.0035460216 0.015229323 0.0075034266
000010 9d 8b c3 bc ac e3 a3 3c 2b 97 cf bc e8 5c 07 bd
       -0.023870284 0.020006023 -0.025340637 -0.033047587
000020 6e cf 90 bb 78 f9 ad bc 40 49 a8 3c 51 52 0a 3b
       -0.004419259 -0.02123712 0.02054274 0.0021106193
000030 55 31 c0 3a 04 fa 2a 3c 8f a1 88 bb 0b cf 79 3c
       0.001466314 0.010435585 -0.00416965 0.015247117
000040 61 14 01 bc 39 b1 e4 bb 93 26 49 b9 0a af bf 3b
       -0.007878394 -0.0069791344 -0.00019183224 0.0058497237
000050 27 7a ba 3a 64 35 5b 3c e8 a7 0a 3d f8 89 c3 3c
       0.0014227078 0.013379429 0.033851534 0.0238695
000060 84 93 1f 3c 94 c2 39 3c 23 9b d2 3c cb bf e5 3b
       0.00973976 0.011337895 0.02570874 0.007011389
000070 45 bf 1d 3c 27 2d 5a 3b bc df e0 bc 65 06 ab bc
       0.009628122 0.0033291073 -0.027450435 -0.020877073
000080 f9 13 9d bc 99 02 51 3c 6a 79 b0 3c 24 f1 ae 3c
       -0.019174563 0.012756967 0.02154227 0.02135522
000090 fa d5 e2 3b 76 44 24 bc b0 2a 74 3c 85 66 80 3c
       0.0069224807 -0.010026088 0.014902756 0.015673885
0000a0 4f f5 8b bb cd 9d 16 bd d3 6f ad bc 43 a6 a0 3b
       -0.0042711864 -0.036771584 -0.021171486 0.0049026324
0000b0 df ac 3f bb 84 53 dd 3b c1 24 0d bc 06 59 82 3c
       -0.0029247326 0.0067543406 -0.00861472 0.01591159
0000c0 45 58 cd 3b 69 a2 95 bb 8b 47 5d bc 9f a6 a4 bc
       0.006266626 -0.00456648 -0.013505827 -0.020098982
0000d0 40 f9 85 bc 41 2e ba 3c 36 fa 8d 3c 52 6e 0b 3c
       -0.016354203 0.022727134 0.017331224 0.008510189
0000e0 c5 78 c3 bb 4f 95 26 bd 01 82 89 3c 78 ed f5 3c
       -0.0059653246 -0.040669736 0.016785624 0.03002046
0000f0 e1 f8 56 3c 29 04 3b 3c a3 07 bd 3c 1d 9f 8a 3c
       0.013120861 0.011414566 0.02307493 0.016921574
000100 01 17 f4 3c 93 3b 53 bb 86 41 8d 3c fa 7c 62 3c
       0.029796125 -0.0032231554 0.017243158 0.013823742
000110 fe d7 d2 3c 07 74 43 3c cf bd 16 3c b4 43 83 3c
       0.025737759 0.011929519 0.009200527 0.016023494
000120 e3 53 1d 3c 44 cd ab 3c b8 76 f3 3b b6 f5 a3 3c
       0.00960252 0.020971902 0.007429924 0.020014625
000130 23 61 aa 3c 5c fa df bb 6f ee e7 3b a6 fb 19 bc
       0.020798272 -0.006835265 0.007077984 -0.009398377
000140 b2 a6 29 3c e1 1b 90 3c 64 14 4a 3c ba 37 a1 bb
       0.010354685 0.017591419 0.012333963 -0.004919973
000150 5e bf 2b 3c 26 4a 92 3c 2c 33 2c 3c d1 a3 70 bb
       0.010482637 0.017857622 0.010510247 -0.0036718736
000160 4b 6a c5 3c ff d4 fc 3a b5 7b ab 3c 89 74 8a 3c
       0.024098536 0.0019289552 0.020933012 0.016901271
000170 89 e0 1d 3c 8a 51 b7 3b 4a 6c 16 3c a5 3d b2 bc
       0.009636053 0.005594437 0.009181092 -0.02175791
000180 3b 9e 99 3b c6 dc cd 3c c9 64 53 3c 27 db dc 3c
       0.004688052 0.025129687 0.012902447 0.026959969
000190 4b 39 f7 ba 72 e6 4c 3c 3e aa d4 bb 2b 22 72 3c
       -0.0018861679 0.012506114 -0.006490021 0.014778654
0001a0 da b3 0b bc bb da 17 3a b3 a9 ba 3c d1 4b 3b bc
       -0.008526767 0.0005792786 0.022785997 -0.01143165
0001b0 b5 b7 a9 3c a8 34 c7 3b 5e 8b 92 3c 96 0b 95 3c
       0.020717481 0.006079275 0.017888721 0.018194001
0001c0 27 98 cf bb 2f 89 27 bd f7 7d 3d 3c 22 28 94 3b
       -0.0063352766 -0.040902313 0.011565677 0.0045213858
0001d0 5b 11 3b bd bd de eb 3c 23 53 42 bc 3c 6c f0 3c
       -0.04567085 0.028792733 -0.011860642 0.029348485
0001e0 dd 37 5f 3b c9 4b 96 3b 52 f7 0b bc 90 0b c0 3c
       0.0034060397 0.004586671 -0.0085428525 0.023443013
0001f0 26 ee 7a 3c 85 97 34 3c d5 0c 00 3d 7e 07 6b 3c
       0.015315568 0.011022453 0.031262238 0.014345048

network_body._body_endoder.seq_layers.0.weight f4 [128, 373]
000000 7e 1b c4 bd e9 37 e3 3c 89 88 3f 3d 28 fe ab 3d
       -0.09575556 0.027736621 0.04676107 0.08398086
000010 2f 1d 03 be a9 7a ae 3c 01 74 0f 3c c4 ed c6 3d
       -0.12804101 0.021298723 0.008755685 0.09713319
000020 f8 c4 80 bb 7b fe 4f 3d 1b a6 99 bd 3c 73 77 3d
       -0.0039297305 0.0507798 -0.07502385 0.06041263
000030 64 9f c7 3b b1 84 57 3d 3a c6 91 3d dc 48 9f 3c
       0.006091999 0.05261678 0.07117887 0.019443922
000040 75 86 01 be fe 8e fd bc 56 76 07 3d d1 0a 23 3d
       -0.12648948 -0.030951973 0.03307184 0.039805237
000050 26 b4 9d bc 50 ac 44 3d f8 89 8d 3c f1 8f 69 3d
       -0.01925094 0.048015893 0.017277703 0.05702204
000060 a9 6c 03 be b8 67 48 3d 3e 99 10 3d d2 27 6e 3d
       -0.1283442 0.04892704 0.035302393 0.058143444
000070 e1 0b c4 bd 2a f0 9c 3c b4 28 66 3c b8 66 70 bc
       -0.09572578 0.019157488 0.01404779 -0.014672928
000080 2b fa ce bd a7 88 5a 3d af f5 51 bb 0e c1 2e 3b
       -0.101063095 0.053352978 -0.0032037308 0.0026665363
000090 98 56 c3 bd fe ca e5 bb 9d a7 9e bb 6c e9 97 bd
       -0.09538001 -0.007012724 -0.0048417584 -0.074175686
0000a0 83 be 85 3e 52 81 5c be 8f d3 2e 3d c1 ac aa 3c
       0.2612191 -0.21533707 0.042682227 0.020834329
0000b0 51 72 cf 3b 28 f2 8b bd b2 de d2 bb 99 d8 13 3d
       0.0063307662 -0.06833297 -0.0064352388 0.036095235
0000c0 2d ff ca 3e 47 3f 5c be 6a 11 16 bd be 42 97 bd
       0.3964781 -0.21508513 -0.0366377 -0.07385777
0000d0 3d b6 a5 3c a8 09 cd 3d 90 f1 70 3d 3d 10 b3 3d
       0.0202285 0.100116074 0.058824122 0.087433316
0000e0 8d 1f ad 3e ac ef fa bd c0 1b 3f bc 52 10 ed bd
       0.33813134 -0.12252745 -0.011664331 -0.115753785
0000f0 e5 b5 c5 bd 39 ea 5e 3c ee ef 10 3d 7c 0e b9 3d
       -0.09653834 0.013605648 0.035385065 0.09035966
000100 98 eb 55 3e d5 6d 8e bd 14 3f a7 bc a0 82 16 bd
       0.20890653 -0.069545425 -0.02041582 -0.036745667
000110 09 59 98 bd 9a 2a bf 3d bd d4 31 3d 0e 09 8e 3d
       -0.07438857 0.093342975 0.043415774 0.06935321
000120 4e b3 24 3e 60 a9 3c bd 2b 1a 70 3d 2f 15 b0 3c
       0.16084024 -0.046059966 0.058618706 0.021494476
000130 56 03 c6 bc 7e 71 32 bc c1 d0 a0 3c 6f 47 10 3e
       -0.024171513 -0.010891316 0.019630792 0.1408975
000140 be bb 8b 3d 7a 56 8e bc 6a 47 03 3d a5 cd 87 3d
       0.06822918 -0.01737522 0.032050528 0.066310205
000150 c0 2b 8d 3c 89 b6 b2 bb 83 60 c6 bc 3f 67 1c 3c
       0.017232776 -0.005453889 -0.024215942 0.0095461
000160 79 c1 02 3e 49 b6 8b bd 23 ac 64 3d 68 41 20 bc
       0.12769116 -0.068218775 0.055828225 -0.009781219
000170 cf 3e 0e bd 01 b9 78 bc 9a 52 59 bd 34 c2 88 3c
       -0.034727868 -0.015180827 -0.05305729 0.016694166
000180 4b 2a 41 3e f1 06 8a bd 8c b5 a3 bd b3 4b 33 39
       0.1886379 -0.06739605 -0.07993612 0.0001709897
000190 05 ec 13 bd 1f 9a 89 3d ce 38 17 3c 06 5e a8 3c
       -0.036113758 0.067188494 0.009229852 0.020552646
0001a0 df ef 37 3d f8 08 e8 bd ea 37 61 3d dd 0b 80 3d
       0.044906493 -0.11329836 0.054984964 0.06252263
0001b0 85 2d e9 3c c1 2e 9d bd 64 a3 f9 3c 0e 5a 9a bc
       0.028464088 -0.07674933 0.030473419 -0.01884177
0001c0 91 09 26 3d 78 38 e4 3c 8e 9e c0 3d 8c aa 04 bd
       0.040536467 0.027858958 0.09405242 -0.03238921
0001d0 06 2c c2 bd dd be 6c 3d 5b 36 3a bd df 26 12 bb
       -0.09481053 0.05779921 -0.045461994 -0.0022301
0001e0 aa 75 3e 3d 2b e3 e7 3a d7 b6 29 3d d5 d2 ba bd
       0.046498932 0.0017691603 0.041434135 -0.09122244
0001f0 7a 84 b4 bc d8 fc 9c 3d 65 d0 41 3d fa 92 f5 3b
       -0.022035826 0.076654136 0.04731788 0.0074943276
000200 af 1c d0 3c 3b 56 7c bd 6d f7 31 3d 3a 75 ad bb
       0.025404302 -0.061605673 0.043448854 -0.0052935155
000210 20 db 28 3d ae 9c 1c 3d 4d 1c c8 bc 07 43 42 bd
       0.0412246 0.03823536 -0.024427557 -0.047427204
000220 1c 8b eb 3c de de 6b bc 90 a6 7c 3b 9e 68 12 bd
       0.028752856 -0.014396397 0.0038551427 -0.035744302
000230 52 be 3b 3c 59 4a 88 bd 0c 3b e0 3c b0 41 a3 bd
       0.01145895 -0.06654806 0.027371906 -0.07971513
000240 22 7b a0 3d 3a a0 98 bc b5 1b a0 3c 8d ab 0d 3d
       0.07835986 -0.01863109 0.019544462 0.03458743
000250 01 b6 6d bd ce aa 3f 3c 4c d1 26 3d 9f 52 16 3c
       -0.0580349 0.011698438 0.040726945 0.009174972
000260 f8 43 a3 3c a5 31 f2 bd fc f1 87 3d cb 6c a2 bb
       0.019929871 -0.11825875 0.06637952 -0.004956817
000270 20 84 ee bb c5 7e 29 3d d3 c9 d9 3d 07 8b e4 bc
       -0.007278934 0.041380662 0.10634198 -0.027898325
000280 26 0c 74 bd a1 cb 16 bd ec cd be 3d 45 e1 0f bd
       -0.0595819 -0.03681529 0.0931662 -0.035126943
000290 88 7d 4d 3d 72 81 12 3d 8f 6a f6 39 f9 13 3a 3b
       0.050168544 0.03576798 0.0004700017 0.0028393252
0002a0 98 5e 7a 3d 77 72 8d 3d b1 d8 e8 3d a8 6d 35 3c
       0.061125368 0.06906598 0.113694556 0.011073507
0002b0 55 99 f2 3c 8e 90 08 3d e1 77 6e 3c 32 1c d9 bc
       0.02961413 0.033340983 0.014554949 -0.026502702
0002c0 31 3e 93 bc 6a ae ed bd a7 39 91 3d a8 ff 65 3d
       -0.017973991 -0.116055325 0.070910744 0.056152016
0002d0 98 f3 2e bd 83 98 6a bd 84 7f a5 3a 48 ef c7 3d
       -0.042712778 -0.057274353 0.0012626504 0.09762436
0002e0 1d e6 48 3a ee 7e 48 bd bf c2 13 3d f2 25 72 bd
       0.0007663684 -0.048949175 0.036074396 -0.05911822
0002f0 86 32 cd bd 6e 46 c3 3d d4 77 67 3c dc ac 14 3d
       -0.10019402 0.09534918 0.01412769 0.036297664
000300 4c 3d d1 3c bd 4e 1d be 3d 56 12 3d ec d7 14 bd
       0.025541924 -0.15362068 0.035726774 -0.03633873
000310 dc ae 25 bd 32 5b f3 3c 68 67 63 3d d3 34 08 3d
       -0.040449962 0.029706571 0.055518538 0.033253502
000320 cf 28 09 3d c4 19 bd bc 85 ed 16 3d 2b b8 57 bd
       0.033486184 -0.023083575 0.03684761 -0.05266587
000330 92 bf 7f 3c a0 cd de 3d 28 5a 4f bd d2 24 a4 bd
       0.015609639 0.108790636 -0.05062309 -0.080148354
000340 6a 59 aa 3c 28 97 3c bc 49 ba ac 3d 0f d4 55 bd
       0.02079459 -0.011510648 0.084339686 -0.052204188
000350 42 30 d5 3d 6e ba 28 bc 98 32 44 bd cf 43 35 3c
       0.10409595 -0.010298355 -0.047899812 0.01106353
000360 d7 db 12 3d 9c 0b d9 bc 0f 22 bd bc fe c3 3d 3c
       0.035854187 -0.026494794 -0.02308753 0.011582373
000370 91 62 c1 bd bc 00 21 bc e0 dd 5e bb e8 3d 1e 3d
       -0.09442628 -0.009826835 -0.003400676 0.038633257
000380 90 f7 39 3d f2 48 7e 3b 8b 57 ae 3c ea f6 df 3c
       0.04540211 0.0038800803 0.021281978 0.027339417
000390 53 1c af bd 3a 54 a1 3d b1 99 2a bc 05 ae 92 3d
       -0.08550324 0.07877393 -0.010412619 0.07162098
0003a0 54 25 e1 bc 24 5f 47 3c 0f 47 22 3d c1 5a c2 bd
       -0.02748362 0.012168679 0.039618548 -0.09489966
0003b0 63 ba 99 bd 25 50 91 bd 12 44 41 3c 75 cb 90 3d
       -0.075062536 -0.070953645 0.011796014 0.07070056
0003c0 3c 16 fe bc 76 52 63 3d 2c c3 64 bd c2 b5 0f bc
       -0.031016462 0.055498563 -0.055850193 -0.008771362
0003d0 fa 03 8a 3d 04 f6 8e 3d 58 df 0b bd 29 9d 19 bd
       0.0673904 0.069805175 -0.034148544 -0.037503395
0003e0 80 66 5e 3c 93 e5 66 3c ae 03 74 3d 4f ac 68 bd
       0.013574243 0.014092821 0.05957382 -0.05680495
0003f0 81 08 79 3d 5f a3 43 3d c9 d7 3a bc 15 98 8e 3d
       0.060799126 0.047763225 -0.011403986 0.06962601

network_body._body_endoder.seq_layers.2.bias f4 [128]
000000 9c da 18 bd 79 b5 b0 bc 88 2c 5d bc 1d eb 06 3d
       -0.037317857 -0.021570908 -0.013499387 0.032939065
000010 23 a3 39 bc 93 11 f1 ba 25 d3 62 3c c1 87 e0 3c
       -0.011330399 -0.0018392078 0.013844286 0.027408483
000020 31 6f b0 3c c9 7f 15 3d 1a 91 a2 3c db 6d 02 bd
       0.021537395 0.03649882 0.01984458 -0.031843048
000030 bd 59 38 bc bf c4 9f 3c eb 72 35 3b 4c 3e 9d bc
       -0.011251864 0.019502996 0.0027686905 -0.019194745
000040 10 18 f6 bc ec dc 88 bc ba fb 6b bc d7 9a 1a bc
       -0.03004077 -0.016706906 -0.014403278 -0.009436331
000050 a8 a0 de 3b d0 30 2b 3c 3d 58 98 3b 35 21 c4 3b
       0.006794054 0.0104486495 0.0046491907 0.005985404
000060 db 8b 2a 3c e3 d6 0e 3c 8c e1 9a 3c 0b fa 40 bc
       0.010409321 0.008718225 0.018906377 -0.011778365
000070 25 78 44 bc 9c 54 c4 3c b3 57 12 3c b5 10 c7 bc
       -0.011991535 0.023966126 0.008932042 -0.024299959
000080 6e bb 2e 3c ed c9 09 3b d7 12 7f 3b 5f d7 d4 3c
       0.010664804 0.0021024898 0.0038921142 0.025981603
000090 26 7b 8e 3c 97 9e 30 bc 06 96 7a bc e2 96 28 3b
       0.017392706 -0.010779998 -0.015294557 0.0025724699
0000a0 3a 2c 6a 3b 16 8d a4 3b 06 4f 2d 3a 8b e5 8f bc
       0.0035731927 0.0050217016 0.00066112017 -0.01756551
0000b0 61 93 0e bd 5d 28 99 3c b5 c4 3d 3d 45 ee 55 bc
       -0.03480852 0.018696005 0.046330173 -0.013057296
0000c0 49 60 31 bc f8 7a 20 3d 6c 22 99 3c cb fd fb 3c
       -0.010826179 0.039179772 0.018693171 0.030760666
0000d0 d0 41 94 bc cb 60 41 bc 55 ea df 3c fa f5 2a ba
       -0.018097788 -0.011802862 0.027333418 -0.0006521639
0000e0 1b fd 10 bb 46 3b 98 bc 84 e7 17 3c 9f 4c 61 3b
       -0.002212352 -0.018582951 0.009271506 0.0034377945
0000f0 c6 f7 09 bc 5f b2 73 3d 81 f7 0b 3c 6d e1 b6 3c
       -0.00842089 0.05949628 0.008542896 0.022324288
000100 56 84 5b 3c 3e 97 2c 3c 97 98 10 bc ec 0d e8 3a
       0.013398251 0.010534106 -0.008825443 0.0017704344
000110 93 c4 92 3c d2 e6 90 3c 4b 34 18 bc a1 a9 ad bb
       0.017916 0.017688189 -0.009289811 -0.0052997624
000120 44 32 55 3c fe 72 b8 3b 32 94 34 3b 54 59 c8 bb
       0.013012473 0.0056289425 0.0027554152 -0.0061141644
000130 d1 ad 41 3c 3d bc e2 3a df 33 03 3c b7 07 bd 3a
       0.011821226 0.0017298531 0.0080079725 0.0014421855
000140 90 a7 9c 3c 2b be 0e 3d b7 81 06 3d 71 bd 8b 3c
       0.019122869 0.034849327 0.03283855 0.017058106
000150 4b c4 5c bc 6d 04 80 3c 5b fa 1c 3d 41 e9 4b bd
       -0.013474534 0.01562711 0.038324695 -0.049782995
000160 25 ea 03 bc b0 f2 64 bc 9f a6 c8 bb 3a f4 df 3c
       -0.00805143 -0.013973877 -0.0061233784 0.027338136
000170 84 f7 02 3d d2 9c b7 3b bf 5f 14 bc 41 00 08 3d
       0.03197433 0.0056034112 -0.009056031 0.033203367
000180 10 fe a7 3b f5 9e 65 ba bd 22 94 bc 67 4d ef ba
       0.005126722 -0.0008759343 -0.01808297 -0.0018257321
000190 d6 60 58 bc 06 ed 6e 3b 4c b7 47 3b c3 d9 76 bb
       -0.013206681 0.0036457195 0.0030474244 -0.0037666417
0001a0 77 8b 09 3c 77 86 11 3d 77 d6 b1 3c ac 09 77 bc
       0.008395067 0.035528626 0.02170871 -0.01507799
0001b0 bf 02 59 3b 0d af f6 3c 35 78 8f 3c 57 19 3b 3c
       0.003311321 0.030112768 0.017513374 0.011419616
0001c0 05 70 86 bc 2a 4b ea bc 1e d8 4d bc 96 da c5 bc
       -0.016410837 -0.028600294 -0.012563733 -0.024152081
0001d0 12 ed e4 3b c8 b7 eb bc 9b 5c 3d bc 9b a7 1e 3a
       0.006986269 -0.028774157 -0.011557723 0.0006052197
0001e0 67 21 20 3c 53 c3 a8 3b 40 2f f1 bb 9d 4d 16 3d
       0.009773589 0.0051502376 -0.007360369 0.03669511
0001f0 b4 7e 8c 3c 47 29 ac 3b 2a 81 ad 3c 7e e5 36 3d
       0.01715026 0.005253944 0.021179754 0.044652455

network_body._body_endoder.seq_layers.2.weight f4 [128, 128]
000000 70 01 7d bd eb 66 c8 3c 85 26 61 bd 0d 58 c3 38
       -0.06176895 0.024463138 -0.054968376 9.314725e-05
000010 86 96 d5 bc fb a5 8a bc 66 b3 14 3e 26 08 d2 bc
       -0.026072752 -0.016924849 0.1452156 -0.025638651
000020 9c 52 2a 3e fd d2 19 be 28 4d 05 3e 18 0e c8 bd
       0.16633075 -0.15021892 0.13017714 -0.09768313
000030 db d6 02 3e ec f3 cd 3d ac 74 75 3c 0f 23 f2 bc
       0.12777273 0.1005629 0.01498143 -0.029557733
000040 b8 ad c1 3d 1d 6e 88 3d ad 09 8f bd 90 3b 46 3c
       0.09456962 0.066616274 -0.069842674 0.012099162
000050 e2 7a b6 3d 61 f8 00 be 14 51 49 3c 1b ae ed 3c
       0.08910157 -0.12594749 0.012287397 0.029013684
000060 c1 61 88 bd f3 bb 24 be 4b 3d a0 bd d6 ac 54 bd
       -0.0665927 -0.16087322 -0.07824191 -0.05192264
000070 38 71 74 be 5b 5f 36 3d 8c a6 cc 3d e6 3f 40 3d
       -0.23871315 0.04452453 0.09992704 0.04693594
000080 dd 81 33 bd f2 d8 2a be 55 a3 da bc 76 fb a4 bd
       -0.04382502 -0.1668432 -0.02668921 -0.08055775
000090 e2 92 60 bc 5a b3 21 bc 15 a8 a9 bd 99 ac 25 be
       -0.013706895 -0.009869421 -0.08284012 -0.16179122
0000a0 cc cf aa bd 52 b0 77 bd 15 f0 a8 3c 19 81 bb bd
       -0.08340415 -0.060470887 0.020622293 -0.09155483
0000b0 75 23 83 3b 8c f5 cd 3d b4 e3 04 3e 34 22 aa 3d
       0.0040020295 0.100566 0.12977487 0.08307305
0000c0 d5 b3 0e b8 48 75 39 3d dd 02 7d bd ca cc 96 3d
       -3.402292e-05 0.045277864 -0.06177031 0.07363279
0000d0 93 a5 3a 3e e3 6a 1d be 4c 9a 04 be 00 ce f0 3d
       0.18227224 -0.15372805 -0.12949485 0.117580414
0000e0 47 97 d7 3d 25 65 8e 3d 27 6f 41 be ff d8 86 3c
       0.10526901 0.069528855 -0.18890058 0.016460894
0000f0 f3 6e 70 3d ff 82 c0 3c ac 92 59 bd 1c d2 9d bd
       0.05869956 0.023499964 -0.053118393 -0.07706091
000100 36 84 91 bd fa b6 78 3d 0f d1 88 3d 74 b0 45 bd
       -0.07105295 0.060721375 0.066805 -0.048263982
000110 30 30 df 3c 90 cc b0 bc 0d 9e d4 3d 43 c3 1f be
       0.027244657 -0.021581918 0.10381708 -0.1560183
000120 59 40 88 bd af 29 23 be 60 23 bb bd 58 cb 84 3e
       -0.06652898 -0.1593387 -0.091376066 0.2593639
000130 34 65 da bd 7c 34 60 bc 14 7e f6 bd 05 10 31 3d
       -0.10663834 -0.013684388 -0.12035766 0.043228168
000140 95 91 11 bd 64 64 c0 bc 3e fc ad 3d 12 c2 16 3d
       -0.03553923 -0.02348537 0.08495377 0.036806174
000150 5b 62 89 3c be 75 6a bd df 99 fd bd 12 78 37 bc
       0.016770532 -0.057241194 -0.12382864 -0.011198061
000160 97 5d d3 3d 35 0b 2a bd 66 85 e9 bd 97 f9 c3 bd
       0.10320585 -0.041514594 -0.11402397 -0.0956909
000170 1a 69 6f bc de 57 f7 bc cc ae c6 bd 67 18 8c bd
       -0.0146124605 -0.030193266 -0.097013086 -0.06840592
000180 40 88 26 3e 7d c4 74 bd c1 9e 85 bd cd f1 c4 3d
       0.16262913 -0.0597577 -0.065244205 0.09616432
000190 44 f7 7e be d4 39 86 bb c3 dc a6 bd 85 ca b7 3b
       -0.24899012 -0.004096249 -0.08147576 0.005608859
0001a0 49 c6 e8 bb b7 10 1e 3b a2 ae b3 bd 5c b2 99 bd
       -0.0071037156 0.002411885 -0.08773543 -0.075047225
0001b0 ab f3 93 3c bf a1 1f be 13 2f e1 3d 6c 39 87 bd
       0.018060526 -0.15589045 0.10995307 -0.06602749
0001c0 2f 3b f2 bc 1b 2f e3 bc 22 73 6e bd c3 bf 7f bd
       -0.029569237 -0.027732423 -0.058215268 -0.062438738
0001d0 b9 cd b3 bd 55 b9 8d 3c ee 75 f2 bd b7 f7 b4 3c
       -0.08779473 0.017300287 -0.118388996 0.022090776
0001e0 7b 78 88 3b 3f bc 88 39 f3 a7 db bd 6a 05 95 3c
       0.004164753 0.00026080196 -0.10725393 0.018191058
0001f0 78 75 00 be b0 2c ba 3d df da 6d bd 4f aa f8 bb
       -0.12544811 0.09090555 -0.05807006 -0.0075886617
000200 7c 16 bf bc 50 8a ea 3c 48 a1 13 be 85 26 ee bc
       -0.023326151 0.028630406 -0.14416993 -0.029071102
000210 9e 1e 30 3d ed b2 58 be 47 ef a1 3a 85 ea a8 3c
       0.04299795 -0.21162005 0.0012354635 0.02061964
000220 ba f5 59 3d 12 11 85 3d a7 a5 00 bd 97 44 e9 3d
       0.05321286 0.064973965 -0.03140798 0.113900356
000230 ac 81 de bd 5e b1 74 bd f1 14 8f 3d c2 08 25 3d
       -0.10864577 -0.059739463 0.06986416 0.040291555
000240 b9 ef c3 3b 12 7f 98 bc 0d ca 85 bc 7c 95 03 3c
       0.005979505 -0.01861528 -0.016331697 0.008031245
000250 ef 29 17 be 7c 2b 60 3c e0 a5 59 3d 7d 34 86 bd
       -0.1476209 0.0136822425 0.053136706 -0.0655298
000260 c5 33 d0 3c 8e 0d 7b bc 92 8c b1 bd 0e 5e 2d bd
       0.02541531 -0.015323056 -0.0866939 -0.042326026
000270 64 8c 05 3d 8c 57 bf 3d 3f 2a 4d bd 8e 09 91 3d
       0.03260459 0.0934287 -0.050089117 0.070819005
000280 12 eb a5 bd 54 a6 b7 bb b5 36 52 bd ea b8 27 be
       -0.08101477 -0.0056045447 -0.051321704 -0.16379133
000290 e8 de bb bd f7 05 ef bd 62 33 2b bd 8f 02 20 bc
       -0.09173375 -0.116710596 -0.04179705 -0.009766235
0002a0 b2 49 6b bd 41 b3 71 3d 5c 2a 83 3d 13 93 ea 3d
       -0.05744333 0.05900884 0.06404564 0.114538334
0002b0 65 8f ac bd 8a 5a 4d be 62 0f 45 3d ac d4 2d be
       -0.08425788 -0.20054069 0.048110373 -0.16975659
0002c0 54 3d be 3b 0e 82 7a bd b1 06 85 3d be 4a d1 3d
       0.0058056507 -0.061159186 0.06495417 0.10219334
0002d0 db 9c ed 3d 66 5b fa bd 90 17 20 3e de 28 26 be
       0.116021834 -0.12224464 0.15633988 -0.16226527
0002e0 8d c2 f8 3c ec e5 70 3d dd 89 29 3e 79 bc b3 bd
       0.030366207 0.05881302 0.16556497 -0.08776183
0002f0 bc 38 e9 bc d4 78 78 bc 76 2f 00 3e 26 f7 99 bb
       -0.028469436 -0.015165526 0.12518105 -0.004698652
000300 ba f0 70 3d 67 31 a4 bd df b0 2f bd 86 f8 60 bc
       0.058823325 -0.08017235 -0.042893287 -0.013731128
000310 dd 7e a5 bc f7 19 ad 3d b1 1d 39 3d f6 4e 4f 3d
       -0.020202095 0.08452218 0.04519433 0.050612412
000320 4c c6 e3 bb 64 69 66 bd 77 fe 4a be 51 f1 f5 bd
       -0.006951129 -0.056252852 -0.19823633 -0.12008918
000330 e9 d2 ea bd 0b a0 6c bd cd f3 1b be c7 ed 1f 3d
       -0.11466009 -0.057769816 -0.15229721 0.03904512
000340 f4 06 5a 3d 5b 90 2c 3e 7a 9c 2c bc 53 8c 48 3c
       0.053229287 0.16851942 -0.010535354 0.012240487
000350 e7 3a 82 3d 7e 77 ba bd e8 9c 0f 3d 40 bf 04 3d
       0.06358891 -0.091048226 0.035061747 0.032408953
000360 1e 2f e0 bc 02 7d 28 3d 4e ba 6f 3e 6e 48 97 3a
       -0.027366217 0.04113484 0.23410913 0.0011541971
000370 95 22 92 3c 7c 9c 86 3d 85 b8 04 be 5a 20 b8 3d
       0.017838756 0.06572816 -0.12961014 0.089905456
000380 7e 3b 2e 3e f8 22 13 3d 8a cb d2 bd 54 39 86 3c
       0.17014882 0.03592202 -0.10292728 0.016384758
000390 5a 0e 8b bb 92 58 76 bd 7a 27 ec 3b 1e d3 e1 3d
       -0.004243654 -0.06014306 0.0072068544 0.110265955
0003a0 a7 a9 cd bc 4b c0 da bc 20 19 92 3c af d4 b0 bd
       -0.02510531 -0.02670302 0.017834246 -0.08634316
0003b0 f5 52 11 be 99 40 38 3d 54 40 b1 3d 70 c0 6b 3d
       -0.14191802 0.04498348 0.08654848 0.05755657
0003c0 76 96 50 be c5 08 8b bb 94 8b 56 3e 1b 79 ae bd
       -0.20369896 -0.004242989 0.20951682 -0.08519193
0003d0 98 31 32 39 50 ff b6 bb bd 78 be bc 3d 70 2c 3c
       0.00016993878 -0.005584635 -0.023250932 0.010524807
0003e0 90 62 13 be 77 0d 31 bd 18 d0 51 bd 6c f9 f5 bd
       -0.14393067 -0.04322573 -0.051223844 -0.12010464
0003f0 68 28 30 be 53 9d b0 bd 0f 02 42 3d c9 58 3e 3e
       -0.17202914 -0.08623757 0.047365244 0.18588556
