FPS AI/results/1/FPS Agent/FPS Agent-1744982.onnx (onnx, 263358 bytes, 9 tensors)

action_model._continuous_distribution.log_sigma f4 [1, 3]
-0.1831041 -0.031308964 -0.18266578
00000000: a47f 3bbe d43d 00bd bd0c 3bbe

action_model._continuous_distribution.mu.bias f4 [3]
0.011589931 -0.019366916 0.02409222
00000000: b2e3 3d3c 5ea7 9ebc 0c5d c53c

action_model._continuous_distribution.mu.weight f4 [3, 128]
0.029596852 -0.007164179 0.025251584 0.017833583 -0.0026447661 -0.023115188 0.020547343 0.008277358
-0.0208664 -0.07057107 0.0068247775 0.026933396 -0.028864354 -0.0057233055 -0.03161037 0.0059958426
-0.0065958826 0.07345732 -0.015838366 -0.008139382 0.028223304 0.035015598 0.008695392 0.04037019
0.03265764 -0.010544257 0.015048123 0.0064839553 -0.024389055 0.049959056 0.006914377 0.0071848393
0.013467592 0.021837328 0.05491637 -0.020543095 0.026907401 -0.019922378 -0.012294996 -0.016474385
-0.014370176 -0.032220844 -0.0019501835 -0.031093836 -0.007752279 -0.017779581 0.037177056 0.02706541
0.014065295 0.00042613602 -0.035063777 0.018013572 -0.001992485 0.016210852 -0.05038908 -0.014147664
0.044651784 -0.0021392333 -0.023933616 0.020688623 -0.044934854 -0.02463467 -0.0129753295 0.01730124
-0.018181514 -0.015971726 -0.0028288863 -0.031238781 0.008849337 0.013025341 -0.011065754 -0.034571595
0.006222608 -0.004143508 0.0047233286 -0.04650909 -0.06702894 -0.013884087 -0.0034997324 -0.05848022
-0.0013479498 0.006239523 0.014380307 0.0063994513 -0.008841613 0.05794918 0.004159416 -0.0010874465
-0.013291066 -0.016138596 -0.03058635 0.026832312 0.041475076 0.020774413 -0.006179109 0.019490141
-0.01326619 -0.055975407 -0.0014763701 0.013369805 0.015054622 -0.0047601927 -0.023404006 0.032871105
-0.02925092 0.04460059 -0.03000785 -0.020936348 -0.02728302 0.035217997 -0.05049573 -0.03493449
-0.023389274 0.040658057 -0.020248985 0.009062312 0.015465356 -0.02789147 -0.02191102 -0.029434578
-0.034230836 -0.0073993444 -0.024077062 -0.01374236 -0.00901463 -0.024360685 0.00036388336 0.015900904
0.0018638739 0.004480023 0.016381668 0.0006141185 0.024578411 -0.015934918 -0.0046095056 -0.017381107
0.023062583 0.017326249 -0.01258052 0.020817637 0.03835572 -0.021747256 0.09750507 0.00879072
0.013761471 -0.044825435 0.0108107375 0.01737154 0.021933112 0.021810867 0.010375666 0.0026550782
-0.016570248 -0.0009480774 0.016838329 8.0540514e-05 0.017237172 -0.025675893 0.009295293 0.0258801
-0.0014558196 -0.004632339 -0.023267724 -0.048585113 0.013353678 -0.019576745 -0.00210955 -0.026347283
-0.004703104 0.010389413 -0.022804525 0.00568873 0.014022583 -0.030777223 0.022763137 -0.014440701
0.016648473 -0.005052416 -0.0037121163 -0.016546618 -0.009821778 0.008597175 0.0041771564 -0.023547027
-0.0050036255 0.0032540443 -0.056923725 0.08455142 0.028648894 0.08041607 -0.014822343 0.023674881
0.04982271 0.026407136 -0.00976066 -0.007866992 -0.065952174 -0.01751949 0.023204071 0.023700822
0.0075975046 0.027429407 0.01265263 0.00714818 0.035755534 0.018143041 0.02279255 -0.0003873253
0.07322628 0.02493049 0.0046112696 -0.010049768 0.018295428 -0.004858041 0.07311507 0.041503593
-0.024647424 0.008194665 -0.021879805 0.030283885 0.114685625 -0.025286263 0.0092251785 -0.026583135
-0.031021371 0.0221305 -0.0030761482 -0.009359213 -0.0074174353 -0.0015111268 -0.011372048 -0.0023440379
0.009288954 -0.01713179 0.002297036 0.03284317 0.004724236 -0.029742397 0.026874376 -0.0016766853
0.038561434 0.064683974 -0.020994341 0.01717624 -0.021608077 0.01611544 0.021969996 0.006250602
-0.0014639562 0.009156356 0.017682428 -0.000848888 -0.04169012 -0.006720856 -0.0013505426 -0.008407311
00000000: 1975 f23c 7dc1 eabb 69dc ce3c bc17 923c
00000010: d053 2dbb 105c bdbc e752 a83c c19d 073c
00000020: 03f0 aabc 9187 90bd 62a2 df3b 6da3 dc3c
00000030: f074 ecbc 918a bbbb e079 01bd c678 c43b
00000040: 4622 d8bb cb70 963d 76bf 81bc 0b5b 05bc
00000050: 8f34 e73c 846c 0f3d 1e77 0e3c 365b 253d
00000060: 04c4 053d d2c1 2cbc 678c 763c 5c77 d43b
00000070: 8ecb c7bc dea1 4c3d 0092 e23b cd6e eb3b
00000080: 2da7 5c3c 32e4 b23c fdef 603d fe49 a8bc
00000090: e96c dc3c 4134 a3bc f370 49bc 4af5 86bc
000000a0: e370 6bbc 01fa 03bd 4d9d ffba 80b8 febc
000000b0: d406 febb 7ca6 91bc f846 183d 47b8 dd3c
000000c0: 2072 663c 026b df39 099f 0fbd 3391 933c
000000d0: 5a94 02bb 9fcc 843c c864 4ebd 9bcb 67bc
000000e0: cae4 363d 6132 0cbb 6e10 c4bc 307b a93c
000000f0: 9c0d 38bd a6ce c9bc 7a96 54bc 54bb 8d3c
00000100: 66f1 94bc 23d7 82bc d664 39bb 79e8 ffbc
00000110: cffc 103c 3d68 553c 234d 35bc f29a 0dbd
00000120: 05e7 cb3b 44c6 87bb 27c6 9a3b 5180 3ebd
00000130: 7846 89bd 157a 63bc c45b 65bb f588 6fbd
00000140: b1ad b0ba ea74 cc3b 619b 6b3c 7db2 d13b
00000150: 6adc 10bc 1f5c 6d3d b64b 883b a688 8eba
00000160: c5c2 59bc 1735 84bc 3a90 fabc 70cf db3c
00000170: c5e1 293d 1a2f aa3c 207a cabb caa9 9f3c
00000180: 6f5a 59bc 7846 65bd c382 c1ba 070d 5b3c
00000190: a9a7 763c 64fb 9bbb c2b9 bfbc daa3 063d
000001a0: a09f efbc 1caf 363d 06d3 f5bc b482 abbc
000001b0: a480 dfbc bf40 103d 9cd4 4ebd 7817 0fbd
000001c0: dd9a bfbc 1089 263d 33e1 a5bc 177a 143c
000001d0: 6862 7d3c a77c e4bc bd7e b3bc c920 f1bc
000001e0: a235 0cbd 3376 f2bb 423d c5bc a327 61bc
000001f0: 19b2 13bc 0f90 c7bc 99c7 be39 9d42 823c
00000200: 3b4d f43a 28cd 923b d932 863c cbfc 203a
00000210: aa58 c93c f289 82bc 560b 97bb d362 8ebc
00000220: beed bc3c c7ef 8d3c 861e 4ebc c089 aa3c
00000230: e31a 1d3d 4d27 b2bc bdb0 c73d f406 103c
00000240: cb77 613c e09a 37bd 851f 313c c34e 8e3c
00000250: 12ad b33c b4ac b23c b3fe 293c d200 2e3b
00000260: 54be 87bc 6688 78ba 89f0 893c dce7 a838
00000270: f834 8d3c 4056 d2bc 494b 183c 8102 d43c
00000280: 33d1 beba e0ca 97bb f49b bebc 2f01 47bd
00000290: 63c9 5a3c 695f a0bc 6040 0abb 42d6 d7bc
000002a0: 7f1c 9abb 5b38 2a3c 8ed0 babc 8768 ba3b
000002b0: fabe 653c 8420 fcbc c279 ba3c b198 6cbc
000002c0: 6162 883c bd8e a5bb fa46 73bb c68c 87bc
000002d0: 86eb 20bc 2adb 0c3c 87e0 883b b2e5 c0bc
000002e0: 74f5 a3bb ce41 553b da28 69bd 4b29 ad3d
000002f0: 16b1 ea3c 2eb1 a43d 6ad9 72bc d3f1 c13c
00000300: e612 4c3d c753 d83c 2deb 1fbc 8ee4 00bc
00000310: ef11 87bd 0985 8fbc 7716 be3c 3a28 c23c
00000320: 7df4 f83b a3b3 e03c fa4c 4f3c 483b ea3b
00000330: 6574 123d b7a0 943c 71b7 ba3c ec11 cbb9
00000340: a9f7 953d 073b cc3c 221a 973b c8a7 24bc
00000350: 4be0 953c 3430 9fbb 5bbd 953d acff 293d
00000360: 65e9 c9bc eb42 063c 473d b3bc e915 f83c
00000370: 4ce0 ea3d 2325 cfbc 3425 173c e0c4 d9bc
00000380: 8820 febc 064b b53c 3499 49bb 6257 19bc
00000390: f50d f3bb 0011 c6ba d451 3abc 6e9e 19bb
000003a0: b230 183c f857 8cbc de89 163b 8f86 063d
000003b0: c4cd 9a3b 54a6 f3bc a727 dc3c 39c4 dbba
000003c0: 98f2 1d3d 0879 843d 53fc abbc 30b5 8c3c
000003d0: 6c03 b1bc 8704 843c 6cfa b33c dad1 cc3b
000003e0: 38e2 bfba 8a04 163c bdda 903c e987 5eba
000003f0: 42c3 2abd a03a dcbb b104 b1ba d1be 09bc

action_model._discrete_distribution.branches.0.bias f4 [2]
0.006297927 -0.006297934
00000000: d75e ce3b e65e cebb

action_model._discrete_distribution.branches.0.weight f4 [2, 128]
0.009437144 0.0046584243 -0.017685898 0.06956703 0.0054361895 0.0021537745 0.036112208 -0.04543946
-0.09197895 -0.040988166 0.014646109 -0.0010025133 0.03485476 -0.009877867 -0.013876455 -0.02720227
0.013173255 0.024478782 -0.011575365 -0.022047844 -0.043096602 -0.026705917 0.02063057 0.054368958
0.042219024 -0.013269118 -0.010589131 -0.02018894 0.01921331 0.012660678 -0.008438683 -0.0032331508
0.09855851 0.045448672 0.05872158 0.013071187 -0.016797757 0.0130026955 -0.0110118035 0.00433103
0.012722579 -0.038867373 -0.025662214 -0.0154429795 -0.013817375 -0.015329119 -0.03334678 -0.007937087
-0.020552332 -0.04861548 0.057686552 0.01335354 0.0036918405 0.03911784 -0.0021073974 0.0071044606
0.05423376 -0.016863976 0.011345934 0.010075908 -0.0060137413 0.00786618 0.010696824 -0.035623483
0.035645463 -0.014067797 0.025085604 -0.014690968 0.04512681 0.018125305 0.026798297 -0.015375737
-0.0013728967 -0.0023081969 0.0023005619 -0.016114619 0.033529397 0.0051072743 -0.020022193 0.041391753
-0.044641376 -0.09775214 0.003358354 0.08436946 -0.006695877 0.09322646 -0.102820545 0.006776879
-0.00055326533 -0.02789552 0.002349881 -0.05321508 -0.033825047 0.0023355836 0.010474799 0.045068722
0.05015579 -0.060997285 0.009146739 -0.040916435 0.025274018 0.023705306 0.040425844 -0.00036741383
-0.017099762 -0.025326936 0.045504406 0.003904066 0.0012662122 0.102530725 0.0464621 -0.02455465
0.0066125016 -0.016457928 0.002855814 0.00026423577 -0.016144346 0.0385496 0.050752174 -0.02755727
0.06952309 0.0622477 -0.010902553 -0.08526061 0.042826068 -0.01778205 0.072048515 0.07764644
0.008448309 -0.0052608238 0.019680928 -0.07372291 0.0035566126 -0.019007562 -0.044589743 0.031190392
0.10552204 0.033689052 -0.0477597 -0.002101306 -0.021724276 0.008823727 8.575208e-05 0.043325387
-0.013033055 -0.025963299 -0.0118097225 0.03203586 0.05165253 0.033524446 -0.0014279967 -0.051682297
-0.034729123 -0.0058638034 0.02820808 0.0372853 -0.017071296 -0.019012608 0.003262203 -0.007423337
-0.10462093 -0.045680605 -0.034235016 -0.026983634 0.011215373 -0.016116232 0.019149099 0.012354881
-0.007078276 0.04087532 -0.002780286 0.036921315 0.009534626 0.018462772 0.057349533 0.003428069
0.03432712 0.053915404 -0.05845732 -0.031101266 0.00046279488 -0.02737597 -0.017984651 -0.008008257
-0.057310194 0.015171547 0.011656149 -0.0075768162 -0.020753628 0.020316374 -0.025780583 0.045357462
-0.0075353086 0.0031578417 -0.004218828 0.0061522042 -0.04950668 -0.04041455 -0.015245402 0.023692157
0.0055131274 0.0027150044 -0.0008807217 0.01697151 -0.010833766 -0.026192116 0.033142988 -0.050109282
0.04800883 0.121968776 -0.029207809 -0.08018131 -0.008075581 -0.08393142 0.11086729 -0.0103374235
-0.0031558177 0.023448179 0.0013578733 0.048845563 0.033818666 0.010794672 -0.03055133 -0.032877006
-0.04921801 0.05758069 -0.0011832125 0.030357897 -0.030722274 -0.04300409 -0.0577617 0.016736997
0.0315828 0.038124092 -0.037596714 -0.0028557382 0.009875807 -0.0970885 -0.056943275 0.01614366
0.0028736752 0.008901844 -0.0132543985 -0.009074736 0.0032638193 -0.03826356 -0.054076377 0.041312955
-0.05967035 -0.047743194 -0.0051291636 0.09142755 -0.035269573 0.020486709 -0.07505388 -0.087079994
00000000: 409e 1a3c b2a5 983b 04e2 90bc 2979 8e3d
00000010: 1022 b23b 5726 0d3b 65ea 133d ba1e 3abd
00000020: 765f bcbd 35e3 27bd 3cf6 6f3c c466 83ba
00000030: ddc3 0e3d c7d6 21bc 125a 63bc 4cd7 debc
00000040: a3d4 573c ba87 c83c 9aa6 3dbc ae9d b4bc
00000050: 1086 30bd 5ec6 dabc 7101 a93c fcb1 5e3d
00000060: dbed 2c3d b766 59bc 097e 2dbc 4763 a5bc
00000070: 3b65 9d3c bb6e 4f3c 6742 0abc 45e3 53bb
00000080: 0bd9 c93d 6328 3a3d 0a86 703d 8828 563c
00000090: 739b 89bc 4209 553c da6a 34bc 50eb 8d3b
000000a0: 5d72 503c 6533 1fbd 9039 d2bc 8d04 7dbc
000000b0: 4562 62bc fc26 7bbc a296 08bd 8e0a 02bc
000000c0: 5d5d a8bc 0721 47bd bc48 6c3d cec8 5a3c
000000d0: cef2 713b 073a 203d 431c 0abb 89cc e83b
000000e0: 3824 5e3d 5226 8abc 4ce4 393c 6c15 253c
000000f0: eb0e c5bb 26e1 003c bb41 2f3c eee9 11bd
00000100: fa00 123d 9e7c 66bc 5380 cd3c 63b2 70bc
00000110: e4d6 383d 857b 943c 1a88 db3c 84ea 7bbc
00000120: c5f2 b3ba 1e45 17bb 06c5 163b ce02 84bc
00000130: 1f56 093d ec5a a73b 9505 a4bc 668a 293d
00000140: e0d9 36bd 4632 c8bd d517 5c3b e5c9 ac3d
00000150: 1669 dbbb 84ed be3d 9493 d2bd 9510 de3b
00000160: 0209 11ba 2585 e4bc 7600 1a3b 0ef8 59bd
00000170: 228c 0abd 9710 193b 7e9e 2b3c fb99 383d
00000180: 2870 4d3d 4ad8 79bd 34dc 153c fe97 27bd
00000190: 750b cf3c a131 c23c 9295 253d 73a1 c0b9
000001a0: cd14 8cbc 6f7a cfbc d462 3a3d 5cdb 7f3b
000001b0: 08f7 a53a a1fb d13d 0b4f 3e3d d526 c9bc
000001c0: afad d83b c7d2 86bc 9c28 3b3b 2089 8a39
000001d0: 2641 84bc 2fe6 1d3d 83e1 4f3d c9bf e1bc
000001e0: 1f62 8e3d 72f7 7e3d 9fa0 32bc 1d9d aebd
000001f0: 636a 2f3d a9ab 91bc 2c8e 933d 1905 9f3d
00000200: c76a 0a3c fd62 acbb e639 a13c 09fc 96bd
00000210: 0f16 693b bfb5 9bbc bca3 36bd fe82 ff3c
00000220: f01b d83d 88fd 093d ad9f 43bd 11b6 09bb
00000230: 1cf7 b1bc 6591 103c ccd5 b338 f675 313d
00000240: 9888 55bc fcb0 d4bc 917d 41bc 0938 033d
00000250: 9a91 533d ee50 093d 9e2b bbba d1b0 53bd
00000260: 2040 0ebd 2625 c0bb a214 e73c 79b8 183d
00000270: 1ad9 8bbc 54c0 9bbc afca 553b 773f f3bb
00000280: 8043 d6bd 961b 3bbd 043a 0cbd c80c ddbc
00000290: afc0 373c 3006 84bc 92de 9c3c 206c 4a3c
000002a0: e2f0 e7bb e16c 273d 7535 36bb ce3a 173d
000002b0: 1f37 1c3c 3d3f 973c 58e7 6a3d 74a9 603b
000002c0: 989a 0c3d 66d6 5c3d f170 6fbd 15c8 febc
000002d0: 47a3 f239 9243 e0bc 8c54 93bc 1035 03bc
000002e0: 18be 6abd 1592 783c 6ff9 3e3c f146 f8bb
000002f0: 8303 aabc 866e a63c cd31 d3bc bfc8 393d
00000300: c0ea f6bb cbf3 4e3b 183e 8abb 6e98 c93b
00000310: 84c7 4abd ba89 25bd dac7 79bc 0e16 c23c
00000320: 77a7 b43b 37ee 313b 3ce0 66ba d607 8b3c
00000330: 1c80 31bc d990 d6bc f1c0 073d 643f 4dbd
00000340: e8a4 443d c4ca f93d 3745 efbc 1936 a4bd
00000350: 714f 04bc 3de4 abbd 640e e33d 4c5e 29bc
00000360: d6d1 4ebb 6516 c03c abfa b13a 4912 483d
00000370: 7185 0a3d 23dc 303c c846 fabc 0aaa 06bd
00000380: d398 49bd bbd9 6b3d 0616 9bba 20b1 f83c
00000390: 47ad fbbc 0f25 30bd 8897 6cbd 071c 893c
000003a0: f75c 013d 0228 1c3d 03ff 19bd 5627 3bbb
000003b0: 23ce 213c 56d6 c6bd 5a3d 69bd b53f 843c
000003c0: 4554 3c3b 0ad9 113c fa28 59bc 34ae 14bc
000003d0: cde5 553b 40ba 1cbd 317f 5dbd c637 293d
000003e0: e668 74bd 5e8e 43bd 8b12 a8bb 5e3e bb3d
000003f0: d476 10bd bed3 a73c d9b5 99bd ff56 b2bd

network_body._body_endoder.seq_layers.0.bias f4 [128]
0.011590767 0.0042561907 0.019714111 -0.0032629443 -0.027800461 0.017024893 -0.012620459 -0.02084827
0.002697105 -0.026053157 0.020270469 -0.0032434126 0.0019290874 0.004831955 0.015203651 0.015870836
-0.018970408 0.0033442443 0.016156087 0.0054854616 -0.012609885 0.013771428 0.030366989 0.021984365
0.011253803 0.008362536 0.035858694 0.0036020526 0.0064891824 0.005616542 -0.019764846 -0.026784636
-0.010598145 -5.0372404e-05 0.022197833 0.022570685 0.0035918597 -0.013460839 0.013068855 0.013990822
-0.021191675 -0.026579078 -0.010235726 0.009524682 -0.004469875 0.01269942 -0.01075107 0.020650672
0.0029446236 -0.011677336 -0.019852668 -0.010289434 -0.02009606 0.025482638 0.016411599 0.020717923
-0.0065242145 -0.046958927 0.019880053 0.03351696 0.01198897 0.011279351 0.021184739 0.020820798
0.020895818 0.004078193 -0.016786976 -0.008165442 0.024488261 0.008633194 -0.0010245141 0.019332686
0.0024179067 0.016248388 0.0024551472 0.017488796 0.019581368 0.001353748 0.015359457 -0.008650236
-9.572523e-05 0.016463265 0.006472527 0.000526983 0.0008227877 0.017757896 0.010821734 0.0077949474
0.018451579 -0.013370988 0.028625295 0.01620295 0.017629616 0.0071861753 -0.00090864004 -0.010191076
0.006855522 0.025570448 0.010788579 0.023471963 -0.00873847 0.014966136 0.0078083924 0.006826146
0.001872113 0.007118399 0.018533783 -0.005032896 0.01623281 0.005817322 0.015115823 0.0151683055
-0.026102975 -0.026014285 0.0038555167 -0.0021963434 -0.019208498 0.031828333 0.0025762005 0.035177495
0.015318518 0.0028159784 -0.012164457 0.0343834 0.0063087535 0.012435693 0.030063547 0.013895703
00000000: 33e7 3d3c 8477 8b3b 7d7f a13c 1fd7 55bb
00000010: cbbd e3bc ca77 8b3c 0bc6 4ebc fec9 aabc
00000020: eac1 303b 6e6d d5bc 410e a63c 6f8f 54bb
00000030: 6fd9 fc3a 6055 9e3b bc18 793c 8e03 823c
00000040: d467 9bbc 1c2b 5b3b c559 843c 63bf b33b
00000050: b199 4ebc 8ea1 613c 31c4 f83c 8e18 b43c
00000060: df61 383c 0503 093c 91e0 123d 6a10 6c3b
00000070: 35a3 d43b f80a b83b e3e9 a1bc 746b dbbc
00000080: d8a3 2dbc f546 53b8 3bd8 b53c 28e6 b83c
00000090: 6865 6b3b da8a 5cbc c01e 563c c339 653c
000000a0: 2a9a adbc 5ebc d9bc bfb3 27bc 690d 1c3c
000000b0: 0778 92bb 3a11 503c 4225 30bc 992b a93c
000000c0: 96fa 403b 4c52 3fbc 10a2 a2bc 0495 28bc
000000d0: 7ea0 a4bc f7c0 d03c 9e71 863c a2b8 a93c
000000e0: 14c9 d5bb 0158 40bd 7edb a23c 1449 093d
000000f0: 636d 443c 07cd 383c 9e8b ad3c 6190 aa3c
00000100: b52d ab3c 5da2 853b d784 89bc 59c8 05bc
00000110: 9b9b c83c 3d72 0d3c fd48 86ba 955f 9e3c
00000120: be75 1e3b 571b 853c 89e6 203b aa44 8f3c
00000130: 1b69 a03c 3f70 b13a 3ba6 7b3c b8b9 0dbc
00000140: 17c0 c8b8 f8dd 863c 7e17 d43b 3b25 0a3a
00000150: 59b0 573a 0279 913c a44d 313c c26c ff3b
00000160: c427 973c fd11 5bbc 987f ea3c 0dbc 843c
00000170: fc6b 903c 027a eb3b cd31 6eba 79f8 26bc
00000180: 49a4 e03b 1e79 d13c 94c2 303c 4648 c03c
00000190: cd2b 0fbc 8634 753c 8bdd ff3b ddad df3b
000001a0: b061 f53a 7541 e93b 29d4 973c feea a4bb
000001b0: acfa 843c 3c9f be3b 5ba8 773c 7c84 783c
000001c0: e8d5 d5bc e91b d5bc d6ac 7c3b 87f0 0fbb
000001d0: 245b 9dbc 6d5e 023d 79d5 283b 4716 103d
000001e0: 85fa 7a3c 478c 383b 6e4d 47bc 9cd5 0c3d
000001f0: a9b9 ce3b 14bf 4b3c d447 f63c cdaa 633c

network_body._body_endoder.seq_layers.0.weight f4 [128, 373]
-0.057479367 0.03736933 0.035540055 0.08610632 -0.16925518 0.056521125 -0.002658022 0.105400175
0.012622012 0.069871396 -0.08617005 0.06927336 0.0009023396 0.07500823 0.05988039 0.025230004
-0.14334127 -0.0009682078 0.022168567 0.046907097 -0.008368523 0.061130438 0.00616131 0.05917536
-0.15606095 0.08344768 0.028560357 0.06260852 -0.078467086 0.030764649 0.002861609 -0.013370243
-0.038235575 0.038565934 -0.015161142 -0.0106285205 -0.07036535 0.0038571123 -0.015969297 -0.07404722
0.40965044 -0.2745377 0.028822599 0.008029222 -0.01536529 -0.041385088 -0.01778972 0.032723427
0.37854806 -0.18231556 -0.049449474 -0.07607214 0.0050282287 0.12687233 0.047508262 0.08762359
0.19493611 -0.04093524 -0.017154666 -0.09996886 -0.04042078 0.012465545 0.024195738 0.08590175
0.13545367 -0.03129267 -0.025460994 -0.032888703 -0.0124243675 0.09259197 0.03204202 0.061004657
0.09434616 -0.010532459 0.047283653 0.027922535 0.019235704 -0.00543375 0.0084351525 0.13776356
0.06276008 0.0010381195 0.0033201806 0.0690717 0.020706173 0.011488546 -0.03528642 0.011744358
0.09456872 -0.03924279 0.028460428 -0.00518502 -0.026395394 0.0052621164 -0.06417185 0.01966492
0.1671383 -0.043550085 -0.100300014 0.0037584607 -0.031212583 0.084448405 -0.0019801666 0.02152119
-0.0042182 -0.08239351 0.035613976 0.06350676 0.011937176 -0.052211713 0.0193221 -0.010419844
0.021382337 0.05445588 0.07862315 -0.030430304 -0.06649549 0.071047276 -0.056636117 0.0045602196
0.039798766 0.024281556 0.0031272126 -0.087967865 -0.01762599 0.09704113 0.03610436 0.013681057
0.04059241 -0.050026298 0.0053245686 -0.0006288565 0.07603247 0.049399413 -0.03564341 -0.047343373
0.045683015 -0.0024215884 -0.029927105 -0.0309381 0.021061825 -0.050625008 0.01619712 -0.073018774
0.07023391 0.002545129 -0.01543971 0.043467954 -0.042284656 0.027213393 0.029856198 0.014929779
-4.4712913e-05 -0.093810335 0.040384524 0.003347234 0.027653184 0.050543416 0.09560496 -0.021411547
-0.0574134 -0.020935401 0.06881763 -0.028656702 0.022947812 0.065393955 -0.010154867 0.014888789
0.08419551 0.08032641 0.087722145 0.015180294 0.041012157 0.047993314 0.00388486 -0.022062704
0.004319185 -0.10209447 0.04298041 0.058767106 -0.021966971 -0.04847326 -0.009516019 0.09942919
-0.0053862752 -0.024756948 0.021904433 -0.05120291 -0.05070327 0.09555778 0.003360613 0.03842556
0.022431226 -0.13670029 0.009572185 -0.028276205 0.012628324 0.031726252 0.044794127 0.035775587
0.036459304 -0.0036837624 -0.0069939825 -0.043449286 0.03336736 0.12086369 -0.061365496 -0.07069458
0.047187924 0.004943653 0.039205927 -0.04293918 0.0993199 0.009851852 -0.05863015 0.019693885
0.011665303 0.001956048 -0.06665554 0.028500777 -0.111962825 0.01597272 -0.014162405 0.04853857
0.006799545 0.034834027 -0.019514196 0.046464484 -0.060504697 0.089346774 -0.02119408 0.07750311
-0.025446389 0.032676283 0.0011528819 -0.07893735 -0.03878178 -0.061801706 0.0010161845 0.07189596
-0.034038354 0.07378188 -0.09427643 0.0063738613 0.064836666 0.090818785 -0.044926137 -0.02977641
0.021076359 0.03316098 0.021508023 -0.039936308 0.056992795 0.07019336 -0.022162927 0.080414034
00000000: 7c6f 6bbd 9510 193d 7392 113d 8358 b03d
00000010: 3b51 2dbe b282 673d 3632 2ebb 0cdc d73d
00000020: 8ecc 4e3c bc18 8f3d ec79 b0bd 31df 8d3d
00000030: fc8a 6c3a ea9d 993d 2445 753d 27af ce3c
00000040: 0ec8 12be 53cf 7dba db9a b53c a821 403d
00000050: 211c 09bc e963 7a3d d0e4 c93b dd61 723d
00000060: 71ce 1fbe 9ee6 aa3d 69f7 e93c e538 803d
00000070: 5ab3 a0bd 2506 fc3c d589 3b3b dd0e 5bbc
00000080: e89c 1cbd 50f7 1d3d 7066 78bc 3f23 2ebc
00000090: b51b 90bd 9bc7 7c3b 0bd2 82bc 12a6 97bd
000000a0: b4bd d13e 3590 8cbe 5f1d ec3c ff8c 033c
000000b0: b3be 7bbc 6983 29bd bfbb 91bc 0009 063d
000000c0: 0dd1 c13e eeb0 3abe 888b 4abd b6cb 9bbd
000000d0: d7c3 a43b d2ea 013e 0698 423d ff73 b33d
000000e0: 559d 473e b6ab 27bd f187 8cbc 79bc ccbd
000000f0: 4390 25bd 493c 4c3c 2436 c63c 42ed af3d
00000100: 5eb4 0a3e be2c 00bd 9393 d0bc 4eb6 06bd
00000110: 938f 4bbc dca0 bd3d 7e3e 033d 05e0 793d
00000120: 8f38 c13d 5690 2cbc 81ac 413d cdbd e43c
00000130: 3294 9d3c 990d b2bb 9833 0a3c e411 0d3e
00000140: 5b88 803d 8311 883a 6397 593b 7775 8d3d
00000150: fe9f a93c 743a 3c3c 7e88 10bd 686b 403c
00000160: 3fad c13d 0cbd 20bd d825 e93c 1ae7 a9bb
00000170: 273b d8bc d56d ac3b 886c 83bd 5418 a13c
00000180: 4d26 2b3e 9361 32bd 186a cdbd 8250 763b
00000190: 88b1 ffbc 49f3 ac3d afc5 01bb 354d b03c
000001a0: d438 8abb eebd a8bd f6df 113d d50f 823d
000001b0: 2594 433c f3db 55bd 6149 9e3c feb7 2abc
000001c0: 032a af3c 210d 5f3d 2d05 a13d f948 f9bc
000001d0: ca2e 88bd 3c81 913d 46fb 67bd e56d 953b
000001e0: 0804 233d 1dea c63c ecf1 4c3b 7f28 b4bd
000001f0: 6164 90bc 80bd c63d 2ae2 133d 8326 603c
00000200: 3a44 263d 60e8 4cbd b879 ae3b d8d9 24ba
00000210: e9b6 9b3d 0a57 4a3d d3fe 11bd 20eb 41bd
00000220: 1d1e 3b3d 83b3 1ebb b029 f5bc e671 fdbc
00000230: d989 ac3c 2b5c 4fbd d3af 843c de8a 95bd
00000240: ccd6 8f3d 2ecc 263b d6f6 7cbc 740b 323d
00000250: ad32 2dbd 9fee de3c fc94 f43c 089c 743c
00000260: 208a 3bb8 a21f c0bd 3e6a 253d 455d 5b3b
00000270: ee88 e23c 9d06 4f3d 89cc c33d 4567 afbc
00000280: 502a 6bbd b880 abbc 42f0 8c3d 76c1 eabc
00000290: 0dfd bb3c 44ed 853d 9960 26bc 1bf0 733c
000002a0: b26e ac3d 2c82 a43d aba7 b33d c5b6 783c
000002b0: 5dfc 273d a394 443d 2399 7e3b d8bc b4bc
000002c0: f387 8d3b e816 d1bd 3a0c 303d c7b5 703d
000002d0: 14f4 b3bc e68b 46bd 14e9 1bbc 88a1 cb3d
000002e0: 5a7f b0bb 15cf cabc ed70 b33c 24ba 51bd
000002f0: 3bae 4fbd ccb3 c33d bb3d 5c3b 1f64 1d3d
00000300: b1c1 b73c 29fb 0bbe a7d4 1c3c 80a3 e7bc
00000310: 08e7 4e3c 63f3 013d 0c7a 373d 6c89 123d
00000320: 5a56 153d 476b 71bb c72d e5bb e1f7 31bd
00000330: 36ac 083d 6287 f73d 635a 7bbd 52c8 90bd
00000340: 2048 413d 5efe a13b 6596 203d fee0 2fbd
00000350: 3b68 cb3d aa69 213c 2b26 70bd 1255 a13c
00000360: d41f 3f3c 0a31 003b b382 88bd 767a e93c
00000370: c44c e5bd 39d9 823c 6f09 68bc 61d0 463d
00000380: b8ce de3b 20ae 0e3d 3cdc 9fbc 8b51 3e3d
00000390: c6d3 77bd 71fb b63d 359f adbc f3b9 9e3d
000003a0: f274 d0bc 91d7 053d 4c1c 973a e8a9 a1bd
000003b0: a5d9 1ebd c923 7dbd 7e31 853a 303e 933d
000003c0: cd6b 0bbd f41a 973d 0014 c1bd d3db d03b
000003d0: 16c9 843d 33ff b93d 7804 38bd a8ed f3bc
000003e0: 54a8 ac3c cfd3 073d 9831 b03c 4194 23bd
000003f0: 4771 693d 89c1 8f3d 078f b5bc 1db0 a43d

network_body._body_endoder.seq_layers.2.bias f4 [128]
-0.019632904 -0.007085895 -0.006890837 0.036852684 -0.021593422 0.0038174822 0.004038706 0.016152196
0.021523051 0.034170404 0.02275912 -0.024062252 -0.009422454 0.02249973 0.0092016915 -0.012510878
-0.03916055 -0.016044952 -0.016135959 -0.01373936 0.011585172 0.0122203985 0.006424777 0.008941508
0.0073071546 -0.0016779976 0.018631049 -0.0031510992 -0.009111631 0.02917251 -0.020438563 -0.024804551
0.0131889125 0.0018213617 0.0010173536 0.02929672 0.01292866 -0.0061149243 -0.018440498 0.009336992
-0.0033860826 0.0072905147 0.0038937237 -0.008548243 -0.022970337 0.019080535 0.049654957 0.009932893
-0.0058785575 0.02348919 0.018208181 0.022343958 -0.009073027 -0.018638017 0.027568674 -0.0049699065
0.007329515 -0.0136056 0.012871023 -0.00089686445 -0.0011510743 0.049902257 0.013516601 0.021366458
0.008625141 0.0065684584 -0.02491894 -0.0059933034 0.017950587 0.020695478 -0.0018368153 -0.017780205
0.011893401 -0.0005808315 0.0023636052 -0.0065721124 -0.0018129668 -0.0063829883 0.0026190581 0.003467991
0.013368686 0.03991535 0.039324705 0.01695277 -0.037063245 0.020363444 0.040755264 -0.03898343
0.012137937 -0.01391224 -0.028666137 0.028358005 0.021781106 0.0014677577 -0.006560586 0.03496664
0.012113073 0.0028454135 -0.014661153 -0.003985071 -0.0059755817 0.0013571249 0.011020709 0.010266354
0.008866658 0.034614883 0.003465297 -0.02851171 -0.029975541 0.021905275 0.012483604 0.019373735
-0.02209019 -0.015782095 -0.00947264 -0.014868616 0.0062678414 -0.00046382425 -0.0045856317 0.016686752
0.004793438 0.0016569252 -0.008091419 0.040284906 0.02069302 0.0065851193 0.018277613 0.03592743
00000000: 2fd5 a0bc cc30 e8bb 88cc e1bb d7f2 163d
00000010: b0e4 b0bc b92e 7a3b 1f57 843b 9c51 843c
00000020: 1c51 b03c 44f6 0b3d 5671 ba3c 331e c5bc
00000030: a360 1abc 5b51 b83c b1c2 163c 6dfa 4cbc
00000040: d066 20bd b470 83bc 8f2f 84bc 0d1b 61bc
00000050: bccf 3d3c 1138 483c f086 d23b 677f 123c
00000060: db70 ef3b 42f0 dbba 24a0 983c ac82 4ebb
00000070: f348 15bc 30fb ee3c c66e a7bc ea32 cbbc
00000080: 4f16 583c c2ba ee3a b958 853a adff ef3c
00000090: bbd2 533c b45f c8bb 8710 97bc 2ffa 183c
000000a0: 0ae9 5dbb 45e5 ee3b d82d 7f3b ee0d 0cbc
000000b0: 4a2c bcbc c84e 9c3c ff62 4b3d 93bd 223c
000000c0: eaa0 c0bb 676c c03c 5329 953c ad0a b73c
000000d0: 09a7 14bc c1ae 98bc b3d7 e13c 99da a2bb
000000e0: 6e2c f03b 06ea 5ebc fce0 523c 8e1b 6bba
000000f0: a5df 96ba 4f66 4c3d bc74 5d3c b608 af3c
00000100: 7750 0d3c 393c d73b ce22 ccbc 7963 c4bb
00000110: 1c0d 933c 9089 a93c 4bc1 f0ba cba7 91bc
00000120: 8adc 423c f142 18ba b7e6 1a3b e05a d7bb
00000130: 12a1 edba 6328 d1bb 81a4 2b3b 3c47 633b
00000140: 5508 5b3c 477e 233d f112 213d 89e0 8a3c
00000150: a1cf 17bd 3dd1 a63c feee 263d 17ad 1fbd
00000160: 33de 463c 2af0 63bc 3fd5 eabc 0c4f e83c
00000170: 4a6e b23c c761 c03a 2ffa d6bb 2e39 0f3d
00000180: e975 463c 1e7a 3a3b 5535 70bc 3395 82bb
00000190: d0ce c3bb 8ee1 b13a 3490 343c 3634 283c
000001a0: 7645 113c 56c8 0d3d 091a 633b 6491 e9bc
000001b0: 448f f5bc b172 b33c 0888 4c3c abb5 9e3c
000001c0: 7cf6 b4bc 7449 81bc 2233 1bbc 7f9b 73bc
000001d0: 7762 cd3b 702d f3b9 1143 96bb a8b2 883c
000001e0: 4612 9d3b 2f2d d93a df91 04bc c901 253d
000001f0: 6984 a93c fcc7 d73b efba 953c a428 133d

network_body._body_endoder.seq_layers.2.weight f4 [128, 128]
-0.046814777 0.03011027 -0.03894594 0.010268553 -0.017978724 0.009086938 0.14827904 -0.02799691
0.17061698 -0.13584442 0.14071456 -0.07891595 0.13362288 0.10709302 0.017486226 -0.0058721793
0.10220986 0.07895215 -0.06166747 0.01765256 0.09254062 -0.1141884 0.036340587 0.06325034
-0.053281423 -0.14562018 -0.05998894 -0.046271916 -0.23279996 0.05296859 0.109227695 0.05980537
-0.033834368 -0.16211145 0.008841579 -0.065935776 -0.014369806 -0.004051573 -0.07111349 -0.16664614
-0.05715707 -0.06477312 0.032375745 -0.0838094 0.010640991 0.10454197 0.13660981 0.09232151
0.0041111894 0.05182581 -0.06481893 0.079330355 0.19081026 -0.16046387 -0.11862445 0.12084346
0.10360498 0.07190974 -0.18008295 0.026830362 0.086377256 0.0424467 -0.029559232 -0.05347859
-0.04607506 0.067262925 0.077334285 -0.044783875 0.034281798 -0.005872099 0.11474519 -0.13722807
-0.05490868 -0.15290725 -0.07492028 0.28043005 -0.09241923 -0.004013259 -0.11501078 0.046414245
-0.035875175 -0.01203939 0.09693556 0.049230963 0.024089247 -0.036201138 -0.10108353 -0.0015362208
0.11387663 -0.024265476 -0.10290317 -0.07616641 0.0017496947 -0.016527826 -0.076249264 -0.05692808
0.17417862 -0.0560916 -0.042933725 0.11681565 -0.24720527 0.012038678 -0.07631395 0.00810128
0.0023211513 0.013541338 -0.070992924 -0.05800509 0.034046568 -0.1559223 0.12755817 -0.05332753
-0.019867063 -0.031114968 -0.03991659 -0.05236601 -0.091582656 0.02505558 -0.1110978 0.032760084
0.02283454 0.007075089 -0.10066413 0.023777146 -0.1178228 0.09924711 -0.049670376 0.0009568717
-0.003529016 0.047527876 -0.12735432 -0.020970477 0.058138926 -0.20838314 0.010015856 0.026729325
0.0648104 0.074466124 -0.028684027 0.11875768 -0.117651574 -0.04735057 0.07874346 0.05069804
0.018509334 -0.023439683 -0.013789118 0.013444638 -0.13744576 0.031544533 0.07021446 -0.0521236
0.03277297 0.005897702 -0.06935865 -0.021298628 0.04365013 0.10159481 -0.050093524 0.082781926
-0.07259189 0.0020316753 -0.041042358 -0.14660022 -0.0856999 -0.1047329 -0.036840156 0.009263893
-0.06035103 0.060988292 0.07949015 0.13053232 -0.0769406 -0.19725534 0.039678514 -0.16727236
0.016750714 -0.073438376 0.060065914 0.10383963 0.11231181 -0.10828221 0.18594806 -0.16066894
0.040073045 0.06503857 0.17407726 -0.0811413 -0.04570732 -0.0088420175 0.15217587 0.009343756
0.07562907 -0.057729658 -0.045352243 0.012761696 -0.008400982 0.08597831 0.036841884 0.06016734
-0.0025895871 -0.038824614 -0.19915827 -0.10168623 -0.10765244 -0.047283247 -0.151564 0.049939524
0.060909133 0.17414564 0.026519665 0.043443277 0.06799672 -0.08491718 0.061668728 0.043152966
-0.008635115 0.054792557 0.24159497 0.022405716 0.026165424 0.07454204 -0.12884133 0.08875073
0.17663397 0.049246486 -0.09512772 0.036310196 0.0025636863 -0.057398163 0.021656753 0.11872256
-0.020253114 -0.001043794 0.022932144 -0.07662864 -0.11214049 0.046675418 0.0973703 0.0668437
-0.19263953 9.571874e-05 0.24244632 -0.07714272 0.0077693425 0.013605355 0.0046146503 0.018816056
-0.14197955 -0.02137409 -0.03630281 -0.10508746 -0.14789341 -0.085779704 0.06115474 0.19950813
00000000: dac0 3fbd d0a9 f63c c785 1fbd 6f3d 283c
00000010: 1e48 93bc 61e1 143c 76d6 173e c759 e5bc
00000020: 38b6 2e3e cd1a 0bbe 7a17 103e b09e a1bd
00000030: 70d4 083e 9653 db3d 463f 8f3c 696b c0bb
00000040: 6753 d13d aab1 a13d 0797 7cbd 1a9c 903c
00000050: f085 bd3d 9cdb e9bd ded9 143d 6589 813d
00000060: 9f3d 5abd 751d 15be f6b6 75bd 9f87 3dbd
00000070: 1d63 6ebe 98f5 583d c5b2 df3d 7af6 743d
00000080: e895 0abd 8b00 26be 45dc 103c 5609 87bd
00000090: 566f 6bbc 0fc3 84bb f3a3 91bd 49a5 2abe
000000a0: 881d 6abd c5a7 84bd 6e9c 043d 43a4 abbd
000000b0: 8d57 2e3c 1a1a d63d 71e3 0b3e 0f13 bd3d
000000c0: 28b7 863b 4d47 543d cabf 84bd f477 a23d
000000d0: c463 433e a450 24be 60f1 f2bd c77c f73d
000000e0: d92e d43d 6a45 933d aa67 38be 59cb db3c
000000f0: 8fe6 b03d 97dc 2d3d 3426 f2bc 5e0c 5bbd
00000100: 34b9 3cbd 25c1 893d 7061 9e3d 4c6f 37bd
00000110: 126b 0c3d bd6a c0bb 87ff ea3d 8485 0cbe
00000120: ede7 60bd b893 1cbe ce6f 99bd 8794 8f3e
00000130: 4b46 bdbd a881 83bb c68a ebbd dd1c 3e3d
00000140: d9f1 12bd dd40 45bc 2786 c63d 68a6 493d
00000150: d056 c53c a547 14bd e204 cfbd 045b c9ba
00000160: 2738 e93d 64c8 c6bc e6be d2bd 23fd 9bbd
00000170: 0356 e53a 5d65 87bc 9328 9cbd 6b2d 69bd
00000180: e15b 323e 4ec0 65bd 46db 2fbd 0b3d ef3d
00000190: 6123 7dbe e03d 453c 7d4a 9cbd 3bbb 043c
000001a0: 751e 183b 7ddc 5d3c bd64 91bd bf96 6dbd
000001b0: 6a74 0b3d 18aa 1fbe 9c9e 023e f86d 5abd
000001c0: 40c0 a2bc d1e4 febc 947f 23bd be7d 56bd
000001d0: b08f bbbd 5c41 cd3c 3e87 e3bd 702f 063d
000001e0: 800f bb3c 26d6 e73b ff28 cebd 4ac8 c23c
000001f0: 154d f1bd 1242 cb3d 2a73 4bbd 93d6 7a3a
00000200: 1047 67bb 97ac 423d 2c69 02be 47ca abbc
00000210: 1523 6e3d 6462 55be 8b19 243c 75f7 da3c
00000220: 51bb 843d b281 983d c4fa eabc 3a37 f33d
00000230: 4ff3 f0bd acf2 41bd 4044 a13d bfa8 4f3d
00000240: e3a0 973c 9404 c0bc c1eb 61bc e646 5c3c
00000250: 95be 0cbe d734 013d 99cc 8f3d 8e7f 55bd
00000260: f33c 063d 8341 c13b e80b 8ebd 767a aebc
00000270: 7bca 323d f110 d03d de2e 4dbd 9289 a93d
00000280: 0fab 94bd db25 053b 081c 28bd 5e1e 16be
00000290: 6e83 afbd 347e d6bd b4e5 16bd 95c7 173c
000002a0: a432 77bd dcce 793d bbcb a23d 44aa 053e
000002b0: 0993 9dbd 4efd 49be f085 223d 7249 2bbe
000002c0: cb38 893c dc66 96bd ad07 763d dfa9 d43d
000002d0: bc03 e63d 10c3 ddbd 2b69 3e3e 6686 24be
000002e0: a223 243d f132 853d 4f41 323e 692d a6bd
000002f0: 9937 3bbd 1cde 10bc fed3 1b3e 8e16 193c
00000300: 6ae3 9a3d ef75 6cbd 46c3 39bd 6f16 513c
00000310: 46a4 09bc 6515 b03d 84e7 163d 0772 763d
00000320: 10b6 29bb 8f06 1fbd 25f0 4bbe df40 d0bd
00000330: e278 dcbd 14ac 41bd 9833 1bbe 638d 4c3d
00000340: db7b 793d 3c53 323e c53f d93c 94f1 313d
00000350: dd41 8b3d 0fe9 adbd 5998 7c3d 2ac1 303d
00000360: 4c7a 0dbc 296e 603d ac64 773e 318c b73c
00000370: df58 d63c 7fa9 983d fbee 03be f1c2 b53d
00000380: 89df 343e afb6 493d 52d2 c2bd 00ba 143d
00000390: 8503 283b 561a 6bbd 8169 b13c d024 f33d
000003a0: dce9 a5bc eacf 88ba 31dc bb3c 7aef 9cbd
000003b0: eaa9 e5bd b92e 3f3d 146a c73d 5ae5 883d
000003c0: 4c43 45be 9bbc c838 d943 783e 01fd 9dbd
000003d0: f895 fe3b ffe8 5e3c 7e36 973b 2124 9a3c
000003e0: 1663 11be b718 afbc 41b2 14bd 1838 d7bd
000003f0: 5f71 17be 45ad afbd 657d 7a3d dc4b 4c3e
