FPS AI/Assets/Models/FPS Agent2.onnx (onnx, 306878 bytes, 9 tensors)

action_model._continuous_distribution.log_sigma f4 [1, 3]
0	0xbfb0c1b1	-1.380911
1	0xbec22f9a	-0.37926942
2	0xbf56ed4f	-0.83955854

action_model._continuous_distribution.mu.bias f4 [3]
0	0x3cc8bf87	0.02450539
1	0x3d779295	0.060442526
2	0xbc485c6a	-0.0122290645

action_model._continuous_distribution.mu.weight f4 [3, 128]
0	0xbd138dc9	-0.03602389
1	0xbba6ff9d	-0.0050963894
2	0xbd8edcb9	-0.06975693
3	0x39ea4cd3	0.00044689197
4	0x3ca143b3	0.019685602
5	0x3ca70809	0.020389574
6	0xbc3758d6	-0.011190614
7	0x3b8440c3	0.0040360405
8	0x3cd8e294	0.026475228
9	0xbcd622a6	-0.026139569
10	0xbbf64384	-0.0075153727
11	0x3bc1fa2b	0.005919715
12	0x3c75f252	0.015011387
13	0xbc4e3d57	-0.012587867
14	0xbbd6fc99	-0.0065608737
15	0xbd92b3de	-0.07163213
16	0x3d064b75	0.032786805
17	0x3bb030ae	0.005376897
18	0x3c49ccf9	0.012316936
19	0xbd3f12dc	-0.046648845
20	0xbacf4b07	-0.0015815207
21	0xbcd75829	-0.026287155
22	0x3c23c217	0.009995005
23	0xbc64331a	-0.013928199
24	0x3d4a1a53	0.04934151
25	0x3abd3131	0.0014434216
26	0x3c5b8c7b	0.013400192
27	0xbc8eb90a	-0.017422218
28	0x3b211273	0.0024577647
29	0xbce8002e	-0.028320398
30	0x3c94dde2	0.018172208
31	0x3d858193	0.06518855
32	0x3cfb9089	0.030708568
33	0x3c22c7ba	0.009935314
34	0xbb9ca523	-0.004780428
35	0xbc2f0da5	-0.010684405
36	0x3c366a70	0.011133775
37	0xbce8e034	-0.02842722
38	0x3bb815db	0.0056178397
39	0x3b91674c	0.004437363
40	0x3c88d1bb	0.01670157
41	0xbd007a06	-0.03136637
42	0xbd397593	-0.045278143
43	0x3d42d0b3	0.047562312
44	0xbb40c830	-0.0029416196
45	0xbd8d9eee	-0.06915079
46	0xbb99471d	-0.004677667
47	0xbc1e6c97	-0.0096694445
48	0x3cc0cbf5	0.023534754
49	0x3ab896da	0.0014083043
50	0x3ce88a72	0.028386328
51	0xbc027cbb	-0.007964308
52	0x3b946437	0.004528548
53	0xbd70abf3	-0.058757734
54	0x3c8f816c	0.017517768
55	0x3bbc36d7	0.005743842
56	0xbc727279	-0.0147978
57	0xbc8de688	-0.01732184
58	0x3d1ecb54	0.038768128
59	0x399bff05	0.00029753908
60	0x3ce6fcc6	0.028196704
61	0x3d98dade	0.074636206
62	0xbe29e1ff	-0.16590117
63	0xba29b88b	-0.00064743374
64	0xbd348348	-0.044070512
65	0x3b9d4014	0.0047988985
66	0x3ad3022e	0.0016098672
67	0x3c7ccfd2	0.015430408
68	0xbd6d2213	-0.057893824
69	0xbbd470b0	-0.00648316
70	0xbc9482a3	-0.018128699
71	0xbce55f28	-0.027999476
72	0xbc84b054	-0.016197361
73	0xbd3afd48	-0.045651704
74	0xb752b8f2	-1.2560036e-05
75	0xbc4280d3	-0.011871534
76	0xbd485056	-0.04890474
77	0xbb823be6	-0.0039744256
78	0xbb72b174	-0.003703204
79	0xbcf77fd1	-0.030212315
80	0xbcc5fe22	-0.024169032
81	0xbc4aa840	-0.0123692155
82	0x3c3bb5a8	0.011456884
83	0x3bcce1d0	0.006252505
84	0x3c38603d	0.011253414
85	0x3d779f97	0.06045493
86	0xbd72de39	-0.05929396
87	0xbd17cfb1	-0.037063304
88	0x3c8cfb77	0.017209752
89	0x3d0006b2	0.031256385
90	0x3ca1b2d8	0.0197386
91	0xbb76af9e	-0.0037641297
92	0xbd6b41a6	-0.057435654
93	0xbc011db8	-0.007880621
94	0xbd4ad0cb	-0.049515527
95	0xbd83a5fb	-0.06428143
96	0xbcfd19c6	-0.030896079
97	0x3a39b9f2	0.0007084898
98	0xbafd1ae6	-0.0019310385
99	0x3c083f6d	0.008315903
100	0xbc719841	-0.014745773
101	0xbd00c43b	-0.03143714
102	0x3d035b26	0.032069348
103	0x3bce6a58	0.0062992983
104	0xbc64959d	-0.013951686
105	0xbcf83bad	-0.030301893
106	0xbcdf1504	-0.0272317
107	0x3a739029	0.0009291196
108	0xbd50e101	-0.05099583
109	0xbbff7208	-0.007795576
110	0xbd585176	-0.052812062
111	0x3d733cae	0.05938404
112	0xbbcca14b	-0.0062448136
113	0xbbb4b02d	-0.005514166
114	0x39c30499	0.00037196724
115	0x3bc4cdda	0.0060059847
116	0x3c4d271a	0.01252153
117	0x3cf0e6a2	0.02940685
118	0x3c474919	0.012163424
119	0xbc09fd8d	-0.008422268
120	0x3d01b05e	0.031662337
121	0xbcbe69ec	-0.023243867
122	0x3b176cdb	0.0023105654
123	0x3d217787	0.03942063
124	0xbdb38c88	-0.087670386
125	0xbba17a6f	-0.0049279253
126	0x3d0cc303	0.034365665
127	0xbd18bf10	-0.037291586
128	0x3d4d52d4	0.05012782
129	0x3ae68477	0.0017587085
130	0x3d5bd7b6	0.053672515
131	0xbda17f6e	-0.078856334
132	0xbcb39bfc	-0.021924965
133	0x3dd5b56f	0.10434996
134	0xbdb1b143	-0.08676388
135	0xbd5d2154	-0.053986862
136	0xbe131109	-0.14361967
137	0x3e2e7951	0.17038466
138	0xbddc9e3f	-0.107723705
139	0xbdcf34cc	-0.10117492
140	0xbd2e846c	-0.042606756
141	0xbd86f2ea	-0.06589301
142	0xbdef4834	-0.116836935
143	0xbddc24f2	-0.10749234
144	0xbdb64b49	-0.08901078
145	0xbd864532	-0.06556167
146	0x3c880836	0.016605478
147	0x3d8a03a7	0.06738978
148	0x3bad1828	0.0052824207
149	0x3c4588ea	0.012056569
150	0x3d1735eb	0.036916655
151	0xbd9e8fc0	-0.07742262
152	0xbd012c75	-0.03153654
153	0x3be0c4fa	0.006859419
154	0x398517cc	0.00025385467
155	0xbddb17e5	-0.10697917
156	0x3d1e6144	0.03866698
157	0x3df0019b	0.11719056
158	0xbda57421	-0.080787905
159	0xbe300c2a	-0.1719214
160	0xbc871e7a	-0.016494025
161	0xbdc44d68	-0.095850766
162	0x3d807ce7	0.06273823
163	0xbd79f043	-0.061020147
164	0xbd6faaad	-0.05851238
165	0xbb30ffa1	-0.0027007835
166	0x3ce0d3fc	0.027444832
167	0xbd121151	-0.035661045
168	0x3bd56704	0.0065125246
169	0xbdd4117f	-0.103548996
170	0x3d80cf1c	0.06289503
171	0x3c7cf3de	0.015439002
172	0x3dd0bc1f	0.10192131
173	0x3b1994b2	0.0023434577
174	0x3bed43eb	0.0072407625
175	0x3d704e3b	0.058668356
176	0x3c9e38c2	0.019314174
177	0xbdc792b3	-0.097447775
178	0xbe2362b8	-0.15955627
179	0xbe0fd322	-0.14045385
180	0xbd800551	-0.06251014
181	0xbdf2a2a2	-0.11847426
182	0xbdfbf00c	-0.12301645
183	0x3c0c5f97	0.008567712
184	0x3dc332a5	0.09531144
185	0x3d90b225	0.070652284
186	0x3d68cc26	0.056835316
187	0xbd46b51b	-0.04851256
188	0x3b58c1a7	0.003307441
189	0x3ce1395b	0.02749317
190	0x3e500cd2	0.2031739
191	0xbcb878ca	-0.022518534
192	0x3d44a567	0.048009302
193	0x3d46b7d4	0.048515156
194	0x3d9a5613	0.075359486
195	0x3d279c8e	0.040920787
196	0x3d3568e9	0.044289503
197	0xbd4440a1	-0.047913197
198	0xbbd0d1e1	-0.0063726758
199	0x3d383021	0.044967774
200	0x3c3d7cc9	0.011565396
201	0x3d92c33e	0.07166146
202	0xbd3ebcfe	-0.046566956
203	0xbda0f88f	-0.07859909
204	0x3d5a4073	0.05328412
205	0x3d2aaf67	0.041671183
206	0x3d0435f8	0.03227803
207	0x3d1db828	0.038505703
208	0x3d05a5c9	0.03262881
209	0xbbe5c97b	-0.0070125437
210	0xbd5a81a8	-0.053346306
211	0xbc98044c	-0.018556736
212	0xbc4d30eb	-0.01252387
213	0x3de06b25	0.10957936
214	0x3d6b8c5f	0.057506915
215	0xbd110a17	-0.035410013
216	0xbaf5a96a	-0.0018742506
217	0x3d2054da	0.03914342
218	0xbcb0a4b0	-0.021562904
219	0x3d54f0ff	0.051987644
220	0xbd10bb9a	-0.03533516
221	0x3bd366ae	0.0064514494
222	0x3c56f169	0.01311908
223	0xbd9fcb00	-0.07802391
224	0xbd1ec9c3	-0.038766634
225	0xbd6db8ee	-0.05803769
226	0x3c6b54d5	0.014363487
227	0x3cbe4a24	0.023228712
228	0xbdbc481d	-0.09193442
229	0xbd68e0a2	-0.05685485
230	0xbc1a192e	-0.009405417
231	0xbd08f78e	-0.03343921
232	0x3d3c9328	0.046038777
233	0xbe0ef465	-0.13960417
234	0x3d19a41d	0.037510026
235	0x3cca090b	0.024662515
236	0x3e3d2a2d	0.1847312
237	0xbd56dc70	-0.05245632
238	0x3e5f48b4	0.21805078
239	0xbd2c7491	-0.042103354
240	0xbd33219e	-0.04373323
241	0xbde95bed	-0.113944866
242	0xbd2d1966	-0.04226055
243	0xbda21ccc	-0.07915649
244	0xbc6fa020	-0.014625579
245	0xbc93fdce	-0.01806536
246	0x3c792e05	0.015208726
247	0x3cc075ef	0.023493735
248	0xbb9dbce0	-0.0048137754
249	0x3c9b257c	0.018938772
250	0xbbd443dc	-0.006477816
251	0x3ba20e2b	0.0049455366
252	0xbdd3a042	-0.10333301
253	0xbe4dd317	-0.20100056
254	0xbd4de215	-0.050264437
255	0x3cd74b9f	0.026281176

action_model._discrete_distribution.branches.0.bias f4 [2]
0	0x3d87a9f8	0.06624216
1	0xbd87a94e	-0.06624089

action_model._discrete_distribution.branches.0.weight f4 [2, 128]
0	0xbbe9691e	-0.0071231266
1	0x3c46c9c6	0.0121330675
2	0xbcf734ee	-0.030176606
3	0xbc459fc3	-0.012062016
4	0xbdd4d4af	-0.10392129
5	0xbe15fe8c	-0.14647883
6	0xbd0ec550	-0.03485614
7	0xbcc7a01f	-0.024368344
8	0xbda4af7b	-0.08041283
9	0xbcd71f06	-0.02625991
10	0xbd115c37	-0.035488334
11	0x3c69520a	0.014240751
12	0xbcbd2b72	-0.023092005
13	0xbdb3c823	-0.087784074
14	0xbd726036	-0.059173785
15	0xbe1b838e	-0.15186903
16	0x3bed8cce	0.0072494512
17	0xbdb60267	-0.08887177
18	0x3dd34259	0.10315389
19	0x3e0d921e	0.1382527
20	0xbabd9e5f	-0.0014466754
21	0x3d15bf55	0.03655942
22	0x3e222359	0.15833797
23	0xbd6d7cd5	-0.057980377
24	0xbe3621d4	-0.17786342
25	0xbd0ba02a	-0.03408829
26	0x3e8a0c6a	0.26962596
27	0xbd406465	-0.046970744
28	0x3d9af12b	0.075655304
29	0x3d0a91bf	0.0338304
30	0xbde4f049	-0.11178643
31	0xbc6077f5	-0.013700475
32	0x3e195dee	0.14977238
33	0xbd8baf35	-0.068205275
34	0xbc7237ac	-0.014783781
35	0xbd3fecfd	-0.04685687
36	0xbd84b941	-0.06480647
37	0xbcbd375c	-0.023097686
38	0x3e0ae0c2	0.13562301
39	0x3b89436d	0.004188946
40	0x3de08a87	0.10963922
41	0x3c87e5ce	0.016589072
42	0x3cbd8682	0.023135427
43	0xbdb79a6b	-0.08965
44	0xbdc5eae8	-0.096639454
45	0x3dc1cf20	0.09463334
46	0x3e5bb5dc	0.21456093
47	0xbc89afee	-0.016807523
48	0x3dc569f6	0.09639351
49	0xbc4c6b3f	-0.012476741
50	0xbe43abfd	-0.19108577
51	0xbdeffa7e	-0.117176995
52	0xbd83bd0c	-0.06432542
53	0xbd7f069d	-0.062262166
54	0x3c9a60d0	0.018844992
55	0x3e56e91a	0.20987359
56	0xbd65e0c9	-0.056122575
57	0xbda8e0b4	-0.08245984
58	0xbc69c48a	-0.01426805
59	0xbc99e54f	-0.0187861
60	0xbe30abf3	-0.17253093
61	0x3cc6f3cf	0.024286179
62	0xbcea4b8c	-0.028600477
63	0xbde4ab99	-0.11165542
64	0xbc0f6f24	-0.008754525
65	0x3d36c3a2	0.044620164
66	0x3db5d8f5	0.08879272
67	0xbcf6f3a0	-0.030145466
68	0xbd19460a	-0.03742031
69	0xbd203961	-0.03911722
70	0xbd596d1b	-0.053082567
71	0xbcf06d20	-0.02934891
72	0xbb661c7b	-0.003511219
73	0xbd9bca13	-0.07606902
74	0x3caf3010	0.021385223
75	0x3ccaa14d	0.024735117
76	0xbcda3577	-0.026636822
77	0x3dc4a113	0.09601035
78	0x3d762a79	0.0600991
79	0xbbd472d4	-0.006483415
80	0xbd97bea1	-0.074094065
81	0xbd2794da	-0.04091344
82	0x3d1ea763	0.03873385
83	0x3d89bc92	0.0672542
84	0xbd877482	-0.06614019
85	0x3d4eb022	0.050460942
86	0x3d47d0b2	0.04878301
87	0xbc9964b4	-0.018724777
88	0xbda97d69	-0.08275873
89	0x3d5588bc	0.052132353
90	0x3ea002bc	0.31252086
91	0x3d97755b	0.07395431
92	0x3daf4976	0.085589334
93	0x3e1966c1	0.14980604
94	0xbd3a3e0e	-0.045469336
95	0xbd6cbf93	-0.057799887
96	0xbdcb4faa	-0.09927304
97	0xbd0acae3	-0.033884894
98	0x3e433bc3	0.19065766
99	0x3e91cbd2	0.28475815
100	0xbd8750ab	-0.06607183
101	0xbd419f1e	-0.047270887
102	0xbe337bc7	-0.17527686
103	0xbd64ea32	-0.05588741
104	0x3db199d5	0.08671919
105	0xbe052a82	-0.13004497
106	0x3d2cbe11	0.04217345
107	0x3ca646e0	0.020297468
108	0xbbce25fd	-0.0062911496
109	0xbcf4d735	-0.029887775
110	0x3cb362e2	0.021897737
111	0x3cc417ef	0.023937194
112	0xbbca472e	-0.006173036
113	0xbda3a4c6	-0.079904124
114	0xbd9b264d	-0.07575665
115	0x3d361b46	0.044459604
116	0x3c8c1234	0.017098524
117	0xbc0764e2	-0.008263798
118	0x3c71e6ed	0.01476453
119	0xbd993488	-0.07480723
120	0x3dcdc992	0.10048212
121	0x3c1257d8	0.008932076
122	0x3e707dec	0.23485535
123	0xbb25cba2	-0.0025298377
124	0x3cb241c4	0.021759875
125	0x3c8da8b6	0.017292362
126	0xbd414767	-0.047187235
127	0xbdb1958c	-0.08671102
128	0xbba0d8d4	-0.0049086604
129	0xbb61fbce	-0.0034482363
130	0x3d0c11a0	0.034196496
131	0x3ac3b7a4	0.0014932049
132	0x3dd3ae5d	0.103359915
133	0x3df85c26	0.12126951
134	0x3d7304ec	0.059330866
135	0x3c85146b	0.016245088
136	0x3d9c09c6	0.07619052
137	0x3cd9c391	0.026582511
138	0x3d1ddae5	0.038538832
139	0xbbfb14cb	-0.007662391
140	0x3c4ff7e1	0.012693376
141	0x3d9bf401	0.076148994
142	0x3d9c5196	0.07632749
143	0x3e10647d	0.14100833
144	0xbcf0e0d7	-0.029404087
145	0x3d9a941b	0.0754778
146	0xbdc71d84	-0.097224265
147	0xbe24c05e	-0.16089007
148	0x3c1d3800	0.009595871
149	0xbd0084b8	-0.03137657
150	0xbe218a17	-0.15775333
151	0x3d8de950	0.069292665
152	0x3e31087a	0.1728839
153	0x3ca1b3af	0.019739
154	0xbe8bf141	-0.273325
155	0x3d2b6c5d	0.04185139
156	0xbd979408	-0.074012816
157	0xbcc3abfa	-0.023885716
158	0x3dcada47	0.09904914
159	0x3c1f4347	0.00972063
160	0xbe1308e8	-0.14358866
161	0x3da554e7	0.080728345
162	0x3cdf8acf	0.027287869
163	0x3d69dcb1	0.057095233
164	0x3d6b24cb	0.057408135
165	0x3cfff58f	0.031245021
166	0xbdf9cdf7	-0.12197488
167	0xbc856d21	-0.016287388
168	0xbdf02302	-0.11725427
169	0x3b0b7577	0.0021279731
170	0xbcf1b372	-0.029504512
171	0x3db0360e	0.0860406
172	0x3de28668	0.11060792
173	0xbdc7f077	-0.09762662
174	0xbe605e8f	-0.21911071
175	0x3ce6d501	0.02817774
176	0xbdca2724	-0.09870747
177	0x3be48d81	0.0069748764
178	0x3e459e63	0.19298701
179	0x3dc4d33c	0.09610602
180	0x3d2a09d9	0.041513298
181	0x3d9d851a	0.07691403
182	0xbd23adcb	-0.039960664
183	0xbe520573	-0.20509891
184	0x3d8c5a07	0.06853109
185	0x3d95d953	0.07316842
186	0x3bcdb451	0.006277599
187	0x3b02dd7e	0.0019968445
188	0x3e165a2b	0.14682834
189	0xbd056bdb	-0.032573562
190	0x3ce0127b	0.027352562
191	0x3de3a291	0.111149915
192	0x3c515221	0.012775929
193	0xbd08c264	-0.03338851
194	0xbd9f7f55	-0.077879585
195	0x3ca3042d	0.019899452
196	0x3d29908a	0.04139761
197	0x3d15abcc	0.03654079
198	0x3d7ee650	0.062231362
199	0x3c3ea67d	0.011636374
200	0xbc1c7e1a	-0.009551549
201	0x3dc27b64	0.09496191
202	0xbd1da012	-0.038482733
203	0xbc74b0d1	-0.014934734
204	0x3d30fb5b	0.04320846
205	0xbde1466f	-0.10999762
206	0xbda3d03c	-0.07998702
207	0x3bb6d3be	0.005579441
208	0x3d8d1c80	0.068902016
209	0x3d1ae6e4	0.03781785
210	0xbd211038	-0.039322108
211	0xbd6db152	-0.058030434
212	0x3d9c5eb8	0.07635254
213	0xbd1d9270	-0.03846973
214	0xbd42432a	-0.047427334
215	0x3cc71281	0.024300816
216	0x3db87548	0.090067446
217	0xbd5146d5	-0.05109294
218	0xbea218a3	-0.3165942
219	0xbd87b43a	-0.06626172
220	0xbdc03ed2	-0.09386982
221	0xbe15f2eb	-0.14643447
222	0x3d3e021a	0.046388723
223	0x3d97854d	0.07398472
224	0x3dcf38f9	0.101182885
225	0x3d473802	0.048637398
226	0xbe41d909	-0.18930449
227	0xbe976eae	-0.2957663
228	0x3dafbed7	0.08581322
229	0x3d2b9c1a	0.041896917
230	0x3e32457c	0.17409319
231	0x3d64ad07	0.055829074
232	0xbda94bc2	-0.08266403
233	0x3e141db0	0.1446445
234	0xbd3e678f	-0.04648548
235	0xbc9f2052	-0.019424591
236	0x3c73dbbb	0.014883931
237	0x3cc9e007	0.024642957
238	0xbcd4b3de	-0.025964674
239	0xbcd2919b	-0.025704196
240	0x3b9dab6a	0.004811694
241	0x3dc251e1	0.094882734
242	0x3db0a27f	0.08624744
243	0xbd1940e1	-0.03741539
244	0xbd367850	-0.044548333
245	0xbba03212	-0.0048887813
246	0xbd3c17b3	-0.04592104
247	0x3db7d2f9	0.08975787
248	0xbdbb3d76	-0.09142582
249	0xbd0f74d4	-0.035023525
250	0xbe75046d	-0.2392747
251	0xbbb07e9d	-0.005386187
252	0xbd03e3d1	-0.032199685
253	0xbc9f6889	-0.019459026
254	0x3d81089d	0.06300471
255	0x3d99775c	0.07493469

network_body._body_endoder.seq_layers.0.bias f4 [128]
0	0xbd1fb7a4	-0.038993493
1	0xbc989e2b	-0.018630108
2	0xbd39788e	-0.045280986
3	0xbb86d076	-0.004114206
4	0xbbe57cb8	-0.007003393
5	0xbc3be9ec	-0.011469346
6	0x3cd766f7	0.026294215
7	0x3c4ab86e	0.012373073
8	0x3c0aabe6	0.008463835
9	0xbd631071	-0.0554356
10	0xbcad5bf5	-0.021162013
11	0xba82d214	-0.0009980821
12	0xbccb8b9d	-0.024846846
13	0xbc3842e6	-0.011246419
14	0x3bd50b06	0.0065015582
15	0xbbeb68cb	-0.007184123
16	0x3ceba7e3	0.028766578
17	0xbd835474	-0.064125925
18	0xbc9f9e08	-0.019484535
19	0x3d011e65	0.031523127
20	0x3c58c094	0.013229508
21	0xbd18a4af	-0.03726643
22	0x3d0178d8	0.031609386
23	0xbbc7ecc6	-0.0061012236
24	0x3cb158c4	0.021648772
25	0x3b5ec789	0.0033993444
26	0xbca66a4a	-0.020314354
27	0xbd31ed98	-0.043439478
28	0xbd2b5e39	-0.041837905
29	0x3c44be05	0.012008195
30	0xbbd939cb	-0.006629204
31	0x3bb25a1f	0.005442872
32	0xbd4f1428	-0.050556332
33	0x3c686076	0.014183154
34	0xbc304a11	-0.010759846
35	0x3ca74a77	0.02042125
36	0x3d22d839	0.039756987
37	0xbbeda9ea	-0.0072529214
38	0x3cdf31f7	0.027245505
39	0x3bfaa26d	0.007648757
40	0xbc67be99	-0.014144563
41	0xbd3afec1	-0.04565311
42	0xbcf551cc	-0.02994623
43	0xbc9735b3	-0.018458223
44	0x3c9e2bbc	0.019307964
45	0xbd37fe09	-0.04492
46	0x3c49ea2e	0.012323899
47	0x3af6edce	0.0018839182
48	0xbd66612d	-0.056245018
49	0x3d107495	0.03526743
50	0xbce1eb45	-0.027578006
51	0xbc1edfad	-0.009696883
52	0x3cdc3459	0.02688043
53	0x3caa5dc1	0.020796658
54	0x3c13d2a5	0.00902239
55	0x3a081ad6	0.0005191987
56	0xbaa40a72	-0.001251532
57	0xbc97d9a9	-0.018536406
58	0xbbc77bd1	-0.006087758
59	0x3bdd5582	0.006754578
60	0x3c754886	0.014970904
61	0xbd0a6028	-0.033783108
62	0xbbbcb16f	-0.0057584564
63	0xbda9263a	-0.08259244
64	0x3c9f2b98	0.019429967
65	0x3bab79fe	0.0052330485
66	0xbd26102c	-0.040542766
67	0xbcc7d396	-0.024392884
68	0xbbfff5fc	-0.007811306
69	0xbc9b8939	-0.018986331
70	0xbb229f01	-0.0024814012
71	0xbced2b25	-0.028951237
72	0xbd2ff7ba	-0.04296086
73	0xbc4c7a1e	-0.012480287
74	0x3bf125f9	0.007359263
75	0xbcabb129	-0.0209585
76	0x3c39de4b	0.011344503
77	0xbc743687	-0.014905578
78	0xbb9aec25	-0.0047278577
79	0xbd3af83f	-0.045646902
80	0xbd3059d1	-0.043054406
81	0xbcf7d088	-0.030250803
82	0x3b3a3b11	0.0028416554
83	0xbd354fc7	-0.044265535
84	0xbc87120c	-0.016488098
85	0x3ce34b92	0.027745996
86	0x3d460263	0.04834212
87	0x3c26c072	0.0101777185
88	0xbb8b5c03	-0.004252912
89	0xba58029e	-0.0008240136
90	0x3cac6b05	0.021047125
91	0xbd044a67	-0.032297518
92	0x3c61a4b7	0.013772181
93	0x3a28e3a9	0.00064426154
94	0x3bf43004	0.007452013
95	0xbc8c4151	-0.017120989
96	0x3c738536	0.014863303
97	0x3cb85547	0.0225016
98	0x3b6cdaed	0.0036141232
99	0xbc51faf1	-0.012816177
100	0x3cdfbce0	0.027311742
101	0x3b459f08	0.0030154604
102	0xbd9a1416	-0.07523362
103	0x3bd0c69c	0.0063713323
104	0xbc8fe2ae	-0.017564144
105	0x3cb85dc4	0.022505648
106	0x3c8f3eb5	0.017485956
107	0x3cd90709	0.026492612
108	0xbd03550f	-0.03206354
109	0x3abcf894	0.0014417344
110	0x3d1054b5	0.035237033
111	0x3ba88322	0.0051425854
112	0xbc06a255	-0.008217414
113	0x3c8eaf6c	0.017417632
114	0x3c99a1b7	0.01875387
115	0xbd0564de	-0.032566898
116	0x3cab360b	0.020899793
117	0x3cf77873	0.030208802
118	0xbcaa0d81	-0.020758392
119	0xbc98b2f2	-0.018640015
120	0xbccff929	-0.025387364
121	0xbc9ec95a	-0.019383121
122	0x3c00eb13	0.007868546
123	0x3c3823da	0.011239016
124	0xbc412b27	-0.0117900735
125	0xbc585605	-0.013204102
126	0x3d0a7095	0.033798773
127	0xbc29d5ac	-0.010365885

network_body._body_endoder.seq_layers.0.weight f4 [128, 458]
0	0x3d145704	0.036215797
1	0xbddffca9	-0.10936863
2	0xbddb32d5	-0.10703055
3	0xbd82a353	-0.06378808
4	0xbcb45310	-0.022012264
5	0x3c83fd70	0.01611206
6	0xbd2d6568	-0.042333037
7	0x3d19f126	0.037583493
8	0xbd25caab	-0.040476482
9	0xbdf44fcd	-0.11929283
10	0xbdb35898	-0.08757132
11	0xbc41c206	-0.011826044
12	0xbd7d08cc	-0.061775967
13	0x3dfbd0ac	0.122956604
14	0xbd868f08	-0.0657025
15	0x3df49313	0.11942115
16	0xbe334a6f	-0.17508863
17	0xbc4c976d	-0.012487275
18	0xbe13151b	-0.1436352
19	0xbe48e451	-0.19618346
20	0xbc204bc5	-0.00978369
21	0xbd4e34f6	-0.050343476
22	0xbd8723ca	-0.06598623
23	0xbc276434	-0.010216761
24	0xbdcc29bc	-0.09968898
25	0xbe4b6047	-0.19860946
26	0x3c477f0f	0.012176289
27	0xbd0c2d32	-0.03422279
28	0x3e5cb59a	0.2155365
29	0xbdb4c533	-0.08826675
30	0x3e73ebc8	0.23820412
31	0xbe5d4d9f	-0.21611641
32	0xbcd020d4	-0.025406279
33	0xbe8f668c	-0.28007925
34	0xbe7cde7b	-0.24694245
35	0x3d916018	0.070984066
36	0xbe3be157	-0.18347679
37	0xbb915ae0	-0.004435882
38	0x3d98aed0	0.07455218
39	0xbe1747e8	-0.14773524
40	0x3e920347	0.28518125
41	0xbde8ea3f	-0.11372804
42	0xbdcc67d6	-0.09980743
43	0xbe1dccff	-0.15410231
44	0xbe63eff2	-0.222595
45	0xbdc3b189	-0.095553465
46	0x3ca02b34	0.01955185
47	0xbce4cd35	-0.027929882
48	0xbd174a7d	-0.036936272
49	0xbe11be14	-0.14232665
50	0x3ec62417	0.3869941
51	0xbeb8503b	-0.3599871
52	0xbe21dba9	-0.1580645
53	0xbe2efdb8	-0.17088974
54	0xbedaf83f	-0.42767522
55	0xbdb681d5	-0.08911482
56	0xbd2aba11	-0.041681353
57	0xbdbc0f48	-0.09182602
58	0x3e478427	0.19484006
59	0xbd90b582	-0.0706587
60	0x3e812b95	0.25228563
61	0xbe5e0568	-0.2168175
62	0xbdb1d5d7	-0.08683365
63	0xbe440d5f	-0.19145726
64	0xbebeee55	-0.37291208
65	0x3c9607e3	0.018314308
66	0xbdcfe2ed	-0.101507045
67	0xbd81dd23	-0.063410066
68	0xbd92d7ae	-0.07170044
69	0xbdff4de5	-0.12466029
70	0xbd9ba8af	-0.07600533
71	0xbc3aa7ce	-0.011392547
72	0xbd8ab4ac	-0.06772742
73	0xbde27814	-0.11058059
74	0xbde7d71e	-0.11320327
75	0xbd899069	-0.06716997
76	0xbdf0768b	-0.1174136
77	0xbc227952	-0.00991662
78	0xbb060053	-0.002044697
79	0xbdc7c2da	-0.09753962
80	0xbe55ade6	-0.20867118
81	0x3d20dc03	0.03927232
82	0xbc8bfbd4	-0.017087854
83	0x3d561926	0.052270077
84	0xbd858989	-0.065203734
85	0x3cfc2398	0.030778691
86	0xbda24880	-0.079239845
87	0xbdb7a9e9	-0.08967955
88	0x3d075327	0.033038285
89	0x3ca88ce6	0.020574998
90	0xbcfda37b	-0.030961743
91	0x3d49920c	0.049211547
92	0x3c177c42	0.009245934
93	0xbc8e6a6b	-0.017384728
94	0xbdb7f170	-0.089815974
95	0xbd2f015b	-0.042725902
96	0xbd6f4b72	-0.05842156
97	0xbbe27f1d	-0.0069121257
98	0xbd05d3a9	-0.032672558
99	0xbd40bd78	-0.04705569
100	0x3de5060e	0.111827955
101	0xbdac521f	-0.08414101
102	0x3da73939	0.08165211
103	0xb9fbf478	-0.00048056594
104	0xbd734074	-0.05938764
105	0x3c99b0ad	0.018761003
106	0x3dbdb7e8	0.09263593
107	0xbc726aa3	-0.014795932
108	0xbc93579c	-0.017986111
109	0xbd5d927e	-0.054094784
110	0xbd5301b1	-0.051515285
111	0x3cf478c4	0.029842742
112	0x3d5181b8	0.0511491
113	0xbdfff46a	-0.1249779
114	0xbd0e3de1	-0.03472698
115	0xbd8fac86	-0.07015328
116	0x3bb43f96	0.005500744
117	0xbdd185f0	-0.10230625
118	0xbd801c79	-0.06255431
119	0xbda29528	-0.079386055
120	0x3cb33217	0.02187447
121	0xbdf085aa	-0.117442444
122	0xbbb493aa	-0.005510767
123	0xbd18b06d	-0.037277628
124	0x3d9a34e4	0.07529619
125	0x3b07a3b1	0.0020696933
126	0xbd49eecb	-0.049299996
127	0x3c01a8d8	0.007913791
128	0x3d3ce1ac	0.046113655
129	0xbd750df0	-0.059827745
130	0xbd77e284	-0.060518757
131	0xbdc70467	-0.097176366
132	0x3d2398f9	0.039940808
133	0xbc7117e8	-0.014715172
134	0xbc89448d	-0.01675632
135	0x3cc1511b	0.023598244
136	0xbcf28eef	-0.029609172
137	0xbb9d45f6	-0.0047995998
138	0xbce2cca0	-0.027685463
139	0xbd4ef6e6	-0.05052843
140	0xbda1ea82	-0.07906057
141	0xbd908b10	-0.07057774
142	0x3d3f0ba1	0.04664195
143	0x3d1ee9d4	0.038797215
144	0x3d0cc2e8	0.034365565
145	0xbd80a1e3	-0.062808774
146	0xbc3c94a1	-0.011510045
147	0x3da0efe0	0.078582525
148	0xbc92b744	-0.017909653
149	0xbdc4fb48	-0.096182406
150	0x3b9b903e	0.0047474196
151	0xbd91e312	-0.07123388
152	0xbdcd27ac	-0.100173324
153	0x3ceccb57	0.028905554
154	0xbe06168d	-0.1309454
155	0x3d5a905f	0.05336034
156	0xbd0342a5	-0.03204598
157	0x3a303eff	0.00067232543
158	0xbd734301	-0.05939007
159	0xbddf5803	-0.10905459
160	0xbe20011f	-0.15625428
161	0xbd25174f	-0.040305432
162	0xbd9ea284	-0.07745841
163	0x3b080faa	0.002076129
164	0xbd282f64	-0.04106082
165	0x3cedb766	0.029018115
166	0xbd785692	-0.060629435
167	0xbc35be03	-0.011092666
168	0x3ca9ee1d	0.020743424
169	0xbde9a015	-0.11407486
170	0xbd51792e	-0.051140957
171	0xbdce07db	-0.10060092
172	0x3b84bd68	0.0040508993
173	0x3d56300a	0.052291907
174	0xbc3a2ee0	-0.011363715
175	0x3d609da5	0.05483784
176	0xbbcce948	-0.006253395
177	0xbda21775	-0.0791463
178	0xbd415ed0	-0.04720956
179	0xbd53aa94	-0.051676348
180	0xbd96baaf	-0.07359826
181	0xbd6b4c8a	-0.05744604
182	0x3d45f0ad	0.04832523
183	0x3d2ba436	0.04190465
184	0x3b8bbbd2	0.0042643333
185	0xbd6b1fd0	-0.057403386
186	0x3dbb8857	0.09156864
187	0x3d6bf9fa	0.057611443
188	0xbd864caa	-0.06557591
189	0xbdab3795	-0.08360211
190	0xbcb4df77	-0.022079213
191	0xbd7cff44	-0.061766878
192	0x3d29f7c8	0.04149607
193	0x3d259f05	0.040434856
194	0xbdccd9be	-0.100024685
195	0xbd81aab9	-0.06331391
196	0x3d49b8cd	0.049248505
197	0x3c56f129	0.0131190205
198	0xbd4b7d58	-0.049680084
199	0x3bcfde71	0.0063436558
200	0x3d637144	0.05552794
201	0xbdb116b4	-0.086469084
202	0xbcad2f78	-0.021140799
203	0x3b4e50ce	0.0031481269
204	0xbcc59fba	-0.024124015
205	0xbbd19798	-0.006396245
206	0x3b90612f	0.0044061164
207	0xbced2a7c	-0.028950922
208	0xbda36e42	-0.079800144
209	0xbd3b91af	-0.04579323
210	0xbd6d4bb4	-0.057933524
211	0x3d7d1cd6	0.06179508
212	0xbe2c30d9	-0.16815509
213	0x3d2dfb9d	0.042476285
214	0x3db368d3	0.08760228
215	0xbaab5455	-0.0013071398
216	0xbacc1057	-0.0015568834
217	0xbd50bac0	-0.05095935
218	0xbd8d56d4	-0.06901327
219	0xbdd65d50	-0.10467017
220	0x3d55af96	0.052169405
221	0xbd31ea9b	-0.043436628
222	0xbd653d45	-0.055966634
223	0xbdf9e46a	-0.1220177
224	0xbcef70f0	-0.029228657
225	0x3d49576d	0.04915564
226	0x3d599cc5	0.053128023
227	0xbdf68ea6	-0.12038927
228	0xbe50c862	-0.2038894
229	0xbc412444	-0.011788432
230	0xbd30cd19	-0.043164346
231	0xbd0add74	-0.0339026
232	0x3c81fa83	0.015866524
233	0x3c9ed8d5	0.019390503
234	0x3b29ce29	0.0025910235
235	0x3d2f5214	0.042802885
236	0xbe2de3f0	-0.16981483
237	0x3c106fb4	0.008815695
238	0x3c30578a	0.010763058
239	0xbdf6f831	-0.120590575
240	0x3d6a2639	0.05716536
241	0xbde1a7ab	-0.11018308
242	0xbcbe1fa1	-0.023208441
243	0x3d9ca9ae	0.07649551
244	0x3d573a76	0.052545987
245	0x3d3ae5f9	0.045629475
246	0x3d127d35	0.035763938
247	0x3cf30f72	0.02967045
248	0xbce9d20f	-0.028542547
249	0xbe31f17d	-0.17377277
250	0xbd804bc2	-0.0626445
251	0xbdce0dce	-0.10061227
252	0x3c924f83	0.01786018
253	0x3cce56c5	0.02518786
254	0x3c8c4071	0.017120572
255	0x3ca99ec3	0.020705586

network_body._body_endoder.seq_layers.2.bias f4 [128]
0	0x3b3d2c55	0.0028865535
1	0xbd37f686	-0.044912837
2	0xbcf4d3a3	-0.029886073
3	0x3a0e2d2d	0.0005423602
4	0xbb97e3fb	-0.0046353317
5	0x3d81a127	0.063295655
6	0xbccac728	-0.024753168
7	0xbd6b3181	-0.057420257
8	0xbcbac5cf	-0.0227994
9	0x3d251a3d	0.040308226
10	0x3c06b589	0.008221992
11	0xbc7dab63	-0.015482756
12	0x3be394fc	0.0069452506
13	0xbcf002e0	-0.029298246
14	0x3cfd5cd0	0.030928046
15	0x3cb1bf00	0.021697521
16	0x3c3968f1	0.011316524
17	0x3bafb9ea	0.005362739
18	0xba0c02b2	-0.0005340978
19	0xbc6a4a1a	-0.014299894
20	0xbd6fc076	-0.058533154
21	0x3aba7e75	0.0014228361
22	0x3d2b5dd2	0.04183752
23	0xbc5cc89c	-0.013475563
24	0x39e2a8ce	0.00043231848
25	0xbc04ed63	-0.008113238
26	0x3d072763	0.032996546
27	0xbcdbec9e	-0.026846226
28	0xbd30f053	-0.04319794
29	0xbc08249d	-0.008309511
30	0x3d074ffa	0.033035256
31	0xbc932aee	-0.017964806
32	0xbc22fdf0	-0.009948239
33	0xbcaa8048	-0.020813122
34	0xbc61dd12	-0.013785617
35	0x3cae084f	0.021244196
36	0x3c2de9f9	0.010614865
37	0xbca8a1c1	-0.020584943
38	0x3d634689	0.05548719
39	0xbd71ff1b	-0.05908118
40	0xbc13a630	-0.00901179
41	0xbc32ca29	-0.010912457
42	0x3d3f2a79	0.046671364
43	0x3c4cdba5	0.012503539
44	0x3ceb422e	0.02871808
45	0xbd43393d	-0.04766201
46	0x396172fd	0.00021500509
47	0x3b7a836f	0.0038225313
48	0x3a586a0a	0.0008255547
49	0xbc63a2d5	-0.013893803
50	0xbc44f74a	-0.012021849
51	0xbd276dca	-0.040876187
52	0xbc0932a4	-0.00837389
53	0xbbc2b11d	-0.0059415237
54	0xbca4b439	-0.020105468
55	0x3c93eea6	0.018058132
56	0x3cad4de1	0.0211553
57	0xbc2d5b8d	-0.010580909
58	0x3c9adbca	0.018903632
59	0x3cd756ba	0.026286472
60	0xbb3bc987	-0.0028654055
61	0x3cb6a25f	0.022294221
62	0xbc3a86bc	-0.011384662
63	0xbcfb7afb	-0.03069829
64	0xbd290045	-0.041260023
65	0xbd7c982d	-0.061668564
66	0x3c9737e7	0.018459274
67	0x3c5f01d6	0.013611278
68	0xbc5de1cf	-0.0135426065
69	0xbd22ce36	-0.03974744
70	0xbd05f059	-0.032699917
71	0xbdabce60	-0.08388972
72	0xbd356122	-0.044282086
73	0x3c80a48c	0.015703462
74	0xbd0797f5	-0.033103902
75	0xbcf0116f	-0.029305188
76	0xbc2369ff	-0.009974002
77	0x3cb0f05e	0.021598991
78	0x3c78c007	0.015182502
79	0xbcfc3e69	-0.030791478
80	0xbd557b79	-0.052119706
81	0x3c67fc90	0.014159337
82	0x3d276458	0.04086718
83	0xbb9da3f0	-0.0048108026
84	0xbc94f5d1	-0.01818362
85	0x3a249d81	0.00062795734
86	0xbcede56f	-0.029040067
87	0xbd224701	-0.039618496
88	0xbd3c40bc	-0.045960173
89	0x3cd19c3a	0.02558719
90	0x3c4f6820	0.012659103
91	0x3d2d44bc	0.04230188
92	0x3bcbc757	0.0062188315
93	0xbd2e6786	-0.042579196
94	0x3b746500	0.0037291646
95	0xbc4a2258	-0.01233729
96	0xbd2993f0	-0.04140085
97	0x3c42bd06	0.011885887
98	0xbca417c5	-0.020030865
99	0x3d8fd95b	0.07023879
100	0xbc8b44a9	-0.017000513
101	0xbd03fc18	-0.032222837
102	0xbb9c454a	-0.004769002
103	0xbd9ae67f	-0.07563495
104	0xbd20391d	-0.039116967
105	0x3b01b6c2	0.001979277
106	0xbb382daf	-0.0028103401
107	0xbbe383df	-0.0069432105
108	0x3c951c67	0.01820202
109	0xbcfbc2ca	-0.030732531
110	0x3ccf3174	0.025292136
111	0x3caaf7cc	0.020870112
112	0x3ca86547	0.020556105
113	0x3b00f7c2	0.0019678925
114	0xbd88bbe6	-0.06676464
115	0xbbcecc6d	-0.0063109905
116	0xbbada095	-0.005298684
117	0xbcadaef3	-0.021201586
118	0xbd842255	-0.06451861
119	0xbcc7d952	-0.024395619
120	0xbcb822ad	-0.022477472
121	0xbcf1813b	-0.029480567
122	0x3caa8dea	0.020819623
123	0xbcade60e	-0.021227863
124	0x3c85ce35	0.016333679
125	0x3cde7fa7	0.027160479
126	0xbd8c1f9c	-0.068419665
127	0xbbf476e0	-0.00746046

network_body._body_endoder.seq_layers.2.weight f4 [128, 128]
0	0x3d3872a9	0.045031223
1	0x3da3bb42	0.07994701
2	0xbe81854a	-0.25297004
3	0xbe44fe1e	-0.19237563
4	0xbd137199	-0.035997007
5	0xbb868419	-0.0041051027
6	0xbd276983	-0.04087211
7	0x3d76a261	0.06021345
8	0xbca0d589	-0.019633071
9	0xbe19afd8	-0.15008485
10	0xbe01de94	-0.12682563
11	0x3d879b09	0.066213675
12	0x3d06d5e4	0.032918826
13	0x3d9510c0	0.072785854
14	0xbd8bb7fd	-0.06822202
15	0xbd8a55d2	-0.0675465
16	0x3e090ec1	0.13384534
17	0xbb6ed461	-0.0036442506
18	0x3e01fb3f	0.12693499
19	0xbe7a670b	-0.2445337
20	0xbe341bcc	-0.17588729
21	0xbd054e63	-0.03254546
22	0xbdce9d31	-0.10088576
23	0x3d2d22de	0.04226958
24	0x3d1ebf86	0.03875687
25	0x3e3bd3d9	0.18342532
26	0xbd232685	-0.039831657
27	0x3d0ab628	0.033865124
28	0x3cbd6ac3	0.023122197
29	0xbd25c4bc	-0.040470824
30	0xbe2d2e12	-0.16912106
31	0xbde7607e	-0.11297701
32	0xbd9b7b5b	-0.075918876
33	0xbc95285f	-0.018207727
34	0xbdd23383	-0.10263731
35	0x3e01e314	0.1268428
36	0x3dadb535	0.08481828
37	0x3c0a96e4	0.008458827
38	0x3d78940e	0.06068807
39	0xbe414a4d	-0.18876
40	0xbdc229e1	-0.09480644
41	0xbe31fdbc	-0.17381948
42	0xbe811c19	-0.2521675
43	0x3e0f1c6f	0.1397569
44	0x3d62a027	0.055328514
45	0x3c65bd66	0.014022207
46	0xbca28540	-0.01983893
47	0xbd139fee	-0.036041193
48	0xbdd1507f	-0.102204315
49	0xbe31de26	-0.17369899
50	0xbd3978ac	-0.045281097
51	0xbdaedfba	-0.08538766
52	0xbd097046	-0.033554338
53	0x3dcb571b	0.099287234
54	0xbe24b3d6	-0.16084227
55	0xbc1a256f	-0.009408339
56	0xbd05c371	-0.03265709
57	0xbce2faa3	-0.027707404
58	0x3ab84aff	0.0014060437
59	0xbe17a18a	-0.14807716
60	0x3dd595a1	0.1042893
61	0xbd79c91e	-0.060982816
62	0x3db246cd	0.087049104
63	0x3e073857	0.13205086
64	0xbe1feaa6	-0.15616855
65	0x3d89cbbf	0.067283146
66	0x3bd7dc67	0.0065875533
67	0xbe27d889	-0.16391195
68	0xbdca7f4c	-0.09887561
69	0xbd648b34	-0.055796817
70	0xbd351d1b	-0.04421721
71	0x3b438413	0.002983336
72	0xbd8358d8	-0.0641343
73	0xbe1941e9	-0.14966549
74	0x3dbcd9a9	0.09221203
75	0xbc032714	-0.008004922
76	0xbb9da4dd	-0.004810913
77	0x3e4af982	0.19821742
78	0xbe029dcd	-0.12755509
79	0x3d6d8fa5	0.05799832
80	0x3da2b3ea	0.07944472
81	0x3e27d3ce	0.16389391
82	0xbe1bd7ce	-0.15219042
83	0xbd853c9b	-0.065057
84	0xbb99ac4e	-0.00468973
85	0x3d685980	0.05672598
86	0x3e286e77	0.16448389
87	0x3c7efd2f	0.015563293
88	0xbe28c74b	-0.16482274
89	0xbe258b8c	-0.16166514
90	0xbd2086b1	-0.03919095
91	0xbd9ea1f6	-0.07745735
92	0x3c950e37	0.018195255
93	0xbd6725ed	-0.056432653
94	0xbe29a42b	-0.16566531
95	0x3d957bb4	0.07298985
96	0xbe4faa63	-0.20279841
97	0xbde5bb06	-0.112173125
98	0xbb6270ff	-0.0034552214
99	0xbe047ceb	-0.12938277
100	0xbe2593f1	-0.16169716
101	0xbd9df2f3	-0.077123545
102	0xba1e9456	-0.00060493255
103	0x3d20dd95	0.039273817
104	0x3d0df7fb	0.03466032
105	0x3c8dcc3a	0.017309297
106	0x3cc160ab	0.023605665
107	0x3e2946e8	0.16530955
108	0xbd92b08d	-0.07162581
109	0xbd837d1d	-0.06420348
110	0xbe2defe8	-0.16986048
111	0xbdcbbd8b	-0.09948262
112	0xbe521e73	-0.20519428
113	0x3ce0985c	0.0274164
114	0x3da8a3d4	0.08234373
115	0xbdbcd51a	-0.092203334
116	0x3b5e1289	0.003388556
117	0x3d5053d6	0.050861202
118	0xbca47af3	-0.020078158
119	0xbd013bf3	-0.031551313
120	0xbd1f1a38	-0.038843364
121	0x3c50e1eb	0.012749176
122	0x3d9bbbfc	0.076042145
123	0xbd16eb52	-0.036845513
124	0xbb911f18	-0.0044287555
125	0xbd583be5	-0.052791495
126	0xbd5ed08c	-0.054398105
127	0xbd802919	-0.06257839
128	0x3cb9b98b	0.022671482
129	0xbe4fd354	-0.20295459
130	0xbce0c9ba	-0.02743994
131	0x3da09689	0.07841212
132	0xbc178d52	-0.009250002
133	0xbcf0c719	-0.029391812
134	0xbde4d340	-0.11173105
135	0xbd5e166e	-0.05422061
136	0xbe7414ee	-0.23836109
137	0xbd296f39	-0.041365836
138	0xbe4b681d	-0.19863935
139	0xbd7a8f27	-0.061171677
140	0xbc2ed46a	-0.010670761
141	0xbda7c1ed	-0.08191285
142	0x3db5e252	0.08881058
143	0x3d923320	0.071386576
144	0x3d17bdb8	0.037046164
145	0xbdfde69f	-0.12397503
146	0xbe1557e9	-0.14584316
147	0xbd8b60ac	-0.06805548
148	0x3d31e45e	0.04343068
149	0xbdfc9f63	-0.12335088
150	0x3e12605d	0.14294572
151	0xbe26b5f4	-0.16280347
152	0xbcd413d6	-0.025888365
153	0xbdd0cb4b	-0.10195025
154	0xbdf1b04e	-0.118012056
155	0x3dea1817	0.11430376
156	0x3d3d0461	0.046146754
157	0xbdb8c7c8	-0.0902248
158	0xbdfbdc85	-0.1229792
159	0x3d312be0	0.043254733
160	0x3e10da0e	0.14145681
161	0xbd2df62f	-0.042471107
162	0xbd1c63c2	-0.038181074
163	0x3de77f14	0.11303535
164	0xbe1a8c5d	-0.15092607
165	0x3d0d9d75	0.03457399
166	0xbd8a8d6e	-0.06765257
167	0xbd00ef69	-0.03147832
168	0x3b28487f	0.0025677977
169	0xbd526a3c	-0.051370844
170	0x3d61c0c2	0.05511547
171	0x3d8752c2	0.06607582
172	0x3cf06c89	0.029348629
173	0xbd8f8f4c	-0.070097536
174	0x3cb62260	0.022233188
175	0xbc71d585	-0.01476038
176	0xbda53076	-0.08065884
177	0x3d8f3771	0.069929965
178	0xbd63458c	-0.055486247
179	0xbe5a24ee	-0.2130315
180	0xbdaa8b53	-0.08327355
181	0xbe40866c	-0.18801278
182	0xbe20efb8	-0.15716445
183	0x3dad522f	0.08462941
184	0x3e09a97f	0.13443564
185	0xbbbb385e	-0.0057135066
186	0xbdcca1fd	-0.09991834
187	0xbdd1b40f	-0.102394216
188	0x3ea9eb37	0.33187267
189	0x3c73ad9f	0.014872937
190	0xbbaf20f5	-0.005344505
191	0x3e489e7e	0.1959171
192	0x3d0b1b97	0.03396186
193	0x3e16b08c	0.14715785
194	0x3b2f1f4e	0.002672154
195	0xbdf279d9	-0.11839647
196	0x3b29ae86	0.0025891378
197	0x3da741dc	0.081668586
198	0xbe819981	-0.25312427
199	0xbdce88c5	-0.100846805
200	0xbda2863a	-0.07935758
201	0x3d80820c	0.062748045
202	0x3d8ea206	0.06964497
203	0xbd4e6f7f	-0.0503993
204	0xbe8f4193	-0.27979717
205	0xbdc64eaa	-0.09682973
206	0x3d14688b	0.036232512
207	0xbd2f254b	-0.042760175
208	0xbdb563e1	-0.08856941
209	0x3c0f0bca	0.008730838
210	0xbdf8ebd4	-0.12154356
211	0x3dc48c22	0.09597041
212	0xbdd63f91	-0.10461343
213	0x3e0477b4	0.12936288
214	0x3e2ef3ec	0.17085236
215	0xbe6ca6a9	-0.23110451
216	0x3e657be8	0.22410548
217	0xbe06ec3a	-0.13176051
218	0x3e0fac53	0.1403058
219	0x3e592b8a	0.21208015
220	0x3d87a3ae	0.06623016
221	0xbd919711	-0.07108892
222	0xbd427c5a	-0.047481872
223	0xbd04b1f5	-0.032396276
224	0xbdd71c64	-0.10503462
225	0xbd4abef4	-0.049498513
226	0xbdb0225d	-0.08600304
227	0x3df50a0b	0.11964806
228	0xbdf1590c	-0.117845625
229	0xbdbc126a	-0.091832
230	0xbd843fad	-0.06457458
231	0xbdebc6df	-0.11512541
232	0x3d865421	0.06559015
233	0xbd800a82	-0.06252004
234	0x3ce3437e	0.027742144
235	0xbc2594b3	-0.010106253
236	0x3d6245c5	0.05524232
237	0x3d8db413	0.06919112
238	0x3bc21fb8	0.0059241913
239	0xbe8dbe10	-0.2768407
240	0x3c5cfddf	0.013488262
241	0xbd966809	-0.07344062
242	0x3d099763	0.03359164
243	0x3d6eeb4b	0.05832986
244	0x3da2e420	0.07953668
245	0xbe459d0c	-0.1929819
246	0xbdc39aa3	-0.09550979
247	0x3d105a96	0.03524264
248	0x3de1dc6e	0.11028372
249	0xbdac9f74	-0.08428851
250	0x3d00c85b	0.031441074
251	0x3d0df8c6	0.034661077
252	0xbdbcc979	-0.09218115
253	0x3d3f11da	0.046647884
254	0xbe1f840a	-0.15577713
255	0xbbdfe810	-0.006833084
