FPS AI/Assets/Models/FPS Agent.onnx (onnx, 259246 bytes, 7 tensors)

action_model._continuous_distribution.mu.weight f4 [1, 128]
0.038104877 -0.013956405 0.008310495 0.025261916 0.0310911 0.055913247 -0.007827981 -0.021814747
0.028327128 0.06766778 -0.00686557 0.014652858 0.011260429 -0.0471683 0.018197298 -0.0066239247
0.004821312 -0.009195031 0.012904948 0.013301998 -0.013954251 0.060211785 -0.0065791537 0.021009024
-0.028599177 -0.034916863 -0.019637093 -0.029721709 -0.013898996 -0.033547092 -0.048148997 0.016273163
-0.005831673 -0.040141616 -0.014739924 -0.0013533076 0.005740176 -0.006889737 0.0030590424 -0.0045261956
-0.010544851 -0.02172863 -0.02931588 -0.05122515 0.0020239789 0.028032374 -0.024614109 -0.02654826
-0.07230218 -0.013398272 -0.012516348 0.045440517 -0.02531775 0.089491315 0.021750383 0.034171842
0.04157475 0.022599468 0.017301586 0.020610822 0.011273681 -0.0346825 -0.0029264914 -0.0027916182
0.05870606 0.027734723 -0.014582212 -0.0031463546 0.085162275 0.015088368 0.062173866 -0.015024697
0.05963121 -0.00045380314 -0.018564422 -0.071396455 0.022644665 -0.050051313 -0.038190044 -0.017336437
0.024627734 0.025129857 -0.011944915 -0.002829841 0.020769626 0.014515851 -0.022602957 0.06603282
0.081502885 -0.06542989 0.013907522 0.025889691 0.012789543 -0.027227804 -0.036797427 -0.005418476
-0.009013146 0.01139383 -0.042843904 0.056106612 -0.005967727 -0.056786094 -0.0028174298 -0.065698534
-0.02277483 0.02930742 0.0033247252 0.03627539 0.044132754 0.0035637452 -0.0016365711 0.02025573
-0.0011498414 -0.0023527741 -0.044520643 -0.00025401157 0.028286409 0.012944904 -0.01352769 0.051584538
-0.03451518 0.040078033 0.06424209 0.026126677 0.048018187 -0.01579349 0.061138563 -0.02565906
00000000: dc13 1c3d 68a9 64bc be28 083c 14f2 ce3c
00000010: c3b2 fe3c 4a05 653d ef40 00bc d7b4 b2bc
00000020: 4b0e e83c 6895 8a3d 93f8 e0bb 8a12 703c
00000030: aa7d 383c 8c33 41bd 8012 953c 820d d9bb
00000040: 19fc 9d3b c1a6 16bc 466f 533c a0f0 593c
00000050: 5fa0 64bc a2a0 763d f195 d7bb 1e1b ac3c
00000060: d248 eabc fc04 0fbd f8dd a0bc f17a f3bc
00000070: 9db8 63bc ad68 09bd e237 45bd 4c4f 853c
00000080: 9e17 bfbb 896b 24bd b97f 71bc 7861 b1ba
00000090: 1618 bc3b 4ec3 e1bb 377a 483b 7b50 94bb
000000a0: 50c4 2cbc 3d00 b2bc db27 f0bc 76d1 51bd
000000b0: bba4 043b 26a4 e53c 87a3 c9bc bd7b d9bc
000000c0: 2a13 94bd 6d84 5bbc 5e11 4dbc d61f 3a3d
000000d0: 2c67 cfbc 3947 b73d dc2d b23c c6f7 0b3d
000000e0: 494a 2a3d 8522 b93c 0ebc 8d3c 07d8 a83c
000000f0: 3fb5 383c 3d0f 0ebd 61ca 3fbb 95f3 36bb
00000100: c475 703d ee33 e33c 3bea 6ebc 1233 4ebb
00000110: 8f69 ae3d 3435 773c 06aa 7e3d 262a 76bc
00000120: db3f 743d 6dec edb9 6a14 98bc 4e38 92bd
00000130: 4e81 b93c 9b02 4dbd 2a6d 1cbd 2505 8ebc
00000140: 1ac0 c93c 21dd cd3c 9bb4 43bc db74 39bb
00000150: 1025 aa3c e4d3 6d3c d629 b9bc 373c 873d
00000160: fcea a63d 1b00 86bd 60dc 633c 9e16 d43c
00000170: 3b8b 513c d80c dfbc e6b8 16bd 798d b1bb
00000180: e0ab 13bc 30ad 3a3c 177d 2fbd 0cd0 653d
00000190: ec8c c3bb 8998 68bd a1a4 38bb f48c 86bd
000001a0: 4892 babc 1d16 f03c a2e3 593b 8195 143d
000001b0: 8cc4 343d b98d 693b 3782 d6ba 58ef a53c
000001c0: 46b6 96ba 0031 1abb 475b 36bd db2c 85b9
000001d0: e6b8 e73c dd16 543c 3fa3 5dbc 4f4a 533d
000001e0: ca5f 0dbd dd28 243d 5b91 833d 9d07 d63c
000001f0: b8ae 443d 5961 81bc 6e6c 7a3d f332 d2bc

action_model._discrete_distribution.branches.0.bias f4 [2]
0.015180802 -0.015180806
00000000: e6b8 783c eab8 78bc

action_model._discrete_distribution.branches.0.weight f4 [2, 128]
0.03668134 0.015432487 -0.037064217 -0.00027156464 0.07568767 0.047916174 0.009819469 -0.027946917
0.020574652 0.03134956 -0.036851525 -0.049440764 -0.036830783 0.029511558 -0.0422821 0.044445563
-0.031751893 -0.015453507 0.033354748 0.026081547 -0.07582462 -0.024344524 -0.05619829 0.030105775
-0.01276063 0.03246378 -0.050547834 0.03641096 0.047001354 0.020606993 -0.01860745 -0.016436504
0.0011578195 0.021206006 0.11582682 0.035491087 -0.03030767 -0.01941209 -0.04765156 0.046356805
-0.015561382 0.03955242 0.066506214 0.004767531 0.023245208 -0.00065334997 -0.05240425 -0.033869583
-0.024490457 -0.024189333 0.039933164 0.045666832 0.049576413 0.013273528 -0.015838124 0.037844397
0.052850224 0.041843653 -0.044634134 0.044490896 -0.02652529 -0.013775444 -0.03765313 -0.012456747
0.04387015 0.07538236 -0.037120022 0.021345848 0.07274991 -0.044624962 -0.032200795 -0.026688179
-0.059038244 0.028463496 0.017792284 -0.005182236 0.052195102 -0.017171916 -0.007968999 0.020743951
0.025267094 0.045276683 0.057052802 -0.03515098 0.032467086 0.017667005 -0.023603462 -0.027900908
-0.0559656 -0.049808074 -0.015365838 0.0820687 -0.039329376 -0.05389436 -0.01969022 -0.025074497
-0.039517608 -0.012878374 -0.058166694 -0.06732189 -0.019879198 0.010291081 -0.03327012 0.01560495
0.02896937 -0.043620553 -0.03171786 -0.042322855 -0.020577934 -0.015019959 -0.05117061 -0.042075083
-0.06008594 -0.057496957 0.00644614 -0.020304682 -0.041193515 0.03317405 -0.001646002 0.05292661
0.030048508 -0.043807786 -0.05365752 0.044101886 0.03513453 -0.018802682 -0.037592907 -0.021247808
-0.031958397 0.004176472 0.027729718 0.017968379 -0.06872461 -0.028242853 -0.018452458 0.0065776873
-0.015926398 -0.043786846 0.031150201 0.050176945 0.048947357 -0.05126228 0.049086366 -0.040417705
0.040749624 0.023000028 -0.03559799 -0.037925895 0.067783535 0.035384472 0.041806318 -0.039825745
0.013351296 -0.04650558 0.043098718 -0.043553412 -0.03153708 -0.013321626 0.038067147 0.018982876
0.0040843496 -0.012399581 -0.105273776 -0.021486284 0.040847573 0.024750505 0.044764463 -0.056421857
0.028340636 -0.041953698 -0.07902891 -0.0032501984 -0.037919495 -0.0236758 0.042960994 0.0281165
0.0036488627 0.008240438 -0.04505649 -0.03242855 -0.052155357 -0.00137587 0.029633844 -0.037881903
-0.062361162 -0.053376965 0.03307842 -0.03293428 0.02811171 0.026562791 0.02260154 0.022488918
-0.0412945 -0.067222856 0.032630872 -0.04654524 -0.06870825 0.047924593 0.05112284 0.021023177
0.063600145 -0.04394073 0.0011716646 -0.004893375 -0.038848054 0.012558929 0.028838834 0.0009387102
-0.038380537 -0.039522544 -0.05946453 0.012642479 -0.045813058 -0.035291668 0.03464828 0.0049127266
0.03494351 0.054546624 0.011955668 -0.07730439 0.020384694 0.050632846 0.025091868 0.025819473
0.025220625 0.021357067 0.0437405 0.045480393 0.020286534 -0.0046353433 0.023272838 -0.034434367
-0.026628086 0.051555768 0.036610294 0.036786646 0.047588315 0.015171526 0.029624067 0.043124124
0.04796491 0.036103647 -0.0071813064 0.04101916 0.0558748 -0.032637052 0.009144786 -0.027646344
-0.006619303 0.068973646 0.062115174 -0.05276662 -0.06357074 0.030948026 0.029355122 0.044868324
00000000: 2c3f 163d 8bd8 7c3c a6d0 17bd ca60 8eb9
00000010: 2302 9b3d c043 443d d7e1 203c eff0 e4bc
00000020: 2c8c a83c 6568 003d a0f1 16bd 6682 4abd
00000030: e0db 16bd 39c2 f13c ff2f 2dbd 8d0c 363d
00000040: 460e 02bd b530 7dbc fd9e 083d f8a8 d53c
00000050: f049 9bbd 2b6e c7bc 2e30 66bd 63a0 f63c
00000060: f611 51bc bef8 043d 3f0b 4fbd a923 153d
00000070: 7e84 403d ffcf a83c a76e 98bc d9a5 86bc
00000080: fac1 973a 38b8 ad3c 9d36 ed3d 1a5f 113d
00000090: ca47 f8bc 1a06 9fbc 482e 43bd a2e0 3d3d
000000a0: 2bf5 7ebc b801 223d 6934 883d f338 9c3b
000000b0: bc6c be3c 9345 2bba d7a5 56bd d5ba 0abd
000000c0: 36a0 c8bc b528 c6bc f590 233d 250d 3b3d
000000d0: a310 4b3d 3679 593c f4be 81bc ba02 1b3d
000000e0: 7a79 583d 4064 2b3d 48d2 36bd 163c 363d
000000f0: 914b d9bc 66b2 61bc 2b3a 1abd 6217 4cbc
00000100: 30b1 333d 1162 9a3d 2a0b 18bd 7ddd ae3c
00000110: e8fd 943d aac8 36bd fbe4 03bd 2ba1 dabc
00000120: 16d2 71bd 472c e93c 20c1 913c bfcf a9bb
00000130: 88ca 553d 1eac 8cbc 6890 02bc 38ef a93c
00000140: f0fc ce3c 0b74 393d 33b0 693d 79fa 0fbd
00000150: 35fc 043d 65ba 903c 0c5c c1bc 7290 e4bc
00000160: 2f3c 65bd 8d03 4cbd ffc0 7bbc a213 a83d
00000170: d717 21bd 55c0 5cbd 624d a1bc 0869 cdbc
00000180: 37dd 21bd d1ff 52bc 3340 6ebd 0fe0 89bd
00000190: b3d9 a2bc ec9b 283c 4046 08bd e7ab 7f3c
000001a0: 2c51 ed3c 77ab 32bd 96ea 01bd bb5a 2dbd
000001b0: 0e93 a8bc 4616 76bc 4698 51bd ec56 2cbd
000001c0: ad1c 76bd ee81 6bbd 243a d33b 0156 a6bc
000001d0: 88ba 28bd 83e1 073d aabe d7ba 93c9 583d
000001e0: 4a28 f63c cb6f 33bd fdc7 5bbd 2ea4 343d
000001f0: 3ae9 0f3d 1508 9abc 05fb 19bd e20f aebc
00000200: cfe6 02bd c9da 883b 6f29 e33c 6c32 933c
00000210: 7dbf 8cbd 8e5d e7bc 9c29 97bc a489 d73b
00000220: 1478 82bc d659 33bd b52e ff3c 5786 4d3d
00000230: 067d 483d 66f8 51bd c90e 493d 098d 25bd
00000240: 14e9 263d 8e6a bc3c 33cf 11bd 2f58 1bbd
00000250: 18d2 8a3d 4fef 103d 1a3d 2b3d 5220 23bd
00000260: 65bf 5a3c a37c 3ebd 4888 303d 1065 32bd
00000270: 062d 01bd f342 5abc 4cec 1b3d fa81 9b3c
00000280: 02d6 853b 9d27 4bbc c799 d7bd 0104 b0bc
00000290: c94f 273d 92c1 ca3c f15a 373d 9b1a 67bd
000002a0: 9f2a e83c a4d7 2bbd e9d9 a1bd 4801 55bb
000002b0: 7951 1bbd c0f3 c1bc def7 2f3d 9354 e63c
000002c0: c221 6f3b e702 073c 278d 38bd cdd3 04bd
000002d0: dba0 55bd 8956 b4ba adc2 f23c 0e2a 1bbd
000002e0: 6b6e 7fbd cea1 5abd 3d7d 073d 18e6 06bd
000002f0: 874a e63c 369a d93c dd26 b93c ae3a b83c
00000300: 6c24 29bd 23ac 89bd f3a7 053d 39a6 3ebd
00000310: e9b6 8cbd 944c 443d 2f66 513d cc38 ac3c
00000320: cb40 823d 32fb 33bd 8a92 993a 9b58 a0bb
00000330: 231f 1fbd f7c3 4d3c 6b3f ec3c c613 763a
00000340: e934 1dbd 64e2 21bd 1491 73bd 6622 4f3c
00000350: 79a6 3bbd ff8d 10bd 5beb 0d3d f0fa a03b
00000360: ed20 0f3d 486c 5f3d b5e1 433c c451 9ebd
00000370: cdfd a63c 6364 4f3d 768d cd3c 5c83 d33c
00000380: 7c9b ce3c 04f5 ae3c 3d29 333d a649 3a3d
00000390: f22f a63c 14e4 97bb aea6 be3c 0d0b 0dbd
000003a0: 2523 dabc 242c 533d adf4 153d 98ad 163d
000003b0: f7eb 423d fe91 783c 2cae f23c eca2 303d
000003c0: da76 443d 6be1 133d 2a51 ebbb b503 283d
000003d0: f9dc 643d 6eae 05bd 03d4 153c 967a e2bc
000003e0: bde6 d8bb 0e42 8d3d 7b6c 7e3d d021 58bd
000003f0: 6031 82bd b786 fd3c 277a f03c d9c7 373d

network_body._body_endoder.seq_layers.0.bias f4 [128]
0.0032305392 0.0018216323 -0.013401142 0.014559117 0.0014004515 0.0061838864 0.008079153 -0.012935165
0.0076177213 0.009230432 0.010554497 0.020695047 0.0143900905 -0.003256588 0.0058041867 0.003109047
-0.0028334393 0.015663674 0.007918749 0.008816729 0.004842235 0.012719341 0.0056154192 0.012599304
0.006306808 0.0089923525 0.0012611477 0.0044566416 -0.0027408071 0.009606349 0.010790098 0.008231429
-0.0041280566 0.021861816 0.0062724296 0.0022202912 0.0018565353 -0.016981238 0.0037855634 0.013148891
0.011384528 0.0059308875 -0.0073233903 0.022280132 0.007436579 0.0035934076 0.013993558 0.014580373
0.01077635 0.011213542 0.014627771 -0.004999455 0.0064702253 0.0143787535 0.010780949 0.0121289445
-0.0015888686 0.015244071 0.0072182994 -0.0022190374 0.020301273 -0.014287629 0.017813675 -0.014394325
0.007291467 0.009649685 0.015737636 0.005929229 -0.015576266 -0.0024870934 0.011208856 -0.004385068
0.0062641026 0.009503262 0.008349727 0.012940708 -0.0004412827 0.015296403 0.014401549 -0.008305793
-0.014474729 0.00053315575 -0.019788641 0.00936618 -0.0021735367 0.013609731 0.0050602183 0.031484213
0.02639744 0.014564599 0.017157389 0.008834379 0.017158326 0.017591484 0.002653143 -0.0033341865
0.013766407 0.013913671 0.015288544 -0.00039277633 0.0035224955 -0.009953312 -0.007298121 0.013750317
-0.008847242 0.022881957 0.01677617 0.00902631 0.009793982 0.009466299 0.012624106 -0.0058074994
0.015196964 0.00043790138 0.016013362 -0.0021475651 0.014993576 0.009718625 0.007231737 0.007177685
0.021343388 -0.009094774 0.0007034383 0.0053038835 0.0010379243 0.010541182 0.009244165 -0.012849222
00000000: 74b7 533b d6c3 ee3a 7790 5bbc 5d89 6e3c
00000010: 5b8f b73a 33a2 ca3b 6c5e 043c 04ee 53bc
00000020: 149e f93b 3d3b 173c c5ec 2c3c a988 a93c
00000030: 6ac4 6b3c 7b6c 55bb 0c31 be3b 27c1 4b3b
00000040: 39b1 39bb 1b51 803c a4bd 013c 0b74 103c
00000050: 9cab 9e3b c864 503c 8d01 b83b 506d 4e3c
00000060: 57a9 ce3b a954 133c 184d a53a 0509 923b
00000070: 1d9f 33bb f363 1d3c f4c8 303c 1edd 063c
00000080: a644 87bb 8d17 b33c f488 cd3b 4e82 113b
00000090: fd56 f33a 3d1c 8bbc 3717 783b 726e 573c
000000a0: 2c86 3a3c e457 c23b 0df9 efbb d384 b63c
000000b0: 8cae f33b 607f 6b3b 3c45 653c 84e2 6e3c
000000c0: 4a8f 303c 01b9 373c 52a9 6f3c 78d2 a3bb
000000d0: 2f04 d43b dd94 6b3c 94a2 303c 7bb8 463c
000000e0: 9541 d0ba 45c2 793c 7c87 ec3b 456d 11bb
000000f0: db4e a63c a916 6abc fced 913c 2dd6 6bbc
00000100: 42ed ee3b b619 1e3c 37ec 803c fa49 c23b
00000110: 9833 7fbc 81fe 22bb 59a5 373c 9eb0 8fbb
00000120: 1a43 cd3b 92b3 1b3c 4bcd 083c 4305 543c
00000130: f65b e7b9 c49d 7a3c 79f4 6b3c 0515 08bc
00000140: 6a27 6dbc 7ac3 0b3a ca1b a2bc 9b74 193c
00000150: e571 0ebb 59fb 5e3c 30d0 a53b 97f5 003d
00000160: 723f d83c 5ba0 6e3c a78d 8c3c 12be 103c
00000170: 9e8f 8c3c 041c 903c 5ae0 2d3b 5e82 5abb
00000180: 7f8c 613c 2af6 633c cd7c 7a3c 8ced cdb9
00000190: abd9 663b 3713 23bc 1425 efbb 0249 613c
000001a0: 06f4 10bc f172 bb3c 2e6e 893c 17e3 133c
000001b0: f076 203c 8918 1b3c 57d5 4e3c d64c bebb
000001c0: b0fc 783c 2196 e539 742e 833c 2abe 0cbb
000001d0: 9ea7 753c de3a 1f3c 35f8 ec3b c932 eb3b
000001e0: 54d8 ae3c 3f02 15bc f266 383a 33cc ad3b
000001f0: f60a 883a ecb4 2c3c d774 173c 8b85 52bc

network_body._body_endoder.seq_layers.0.weight f4 [128, 367]
0.032410793 -0.051491246 0.07504621 0.021890683 0.08196895 -0.01092139 -0.07904066 0.007853729
0.03263603 -0.004228931 -0.039974324 -0.005404065 -0.11831981 0.024090767 -0.06676552 -0.019206207
-0.058794193 0.036384944 -0.08275811 0.07445248 0.009737745 -0.058608267 0.031199051 0.070949405
-0.09318259 0.058768123 0.021218197 0.088197775 -0.05499041 0.056232043 -0.018363412 -0.022398865
-0.07421807 0.13857281 -0.022245297 0.025750924 -0.037856434 0.017079363 0.13698335 0.098444164
-0.11514314 0.15816179 -0.017002957 0.03657007 -0.056115236 -0.016909048 0.002740417 0.014950381
-0.015813021 0.06407623 -0.017467879 0.037487373 -0.007352082 -0.023574907 -0.13975675 0.020247858
0.0782059 -0.09816121 -0.0042566704 0.0844571 -0.06232341 -0.009526136 0.031635437 0.06865382
0.122056894 -0.15497613 0.016394867 0.045698166 0.05313118 0.021240983 -0.006354796 -0.06655222
0.17606482 -0.029094793 0.04267466 0.017561195 -0.02590648 0.109884724 0.0075677442 0.02731438
0.03093511 -0.023562638 -0.11599828 0.09880103 -0.04637121 0.06456701 -0.0019705053 0.043808624
0.11346108 -0.061341077 0.036263343 -0.070857845 -0.050545905 0.04446176 -0.08356811 0.016603721
0.06630152 0.03395916 0.11187175 -0.032732047 -0.053711623 0.011994276 0.06887863 0.009589965
0.14881873 0.068727285 -0.049326085 0.00928333 -0.03648182 -0.0015863759 0.006424049 0.024209384
0.07783149 0.051708017 0.03423566 0.11105153 0.051275358 -0.07815382 0.025816908 -0.0031183495
0.10745697 -0.04969942 0.03892495 0.07336058 -0.06922391 -0.030240223 -0.03126583 0.042571306
0.070714034 -0.016178668 0.028052302 0.102475144 0.015956802 -0.050218444 -0.0036168804 -0.08508143
0.04033075 0.0127105545 0.008669156 -0.004305901 -0.014643464 0.024983812 0.091454804 -0.000100591235
0.06182396 0.03045459 -0.009735086 -0.011194868 -0.03675014 0.025298372 0.027203778 -0.088885665
0.105875365 0.058540024 0.060988426 -0.05371483 -0.024212005 -0.022228925 -0.0019229433 0.04900559
0.082253404 -0.05178025 -0.12084049 0.008389065 -0.022690475 0.12998211 -0.05710174 0.07473294
-0.043623235 -0.041375767 -0.021444038 0.04290262 -0.012068898 0.010596587 -0.022893807 0.046027947
0.0101749515 0.038180154 -0.03805831 -0.025537018 0.027696382 0.030697074 -0.06825589 0.018101728
0.07977922 0.15606086 -0.033062685 0.05302688 0.10540261 -0.0075009903 -0.08254563 -0.011031899
0.031012783 -0.0018749676 0.06907803 0.027436847 -0.07928557 -0.06137244 0.030145198 0.002857358
0.015883103 -0.0010597189 -0.103852004 -0.120750085 0.028953582 0.048207603 -0.026547665 -0.07683257
0.038441125 -0.026381023 0.06503095 -0.07450383 0.035483 0.06318773 -0.028440582 -0.023969596
-0.054103937 -0.002261641 0.04218567 0.019548194 -0.026448732 -0.06892 0.02062196 0.04299588
0.06131339 0.020547427 -0.0099483 -0.029105935 -0.061921485 0.02623514 0.07659596 0.04044012
0.008718503 -0.019534418 -0.04223217 -0.08194924 -0.03133628 -0.05214485 -0.062717974 -0.052392744
-0.03325873 0.098919906 -0.007794591 0.1277534 0.056143373 0.118587464 -0.051477067 -0.06107549
0.06391159 -0.10249176 -0.08570909 0.095471606 -0.033455305 0.05220772 -0.025081122 0.013428813
00000000: 2ec1 043d 7ce8 52bd d4b1 993d 1754 b33c
00000010: 56df a73d a1ef 32bc 12e0 a1bd edac 003c
00000020: 5cad 053d d892 8abb 1ebc 23bd 9514 b1bb
00000030: a851 f2bd 005a c53c 5cbc 88bd 5656 9dbc
00000040: 2ed2 70bd 6108 153d 157d a9bd 8b7a 983d
00000050: 108b 1f3c 390f 70bd 2795 ff3c ec4d 913d
00000060: 84d6 bebd d8b6 703d c9d1 ad3c 09a1 b43d
00000070: a03d 61bd 9253 663d de6e 96bc d37d b7bc
00000080: a5ff 97bd 08e6 0d3e c53b b6bc 9af3 d23c
00000090: 590f 1bbd 05ea 8b3c 5d45 0c3e 189d c93d
000000a0: 2bd0 ebbd 2af5 213e c949 8bbc 7fca 153d
000000b0: 17d9 65bd d884 8abc 9198 333b 71f2 743c
000000c0: 4f8a 81bc 663a 833d cc18 8fbc 5c8c 193d
000000d0: bce9 f0bb 2a20 c1bc 651c 0fbe d6de a53c
000000e0: 6a2a a03d bf08 c9bd 8a7b 8bbb d8f7 ac3d
000000f0: d546 7fbd 8313 1cbc 2994 013d 609a 8c3d
00000100: f7f8 f93d 10b2 1ebe 874e 863c 002e 3b3d
00000110: 15a0 593d 9201 ae3c e43b d0bb 884c 88bd
00000120: 564a 343e 3458 eebc a0cb 2e3d 7fdc 8f3c
00000130: d439 d4bc 3e0b e13d d7fa f73b 68c2 df3c
00000140: a16b fd3c 6f06 c1bc 8290 edbd 3258 ca3d
00000150: bdef 3dbd b53b 843d 9823 01bb ac70 333d
00000160: 485e e83d c840 7bbd df88 143d eb1d 91bd
00000170: 3909 4fbd 891d 363d c225 abbd 8704 883c
00000180: 17c9 873d c318 0b3d 041d e53d 0a12 06bd
00000190: b800 5cbd a483 443c 3d10 8d3d 3b1f 1d3c
000001a0: f063 183e e4c0 8c3d 260a 4abd 1c19 183c
000001b0: f66d 15bd f1ed cfba d480 d23b c252 c63c
000001c0: 1e66 9f3d c9cb 533d b13a 0c3d fc6e e33d
000001d0: 1c06 523d 1c0f a0bd fb7d d33c 395d 4cbb
000001e0: 6612 dc3d 9e91 4bbd c56f 1f3d 123e 963d
000001f0: 44c5 8dbd 58ba f7bc 9910 00bd 405f 2e3d
00000200: 85d2 903d 2089 84bc f1cd e53c 7dde d13d
00000210: d7b7 823c dbb1 4dbd 2f09 6dbb 2c3f aebd
00000220: db31 253d ee3f 503c 1309 0e3c 8418 8dbb
00000230: 24eb 6fbc daaa cc3c a84c bb3d 82f4 d2b8
00000240: 1f3b 7d3d e87b f93c e97f 1fbc ae6a 37bc
00000250: 5187 16bd 883e cf3c 75da de3c b009 b6bd
00000260: 2fd5 d83d aac7 6f3d 00cf 793d 1504 5cbd
00000270: 4158 c6bc 6f19 b6bc 450b fcba 16ba 483d
00000280: 7974 a83d 8717 54bd 387b f7bd 4a72 093c
00000290: 60e1 b9bc 081a 053e 84e3 69bd 950d 993d
000002a0: 47ae 32bd a379 29bd 68ab afbc a8ba 2f3d
000002b0: a1bc 45bc 4f9d 2d3c cb8b bbbc cd87 3c3d
000002c0: d7b4 263c cb62 1c3d 08e3 1bbd 0233 d1bc
000002d0: 86e3 e23c 6e78 fb3c bec9 8bbd 134a 943c
000002e0: 4a63 a33d 6bce 1f3e bd6c 07bd b732 593d
000002f0: 53dd d73d deca f5bb af0d a9bd 23bf 34bc
00000300: 850e fe3c 79c1 f5ba c878 8d3d 3dc3 e03c
00000310: 7960 a2bd ab61 7bbd 10f3 f63c 8342 3b3b
00000320: 481d 823c 44e6 8aba 5cb0 d4bd d24b f7bd
00000330: 1030 ed3c 5675 453d 7d7a d9bc 655a 9dbd
00000340: 7174 1d3d 041d d8bc f22e 853d 7795 98bd
00000350: 9f56 113d 9268 813d 39fc e8bc e35b c4bc
00000360: 179c 5dbd 0a38 14bb e2ca 2c3d 8923 a03c
00000370: 03ab d8bc ee25 8dbd 62ef a83c 731c 303d
00000380: c023 7b3d 1453 a83c 32fe 22bc 926f eebc
00000390: 62a1 7dbd 14eb d63c 58de 9c3d 8aa4 253d
000003a0: 0dd8 0e3c a506 a0bc a4fb 2cbd 01d5 a7bd
000003b0: 795a 00bd d795 55bd 4872 80bd c699 56bd
000003c0: 4e3a 08bd 8596 ca3d c569 ffbb cad1 023e
000003d0: 98f6 653d fcdd f23d 9ed9 52bd 4b2a 7abd
000003e0: 14e4 823d 33e7 d1bd 3f88 afbd 9e86 c33d
000003f0: 6e08 09bd c3d7 553d ed76 cdbc 8604 5c3c

network_body._body_endoder.seq_layers.2.bias f4 [128]
0.011744146 0.00416979 0.0008506931 0.0024003014 0.010924764 0.008510657 -0.0092481775 -0.0062240865
-0.002066973 0.014589173 -0.0027088302 0.009128795 0.002296803 0.00747813 -0.0037213417 0.016051004
0.012724113 -0.007961428 0.014986083 0.015188837 0.0010889284 -0.008202766 0.0024115443 0.012688851
-0.002824031 0.014588399 0.010229091 0.011806148 0.011852498 -0.004413978 0.012973839 -0.005002745
-0.006801256 -0.006818056 0.01904652 0.0026142022 -0.0047955024 0.0035826392 -0.0010420791 0.020368228
-0.014152073 0.010457864 0.021381155 0.01282712 0.013522899 -0.006124086 0.005847614 0.008349066
0.002037641 0.0004910026 0.0139866965 0.011673565 0.018255614 0.013252808 0.0012745663 0.015789412
0.0063143866 0.016218023 0.004222987 0.016673408 0.0016510247 -0.0054092132 -0.00045562012 -0.010461454
0.015668169 0.017910618 -0.011573983 0.013959754 0.017275367 0.0048723887 0.017268976 -0.009660654
0.0045389934 0.013399384 -0.012173338 0.005394115 0.014354743 -0.0022554263 0.0027803709 -0.010410184
0.015517323 0.013667396 0.013090052 -0.0034499166 0.014788388 0.017254533 -0.012022743 -0.0006476243
0.00467997 -0.011598273 -0.011716754 0.027236156 -0.00756379 0.00032925326 -0.0076712496 -0.010917945
-0.00023221855 -0.010724642 0.013575521 0.0022042033 -0.0006845113 -0.0025248972 0.00549619 0.0013096528
-0.0027263623 -0.0028154007 -0.004873976 0.018456498 0.013721375 -0.0020385198 -0.008428258 0.007654456
-0.0031196226 0.016574636 -0.0014325285 0.011442352 -0.004502615 0.0026800553 -0.009855073 0.007863308
0.006154222 0.012130403 0.009212757 0.016225355 0.012085409 -0.016725296 0.0045773434 0.0005193249
00000000: 856a 403c bca2 883b 0c01 5f3a 604e 1d3b
00000010: c8fd 323c 4870 0b3c ab85 17bc 6cf3 cbbb
00000020: 0d76 07bb 6d07 6f3c a186 31bb f190 153c
00000030: f685 163b 1a0b f53b c1e1 73bb 657d 833c
00000040: cc78 503c a670 02bc 3088 753c 9ada 783c
00000050: 60ba 8e3a e564 06bc 000b 1e3b e6e4 4f3c
00000060: 6113 39bb 2e04 6f3c eb97 273c 936e 413c
00000070: fb30 423c 22a3 90bb 3a90 543c 11ee a3bb
00000080: 12dd debb 006a dfbb 7307 9c3c 0953 2b3b
00000090: 9723 9dbb b6ca 6a3b 5f96 88ba 45db a63c
000000a0: 19de 67bc 7657 2b3c 8827 af3c d728 523c
000000b0: 268f 5d3c 8fac c8bb 579d bf3b 85ca 083c
000000c0: f189 053b a0b6 003a 7528 653c 7b42 3f3c
000000d0: cc8c 953c 4e22 593c 590f a73a cc58 813c
000000e0: eae8 ce3b a9db 843c fc60 8a3b ac96 883c
000000f0: 3267 d83a c53f b1bb 4ce0 eeb9 8566 2bbc
00000100: 885a 803c 4ab9 923c cea0 3dbc 74b7 643c
00000110: 1285 8d3c 8fa8 9f3b ab77 8d3c b847 1ebc
00000120: d6bb 943b 1789 5b3c ae72 47bc 1ec1 b03b
00000130: 2830 6b3c c6cf 13bb e236 363b 7a8f 2abc
00000140: 5f3c 7e3c 37ed 5f3c a877 563c ff17 62bb
00000150: ff4a 723c 6159 8d3c 0afb 44bc 55c5 29ba
00000160: 6f5a 993b af06 3ebc a1f7 3fbc 5c1e df3c
00000170: abd9 f7bb a09f ac39 1b5f fbbb 2ee1 32bc
00000180: b17f 73b9 69b6 2fbc dd6b 5e3c 6574 103b
00000190: c770 33ba bf78 25bb 6219 b43b a8a8 ab3a
000001a0: c5ac 32bb 9682 38bb e0b5 9fbb 1532 973c
000001b0: 9ecf 603c b098 05bb ad16 0abc 3bd2 fa3b
000001c0: 9572 4cbb 88c7 873c aec3 bbba b478 3b3c
000001d0: ac8a 93bb dea3 2f3b 2c77 21bc 1bd5 003c
000001e0: 5ba9 c93b 99be 463c 1bf1 163c 09eb 843c
000001f0: e101 463c 7d03 89bc 8afd 953b 4e23 083a

network_body._body_endoder.seq_layers.2.weight f4 [128, 128]
-0.00079267356 -0.07861491 -0.11563183 -0.025123185 0.11168815 -0.027627053 0.004347617 0.061265107
0.045927305 -0.02339779 -0.020106317 -0.17112617 0.049710605 -0.13974124 0.0020027473 0.04463666
0.0868584 0.0022439072 -0.061858635 -0.002956912 0.02003806 0.13312076 0.08628586 -0.06960345
-0.043926578 -0.018136054 -0.10364856 0.16068499 0.013682789 0.0757697 0.020891786 0.012471775
-0.16235667 -0.18034644 0.1302116 0.016538277 0.029152183 -0.050371546 0.008329166 0.004350169
0.00070466823 -0.0061116097 0.0404778 0.06168745 0.026335336 -0.2703785 0.08700194 0.21232903
0.080225915 0.011595988 0.01427634 -0.098656386 -0.029716322 -0.07884159 0.07840713 0.24026464
0.018053368 -0.054016482 0.008058213 -0.081761934 -0.06014379 0.3235424 -0.14286396 -0.014243136
-0.023048153 0.01982479 -0.015328978 -0.18748997 -0.16844997 -0.012248912 0.091543995 0.23685601
-0.00634027 -0.0056625116 0.13083598 0.0133311115 -0.14263138 0.051854383 0.012686161 0.019117663
-0.0024871225 0.037235547 0.025626801 0.03143849 -0.1010568 -0.047520682 0.014323279 -0.02485969
-0.16871256 0.024371523 -0.08765717 -0.1747317 -0.10476874 0.059370294 -0.07408818 -0.12819645
0.20653675 -0.002678999 0.052358907 0.0143928025 0.031921744 0.05000418 0.07423582 0.03753602
-0.16125385 -0.041157108 0.030533513 0.076174945 -0.049731053 0.015386345 0.09634897 -0.04310042
-0.11394206 -0.20350471 0.017837794 -0.048861727 -0.1806864 -0.033085696 0.010294651 0.061537914
-0.13958558 0.040487844 0.19624999 -0.08750141 -0.035207234 -0.12078587 -0.028829252 -0.062395018
0.017381664 0.09907245 0.15466239 0.07862237 0.04731326 0.014857966 0.04503834 -0.055126246
-0.07469431 -0.1674172 0.023385188 0.11575033 -0.036762767 -0.086276546 0.0013620858 -0.0661665
0.13999651 -0.02604202 0.09503161 -0.062890515 -0.06950994 -0.04365179 -0.061354604 0.10337042
0.00050208374 -0.09187008 -0.013189532 0.041553415 -0.12984315 -0.043830093 0.14978626 -0.11706994
0.16656119 -0.13311945 0.00699301 -0.08667555 -0.15694444 0.09342 0.17169547 -0.006889479
-0.061561156 -0.0023327232 -0.10562072 -0.0010406338 0.019585295 -0.04967233 -0.063516706 0.010471606
-0.056267653 0.02370711 -0.0041935854 -0.008597223 0.025325198 0.04401958 -0.14541419 0.025569879
0.054605994 0.110433534 -0.034641743 -0.0990617 -0.03900207 0.05764243 0.09718304 0.073277906
0.08877139 0.07893215 0.14421582 -0.048093032 -0.17062506 -0.05906063 0.030075751 -0.042067323
0.031073749 0.06892528 -0.101613216 0.013112378 -0.002506044 -0.123873495 0.23701587 0.049853325
0.024501117 -0.07007032 -0.016359687 0.023548132 0.15903343 0.010740315 -0.0046975915 0.03153351
0.22192 -0.0072876955 0.112285875 -0.046467785 0.025954084 0.0416081 -0.19799171 -0.12562719
0.020572543 0.07331579 0.046517346 0.05808303 -0.0013799092 0.18237852 -3.908847e-05 -0.06800115
-0.2250577 0.062922865 -0.08523552 -0.13940851 -0.030466389 -0.08962488 0.041928876 0.017893096
0.049091835 -0.085027285 0.13074191 -0.028545994 -0.06654899 -0.08481371 -0.0627209 -0.059905622
0.0684042 -0.0056274724 0.123634875 -0.072771706 -0.007990159 -0.0096264975 0.016797168 0.052590232
00000000: 6ccb 4fba db00 a1bd 62d0 ecbd 23cf cdbc
00000010: c2bc e43d 2152 e2bc 7476 8e3b 1ff1 7a3d
00000020: 451e 3c3d b9ac bfbc 01b6 a4bc b33b 2fbe
00000030: 599d 4b3d 5418 0fbe 8640 033b eed4 363d
00000040: d1e2 b13d 840e 133b 7b5f 7dbd c0c8 41bb
00000050: dc26 a43c cf50 083e a4b6 b03d 418c 8ebd
00000060: 5bec 33bd 1092 94bc b245 d4bd 9b8a 243e
00000070: c72d 603c 252d 9b3d 4025 ab3c 6a56 4c3c
00000080: d440 26be bdac 38be 3156 053e 487b 873c
00000090: 8fd0 ee3c 6552 4ebd 0e77 083c dd8b 8e3b
000000a0: 7cb9 383a e643 c8bb 0dcc 253d fbab 7c3d
000000b0: 34bd d73c 0d6f 8abe 132e b23d c86c 593e
000000c0: 7c4d a43d 19fd 3d3c 4fe7 693c 5c0c cabd
000000d0: a56f f3bc b377 a1bd eb93 a03d ef07 763e
000000e0: a8e4 933c 6340 5dbd 9806 043c cd72 a7bd
000000f0: 5659 76bd 59a7 a53e ee4a 12be 0b5c 69bc
00000100: 7bcf bcbc 9967 a23c 6526 7bbc 5ffd 3fbe
00000110: 267e 2cbe a9af 48bc 6b7b bb3d 628a 723e
00000120: 0ac2 cfbb 978c b9bb def9 053e bc6a 5a3c
00000130: f60d 12be 4365 543d 9ed9 4f3c a59c 9c3c
00000140: fefe 22bb 4d84 183d 4cef d13c a5c5 003d
00000150: def6 cebd 0ca5 42bd 30ac 6a3c 8ca6 cbbc
00000160: fcc2 2cbe caa6 c73c 9a85 b3bd deec 32be
00000170: fe90 d6bd 442e 733d 8bbb 97bd ee45 03be
00000180: 5f7e 533e 2592 2fbb 4b76 563d cacf 6b3c
00000190: 60c0 023d 2fd1 4c3d f308 983d 5fbf 193d
000001a0: bb1f 25be 5b94 28bd 6b21 fa3c 9c01 9c3d
000001b0: cab2 4bbd 0217 7c3c 9c52 c53d 118a 30bd
000001c0: 745a e9bd 8a63 50be 9120 923c 3c23 48bd
000001d0: db05 39be de84 07bd e5aa 283c 2e0f 7c3d
000001e0: 86ef 0ebe 95d6 253d c2f5 483e f033 b3bd
000001f0: 7635 10bd 955e f7bd 532b ecbc eb91 7fbd
00000200: fe63 8e3c 7fe6 ca3d d15f 1e3e c404 a13d
00000210: 8dcb 413d d46e 733c 1f7a 383d 0fcc 61bd
00000220: 55f9 98bd 6a6f 2bbe 4b92 bf3c 820e ed3d
00000230: 8e94 16bd c2b1 b0bd 0488 b23a 4d82 87bd
00000240: 3f5b 0f3e 1356 d5bc ef9f c23d becc 80bd
00000250: 3a5b 8ebd 38cc 32bd f74e 7bbd dfb3 d33d
00000260: 459e 033a 6126 bcbd e818 58bc ea33 2a3d
00000270: 9af5 04be 2f87 33bd 9261 193e 5dc2 efbd
00000280: 048f 2a3e 7750 08be 9f25 e53b f382 b1bd
00000290: 0bb6 20be fc52 bf3d f0d0 2f3e 23c1 e1bb
000002a0: 8d27 7cbd 9ae0 18bb ad4f d8bd e065 88ba
000002b0: 5771 a03c 3775 4bbd 0c15 82bd 1991 2b3c
000002c0: e978 66bd 6a35 c23c 586a 89bb 5edb 0cbc
000002d0: ca76 cf3c e04d 343d 75e7 14be ec77 d13c
000002e0: 89aa 5f3d fa2a e23d 80e4 0dbd dce0 cabd
000002f0: a2c0 1fbd 781a 6c3d e707 c73d ba12 963d
00000300: c6cd b53d 2ea7 a13d 50ad 133e 33fd 44bd
00000310: 56b8 2ebe 8fe9 71bd 6c61 f63c c94e 2cbd
00000320: 608e fe3c b228 8d3d 971a d0bd 4dd5 563c
00000330: 713c 24bb 63b1 fdbd 4ab4 723e 0033 4c3d
00000340: 91b6 c83c 0781 8fbd c004 86bc 03e8 c03c
00000350: a9d9 223e 25f8 2f3c 41ee 99bb 4829 013d
00000360: ff3e 633e 9fcd eebb 23f6 e53d 0155 3ebd
00000370: a99d d43c 416d 2a3d 57be 4abe 6aa4 00be
00000380: c087 a83c 9726 963d f988 3e3d 79e8 6d3d
00000390: 12de b4ba 6fc1 3a3e edf2 23b8 3044 8bbd
000003a0: 8775 66be b4dd 803d f68f aebd 1bc1 0ebe
000003b0: a694 f9bc 408d b7bd 9dbd 2b3d 8b94 923c
000003c0: 8514 493d c922 aebd 35e1 053e 4ad9 e9bc
000003d0: d64a 88bd cfb2 adbd d173 80bd 995f 75bd
000003e0: 8017 8c3d a966 b8bb 4834 fd3d 5509 95bd
000003f0: 28e9 02bc 75b8 1dbc 379a 893c db68 573d
