FPS AI/Assets/Models/FPS Agent.onnx (onnx, 260286 bytes, 9 tensors)

action_model._continuous_distribution.log_sigma f4 [1, 3]
-0.6285427 -0.09010253 -0.40486643
00000000: 2de8 20bf ad87 b8bd a74a cfbe

action_model._continuous_distribution.mu.bias f4 [3]
0.0007953049 -0.009197087 0.010973296
00000000: 027c 503a 61af 16bc 57c9 333c

action_model._continuous_distribution.mu.weight f4 [3, 128]
0.00016366877 0.017890468 0.011031243 -0.0075161825 -0.046288647 0.020293707 -0.00014132506 0.0194484
0.019265998 -0.017065167 0.017943764 0.0038975368 -0.0041711023 0.013649967 0.023659004 0.0016542255
-0.025620164 -0.02518255 -0.026176332 0.0043921717 0.00020250256 -0.0040643765 0.03173384 0.042470276
-0.015506172 0.052963506 0.002990201 -0.030051554 -0.01517059 -0.02335934 0.0057344576 0.01329644
0.0060011325 -0.023901688 0.03952832 0.038267992 -0.019857729 0.023172153 0.010789133 -0.005005784
0.043272346 -0.029780885 0.00838257 0.018049745 -0.06156125 0.023088638 0.0381679 -0.008097105
0.0074609425 0.007823817 -0.027172506 0.0032833745 -0.021290133 -0.019024502 0.0007844729 -0.02127537
-0.005384103 -0.025926212 -0.011507777 0.036131766 0.021884665 0.0312592 -0.012877189 0.005900599
-0.036959264 0.020275984 0.05548481 -0.0337133 -0.076365925 -0.027386649 -0.014619172 0.025149211
0.013200409 -0.017975044 0.04421518 -0.006328307 -0.04203097 0.032322254 0.002267159 0.0024820804
0.030442042 -0.022869032 0.01512869 0.008754998 0.031150298 -0.03860227 0.031983238 -0.008465851
-0.029601641 0.0479061 -0.0013554055 0.0061320676 0.011093744 -0.003093669 0.006434978 -0.0043894425
0.0643524 -0.011478227 0.042139385 -0.021458765 0.011029938 -0.010093252 -0.020340594 0.0035702095
-0.045667447 0.009138282 0.06729331 0.0011726456 0.027251156 0.019798895 -0.051058065 -0.038425833
-0.0027184396 0.013311988 0.046961337 0.0036660566 -0.048510257 -0.010059836 -0.011944781 -0.034555215
0.023770237 -0.071108595 -0.016525263 0.038959716 0.0047340733 0.014484389 0.022237852 -0.0030991777
-0.00075914455 0.0039401446 0.0157933 -0.013879742 -0.005312069 0.032720737 -0.08512034 0.046402756
-0.016022518 0.01011032 -0.0008919813 -0.05090539 -0.019939229 -0.06539116 -0.023589185 -0.023084603
0.109650105 -0.03315058 -0.057455163 0.0196147 0.0133448085 0.021323174 0.019469181 -0.030980565
-0.07173206 0.029072616 -0.013736558 0.01480815 -0.023616774 0.014574215 -0.05064521 0.038647573
0.001561355 -0.021084383 -0.072946765 0.0047078296 0.0038926092 0.0021014686 0.015764138 -0.008904832
-0.019689608 0.023012234 -0.045612812 0.009977569 -0.06893965 0.0005830216 -0.026126591 0.0043814736
-0.005296426 -0.004833092 0.0026216689 -0.037609547 0.056183755 -0.022215286 -0.023844399 -0.04881242
-0.012527026 -0.018155837 0.027628167 0.010157245 0.013330005 -0.12448814 -0.017675603 -0.08315401
0.026011657 -0.033207636 -0.003629439 -0.016408617 -0.032224692 0.08614627 -0.001782494 -0.03910289
0.03493175 -0.042320702 0.0048311288 0.024906768 -0.070752844 0.021682724 0.008739328 0.0030588913
-0.06784377 0.14011493 0.009082252 0.007783814 -0.062285315 -0.0022434175 -0.05425467 0.03938171
0.034608323 -0.003931225 0.012153357 0.00505627 -0.032582037 -0.036726803 0.019235669 -0.029029218
-0.058691215 0.045863785 -0.066735774 -0.02608726 0.07300787 0.021225294 -0.08959718 -0.04448204
0.0504131 -0.03346313 -0.002709278 0.012484483 0.03275127 0.013024737 -0.015693355 0.003947168
-0.008424378 0.022281567 0.013080001 0.07327784 0.053514756 -0.031848967 -0.025865396 -0.028538492
-0.042767495 -0.03827738 -0.021738078 -0.018723058 0.0012665372 0.0044599543 -0.005124655 -0.029164845
00000000: 809e 2b39 088f 923c 63bc 343c 4f4a f6bb
00000010: 2a99 3dbd fd3e a63c a830 14b9 4052 9f3c
00000020: bad3 9d3c 40cc 8bbc cdfe 923c d16d 7f3b
00000030: bead 88bb 1ca4 5f3c 87d0 c13c 99d2 d83a
00000040: 61e1 d1bc a34b cebc bf6f d6bc 35ec 8f3b
00000050: de56 5439 762e 85bb 58fb 013d 50f5 2d3d
00000060: 990d 7ebc 43f0 583d 40f7 433b ad2e f6bc
00000070: 118e 78bc 165c bfbc 1ee8 bb3b 50d9 593c
00000080: 26a5 c43b 79cd c3bc 73e8 213d e6be 1c3d
00000090: adac a2bc 87d3 bd3c e7c4 303c 8f07 a4bb
000000a0: 583e 313d 0bf7 f3bc 0c57 093c 0fdd 933c
000000b0: a627 7cbd 6224 bd3c f255 1c3d b8a9 04bc
000000c0: ec7a f43b 782f 003c e098 debc e22d 573b
000000d0: a568 aebc 46d9 9bbc 16a5 4d3a af49 aebc
000000e0: 216d b0bb 3563 d4bc 1d8b 3cbc e7fe 133d
000000f0: 7847 b33c a609 003d d8fa 52bc d059 c13b
00000100: 9962 17bd d219 a63c 0a44 633d f516 0abd
00000110: bd65 9cbd f759 e0bc 4085 6fbc b805 ce3c
00000120: 8746 583c 6640 93bc fa1a 353d b05d cfbb
00000130: ab28 2cbd 5764 043d 9e94 143b 66aa 223b
00000140: 9761 f93c d657 bbbc 53de 773c 2071 0f3c
00000150: e92e ff3c 6a1d 1ebd db00 033d 5ab4 0abc
00000160: 247f f2bc 3039 443d dda7 b1ba 83ef c83b
00000170: 89c2 353c 27bf 4abb 82dc d23b 50d5 8fbb
00000180: 31cb 833d 2c0f 3cbc 599a 2c3d 4bca afbc
00000190: eab6 343c 2b5e 25bc 51a1 a6bc 2dfa 693b
000001a0: ca0d 3bbd bcb8 153c 13d1 893d 75b3 993a
000001b0: d13d df3c 4b31 a23c 4322 51bd 6864 1dbd
000001c0: d927 32bb 861a 5a3c 885a 403d 3942 703b
000001d0: b1b2 46bd 03d2 24bc 0bb4 43bc c589 0dbd
000001e0: cdb9 c23c 62a1 91bd fd5f 87bc 3994 1f3d
000001f0: 4920 9b3b ee4f 6d3c 282c b63c 931b 4bbb
00000200: 5401 47ba 541c 813b f360 813c db67 63bc
00000210: dd10 aebb 2e06 063d 9353 aebd d110 3e3d
00000220: a841 83bc c1a5 253c dad3 69ba 2c82 50bd
00000230: 9857 a3bc cdeb 85bd 1b3e c1bc ec1b bdbc
00000240: 3c90 e03d e7c8 07bd 1b56 6bbd 02af a03c
00000250: 2fa4 5a3c f0ad ae3c d57d 9f3c f4ca fdbc
00000260: 42e8 92bd b229 ee3c 4d0f 61bc e29d 723c
00000270: f777 c1bc b0c8 6e3c 5a71 4fbd eb4c 1e3d
00000280: 61a6 cc3a 28b9 acbc 1d65 95bd 2344 9a3b
00000290: 251b 7f3b cbb8 093b cb23 813c 93e5 11bc
000002a0: 1a4c a1bc 2784 bc3c 80d4 3abd f578 233c
000002b0: 3b30 8dbd ebd5 183a 6f07 d6bc 7792 8f3b
000002c0: a48d adbb ea5e 9ebb 4ed0 2b3b 780c 1abd
000002d0: f020 663d d5fc b5bc 5455 c3bc 88ef 47bd
000002e0: 283e 4dbc 8dbb 94bc 7754 e23c 936a 263c
000002f0: 1866 5a3c a3f3 febd 6dcc 90bc a64c aabd
00000300: 6616 d53c bb04 08bd e2db 6dbb 5d6b 86bc
00000310: 0afe 03bd 756d b03d 93a2 e9ba 5a2a 20bd
00000320: 9814 0f3d 7958 2dbd 724e 9e3b 4709 cc3c
00000330: dee6 90bd f89f b13c 662f 0f3c ae77 483b
00000340: adf1 8abd 4a7a 0f3e bacd 143c 5d0f ff3b
00000350: e31e 7fbd 4d06 13bb 253a 5ebd b74e 213d
00000360: 75c1 0d3d 81d1 80bb e01e 473c 11af a53b
00000370: be74 05bd d86e 16bd 1f94 9d3c afce edbc
00000380: 3366 70bd aadb 3b3d c4ac 88bd f3b4 d5bc
00000390: 2685 953d abe0 ad3c ba7e b7bd cd32 36bd
000003a0: f77d 4e3d a310 09bd 248e 31bb b88b 4c3c
000003b0: 3226 063d b565 553c 5a8f 80bc 3f57 813b
000003c0: 6706 0abc d587 b63c 804d 563c b112 963d
000003d0: 4a32 5b3d 1074 02bd abe3 d3bc 8ec9 e9bc
000003e0: f82c 2fbd bec8 1cbd 0e14 b2bc 1961 99bc
000003f0: f001 a63a cf24 923b b9ec a7bb 1deb eebc

action_model._discrete_distribution.branches.0.bias f4 [2]
0.021116728 -0.021116728
00000000: fdfc ac3c fdfc acbc

action_model._discrete_distribution.branches.0.weight f4 [2, 128]
-0.038801394 0.0038915507 -0.009327215 0.011589049 0.0031140244 -0.0716643 -0.026553942 -0.03139322
0.002833402 -0.029001977 0.008836366 -0.045536816 -0.044124514 -0.04907845 0.052262828 -0.031707864
0.032200914 -0.04754015 0.010411782 -0.07213835 -0.10607909 0.060123738 0.006850061 0.035122514
-0.06387951 -0.018967628 0.058084603 0.023253463 -0.030622598 0.067218974 -0.040737126 -0.02163066
0.012476712 -0.07699723 -0.10871981 0.059246045 0.0646427 0.050880745 -0.021988673 0.12135023
0.057085857 0.0027905048 0.023377916 0.02612912 0.046830274 -0.011048228 -0.052873816 -0.048874002
0.02063689 0.005383723 0.049054768 -0.023764221 -0.0033907462 0.061838057 0.092865065 -0.01399951
0.046067383 0.017882826 -0.030344697 0.080768935 -0.08474155 -0.008297732 -0.093853824 -0.035848275
0.029760148 -0.016837928 -0.03583819 -0.008116258 0.03158794 -0.0004758474 -0.01161438 0.056441173
-0.06086284 -0.034034055 0.03209005 -0.0765476 -0.0024073608 -0.01355572 -0.052923765 -0.041397378
-0.0761823 -0.06295686 -0.0023249763 0.008050735 -0.019730672 -0.022838788 0.088414885 0.11749184
-0.023991367 0.00016435384 0.02457348 -0.02630051 -0.0147540495 0.000548941 0.013908572 -0.033506583
0.048049003 0.03536255 0.04300329 0.01845822 -0.022374477 -0.06822585 -0.04569748 -0.034669355
-0.027219163 0.041987788 0.05863686 -0.017692652 -0.020431973 -0.055864293 0.0048302338 -0.036350522
0.041989617 -0.008327415 0.0054020737 -0.03533222 -0.008694922 -0.019972103 0.06295369 -0.107516274
-0.026750168 -0.031188302 -0.007929195 0.0506045 0.08193106 -0.0069055553 -0.05460205 -0.04601372
0.037794836 0.0133103 0.0069272355 -0.026038824 0.01170411 0.06993276 0.0083487155 0.033438694
-0.026863212 0.030144174 -0.026749464 0.05645326 0.067029975 0.040580187 -0.05122993 0.027851038
-0.045244742 0.044599995 -0.013545012 0.069123566 0.09153716 -0.050325017 -0.011660824 -0.035171304
0.063448004 0.0051568844 -0.04978039 -0.023656825 0.015397254 -0.0672203 0.049467467 0.019672113
-0.017048957 0.08369251 0.09577535 -0.03869094 -0.0910018 -0.035173833 0.026807265 -0.12142793
-0.03767667 0.004632599 -0.044864062 -0.018599937 -0.031187996 0.005213219 0.052774046 0.044587657
-0.014829391 -0.02308622 -0.038093578 0.009111915 -0.0036522264 -0.072511695 -0.08048983 -0.0020687783
-0.028399367 -0.008597317 0.01604594 -0.047984805 0.07728698 -0.002019291 0.10702656 0.039294362
-0.045649532 0.001449407 0.03275805 0.00911841 -0.034183465 0.012872356 0.01552255 -0.039510835
0.08010479 0.024900565 -0.049017787 0.06705285 -0.00054322265 -0.023048697 0.057074804 0.035125475
0.08772792 0.06513864 -0.0005376054 -0.010649255 0.0126891695 0.016868932 -0.07599819 -0.10804604
0.029634181 -0.014426585 -0.0143008595 0.03564391 0.014935112 -0.011154304 0.015797058 0.035913423
-0.048463166 -0.015760446 -0.06489846 -0.013960468 0.0043012276 0.06296138 0.03777987 0.048411854
0.035393704 -0.038190972 -0.037500083 0.009091557 0.025239736 0.068874136 -0.0061862124 0.045898177
-0.020942403 0.019296532 -0.022897528 0.030585537 0.016026447 0.028619293 -0.067721665 0.09787173
0.026183028 0.037277367 -0.0018097234 -0.042062584 -0.08832507 0.0049870196 0.029358165 0.03232701
00000000: 36ee 1ebd 6309 7f3b 2dd1 18bc ffdf 3d3c
00000010: a914 4c3b bcc4 92bd a787 d9bc 2d96 00bd
00000020: 99b0 393b 8e95 edbc 68c6 103c d084 3abd
00000030: e8bb 34bd 7c06 49bd 8c11 563d 1be0 01bd
00000040: 1be5 033d 76b9 42bd 2e96 2a3c 45bd 93bd
00000050: fe3f d9bd 4f44 763d 7a76 e03b a0dc 0f3d
00000060: 43d3 82bd 0062 9bbc 1fea 6d3d 0c7e be3c
00000070: 3edc fabc 1aaa 893d f9db 26bd c832 b1bc
00000080: 206b 4c3c b9b0 9dbd 7ea8 debd fbab 723d
00000090: 6463 843d 5468 503d 9721 b4bc 7886 f83d
000000a0: dcd2 693d e7e0 363b 0b83 bf3c bc0c d63c
000000b0: 1ad1 3f3d a003 35bc 3792 58bd 1b30 48bd
000000c0: b20e a93c f169 b03b a7ed 483d 2fad c2bc
000000d0: 4837 5ebb e749 7d3d 0a30 be3d 335e 65bc
000000e0: 27b1 3c3d 017f 923c 7195 f8bc 2f6a a53d
000000f0: fa8c adbd 36f3 07bc 6f36 c0bd a4d5 12bd
00000100: 8ecb f33c b2ef 89bc 11cb 12bd 0efa 04bc
00000110: 5b62 013d 287b f9b9 3e4a 3ebc dc2e 673d
00000120: 504b 79bd 4b67 0bbd db70 033d fdc4 9cbd
00000130: d0c4 1dbb d018 5ebc 97c6 58bd 4c90 29bd
00000140: 7705 9cbd 87ef 80bd a15e 18bb 3be7 033c
00000150: 38a2 a1bc 6918 bbbc dd12 b53d 909f f03d
00000160: 8b89 c4bc 6656 2c39 534e c93c 2b74 d7bc
00000170: f8ba 71bc cfe6 0f3a c7e0 633c 333e 09bd
00000180: 08cf 443d 52d8 103d 3824 303d b135 973c
00000190: ae4a b7bc ffb9 8bbd 482d 3bbd 7401 0ebd
000001a0: b9fa debc 63fb 2b3d 342d 703d 2ef0 90bc
000001b0: f460 a7bc f5d1 64bd f046 9e3b 49e4 14bd
000001c0: 4efd 2b3d b66f 08bc e103 b13b 85b8 10bd
000001d0: 2575 0ebc 899c a3bc dded 803d 7e31 dcbd
000001e0: 2b23 dbbc 9c7e ffbc 74e9 01bc aa46 4f3d
000001f0: 79cb a73d ff47 e2bb 66a6 5fbd e278 3cbd
00000200: c2ce 1a3d 7213 5a3c ddfd e23b 5f4f d5bc
00000210: 98c2 3f3c e838 8f3d 0dc9 083c 03f7 083d
00000220: 3d10 dcbc eaf0 f63c b121 dbbc 893b 673d
00000230: 0347 893d 6937 263d 7ad6 51bd dc27 e43c
00000240: 8d52 39bd 7cae 363d e6eb 5dbc a890 8d3d
00000250: d677 bb3d 9b21 4ebd 0a0d 3fbc c90f 10bd
00000260: 07f1 813d 15fb a83b 86e6 4bbd f5cb c1bc
00000270: c444 7c3c ccaa 89bd 669e 4a3d 6927 a13c
00000280: 41aa 8bbc fb66 ab3d de25 c43d 647a 1ebd
00000290: 275f babd 7012 10bd e99a db3c 35af f8bd
000002a0: da52 1abd 0fcd 973b 61c3 37bd e55e 98bc
000002b0: f87d ffbc a7d3 aa3b 9929 583d 8ca1 363d
000002c0: f9f6 72bc 501f bdbc 0308 1cbd 244a 153c
000002d0: 315a 6fbb 0381 94bd dad7 a4bd 5794 07bb
000002e0: caa5 e8bc c3db 0cbc c672 833c b78b 44bd
000002f0: a348 9e3d 1556 04bb be30 db3d 20f3 203d
00000300: 01fb 3abd 07fa bd3a 4e2d 063d 6265 153c
00000310: f603 0cbd 93e6 523c 4b52 7e3c 1dd6 21bd
00000320: fb0d a43d 45fc cb3c e0c6 48bd 0153 893d
00000330: 0e67 0eba 9fd0 bcbc 45c7 693d bbdf 0f3d
00000340: b2aa b33d 6867 853d 16ee 0cba 367a 2ebc
00000350: 3ce6 4f3c b730 8a3c f0a4 9bbd 3e47 ddbd
00000360: 62c3 f23c 7c5d 6cbc 274e 6abc 59ff 113d
00000370: 66b2 743c 8bc0 36bc d568 813c f419 133d
00000380: 5081 46bd 0d1c 81bc 7ce9 84bd 72ba 64bc
00000390: 50f1 8c3b e5f1 803d 11bf 1a3d 824b 463d
000003a0: fdf8 103d 236e 1cbd b099 19bd c1f4 143c
000003b0: 90c3 ce3c e20d 8d3d b6b5 cabb baff 3b3d
000003c0: 678f abbc c313 9e3c 9993 bbbc 858e fa3c
000003d0: e549 833c 0273 ea3c a8b1 8abd f970 c83d
000003e0: ca7d d63c 27b0 183d 3e34 edba d149 2cbd
000003f0: c6e3 b4bd 276a a33b 8980 f03c 5469 043d

network_body._body_endoder.seq_layers.0.bias f4 [128]
0.02330689 0.011205404 -0.008359849 0.021240454 -0.014124848 0.02622783 0.0050357347 0.014001472
0.017107926 -0.0007506741 0.031574674 0.016064296 -0.00259631 -0.023199964 -0.03835126 0.013542841
-0.026233643 -0.012663062 -0.016845668 0.0046324553 -0.005054148 0.010135962 0.043395627 0.011209316
0.006615811 0.007112901 -0.011078976 0.00897496 -0.0068014436 0.01481746 0.01375708 0.011246891
0.016009385 0.013034062 0.019437326 0.011822847 0.014709455 0.007723374 0.015682233 -0.005915042
0.0018566964 0.00892991 0.02281552 0.02026739 -0.000851618 -0.009763967 -0.01347266 0.015150645
-0.012224246 -0.00041448406 0.01589754 0.022951875 0.0023645207 0.021209227 -0.008292564 0.014229754
0.0147682335 0.004630109 -0.0071735447 0.024367832 -0.0040077902 -0.0030283292 0.021034684 -0.03137805
0.013892944 0.004119746 0.011560771 0.01678637 0.0065581924 0.019358477 0.016607873 0.030922692
0.029652331 0.021584028 0.0063592964 -0.004198697 0.019551964 0.006837356 0.008028099 0.010481629
0.008178793 -0.0077815047 0.012090826 0.010868757 0.008527032 0.008879506 9.069635e-05 0.0221089
0.0024220762 0.0031561442 0.025059912 0.016046373 0.025981013 0.022364425 -0.02744113 0.011373268
0.010706243 -0.021233859 0.026398221 0.017172022 0.030333994 0.0048039854 -0.003971491 0.022076655
-0.014679801 -0.015409128 -0.0007602537 0.00089311606 -0.01816327 0.016725026 0.008866216 0.013636233
0.0005394752 -0.024141155 0.017815577 -0.0036646065 0.008398319 -0.01745214 0.015989263 0.02299696
0.017355286 0.013466224 -0.0032120077 0.025352977 -0.019406049 0.0074240156 -0.03430036 -0.0003505494
00000000: 17ee be3c df96 373c c0f7 08bc 7600 ae3c
00000010: e86b 67bc bfdb d63c ce02 a53b 6e66 653c
00000020: ec25 8c3c e3c8 44ba 7254 013d 4599 833c
00000030: db26 2abb da0d bebc 3616 1dbd cbe2 5d3c
00000040: f0e7 d6bc bb78 4fbc edff 89bc dacb 973b
00000050: 449d a5bb 4e11 263c 9dbf 313d 47a7 373c
00000060: 72c9 d83b 5713 e93b 9884 35bc b60b 133c
00000070: a5de debb efc4 723c 6065 613c e144 383c
00000080: 1d26 833c d28c 553c 073b 9f3c 9db4 413c
00000090: edff 703c 5b14 fd3b 0778 803c f8d2 c1bb
000000a0: 655c f33a c24e 123c 9de7 ba3c cc07 a63c
000000b0: 1e3f 5fba 0cf9 1fbc 6fbc 5cbc 693a 783c
000000c0: 3448 48bc 1c4f d9b9 8f3b 823c 9205 bc3c
000000d0: 13f6 1a3b f9be ad3c 89dd 07bc ea23 693c
000000e0: 76f6 713c 2bb8 973b 0e10 ebbb 0c9f c73c
000000f0: c853 83bb ef76 46bb ee50 ac3c 4586 00bd
00000100: 3b9f 633c effe 863b 6369 3d3c 9283 893c
00000110: 1be6 d63b ab95 9e3c 3c0d 883c 9651 fd3c
00000120: 72e9 f23c fdd0 b03c a561 d03b 3995 89bb
00000130: 712b a03c e60b e03b 4a88 033c 23bb 2b3c
00000140: 5800 063c fefb febb 9a18 463c df12 323c
00000150: f7b4 0b3c 597b 113c 3b34 be38 b91d b53c
00000160: b2bb 1e3b 50d7 4e3b 724a cd3c af73 833c
00000170: 22d6 d43c 9935 b73c 38cc e0bc f256 3a3c
00000180: 3d69 2f3c a1f2 adbc 1541 d83c 57ac 8c3c
00000190: ff7e f83c c06a 9d3b 4823 82bb 1ada b43c
000001a0: 8c83 70bc 9176 7cbc c34b 47ba 0120 6a3a
000001b0: 23cb 94bc ec02 893c 9b43 113c 826a 5f3c
000001c0: 916b 0d3a acc3 c5bc f9f1 913c e529 70bb
000001d0: 1a99 093c caf7 8ebc eafb 823c 1f64 bc3c
000001e0: ac2c 8e3c 70a1 5c3c 8c80 52bb 0cb1 cf3c
000001f0: 6ff9 9ebc 2845 f33b 897e 0cbd f2c9 b7b9

network_body._body_endoder.seq_layers.0.weight f4 [128, 367]
0.047494717 0.05779248 0.008634528 -0.043189898 0.007977089 0.0123102395 -0.06735879 -0.068389274
0.10289632 0.08562559 0.023028893 -0.10359359 0.087542266 0.05499954 0.012473417 -0.041851867
0.05071165 -0.06992055 -0.017561048 -0.06980364 0.03152833 -0.05134431 0.0094493935 -0.034464702
0.031315483 -0.057381943 0.035842452 0.031947657 0.017686553 -0.06175089 0.060600877 -0.07690849
0.22489794 -0.22680359 -0.10116978 -0.115310885 0.074865505 0.018657807 -0.15231003 0.0027823024
0.45241722 -0.28510568 0.0069241254 -0.10433737 0.07779744 0.018316321 -0.026862318 -0.0019218392
0.03854918 0.08229651 -0.05779498 -0.033439193 0.021198986 -0.036438916 -0.021813348 -0.002879529
-0.12304518 0.10363962 -0.01594429 0.10340072 0.13896158 -0.040703334 -0.037370995 -0.073582284
-0.1109085 0.13444656 -0.021339884 -0.039318662 -0.054704588 -0.05935937 0.08141923 -0.056530625
-0.044770587 0.014439703 -0.015367666 0.020260533 0.13039905 0.013075404 0.014755932 -0.0061045755
-0.040695395 0.01960923 -0.04788189 -0.039187744 0.07282267 -0.029677505 0.113134354 0.01274135
0.029805042 0.05849669 -0.02898006 0.007905992 -0.029679952 0.020135352 -0.0046101734 -0.0034859932
-0.056121916 0.099397965 -0.026061978 0.03646586 0.1270219 -0.08431114 0.10646289 -0.035896152
-0.14267817 -0.011928131 -0.0024322092 0.017231254 0.024967337 0.08421518 0.049867745 -0.008136235
-0.020310806 -0.09677755 -0.06559845 0.021372546 0.03707407 0.08810009 -0.035337362 0.011038837
-0.045965318 0.0030623374 -0.020943493 0.120855406 0.06921625 0.057710864 0.020051692 -0.020521754
0.0336508 0.08866666 -0.034369495 0.028507931 0.039929204 0.019484872 0.014951366 0.00086204306
0.10831252 0.098081686 -0.013402103 0.08602702 0.04781781 0.04697413 -0.07305326 -0.0061236895
-0.05038169 0.10278139 -0.006544556 0.07113522 0.04419095 0.003167647 0.029178537 0.060481634
-0.051839165 0.033772513 0.030734595 0.024110602 0.0601628 -0.02897534 -0.024653217 -0.034033567
0.042575818 0.09206788 0.008186503 0.0727278 -0.019677958 -0.085503735 -0.051647916 0.08444681
0.024385128 -0.010108273 -0.006754445 -0.012956505 0.041123837 0.021471249 -0.0014562003 0.1170112
-0.08043534 0.112478964 0.013868003 0.016147807 0.026103353 -0.00081808155 -0.0551208 -0.027996862
0.034704447 0.010591657 0.07016344 -0.081644386 0.060204152 0.03759128 0.009663238 -0.037384138
0.08209238 -0.0055497475 0.04486046 -0.0669701 0.04851938 0.06170418 -0.10090956 0.0014246958
0.058157705 0.052699253 -0.029486252 0.07365842 0.04074831 0.012232001 -0.028612249 0.08883986
0.032685757 -0.01592625 -0.053358648 -0.037835203 0.047595985 0.049364865 -0.016585726 0.08799732
-0.14240696 0.046779726 -0.018026149 0.060565386 0.17520183 -0.0054070773 0.051191267 -0.032852463
-0.028932322 0.07965601 -0.06588231 0.0026086394 0.039974283 0.01868575 0.07074699 0.011106368
0.05396479 0.038937308 -0.016923433 0.025932599 0.06233575 0.04305947 0.016673358 0.094315514
-0.023156075 0.050955296 -0.10975978 -0.0938584 0.086205564 0.116464466 -0.05313697 0.061779365
-0.0372294 0.020366887 -0.03367316 0.014481487 0.077271976 0.09010201 -0.028611075 0.033513594
00000000: d289 423d cfb7 6c3d d677 0d3c e4e7 30bd
00000010: 56b2 023c e3b0 493c 68f3 89bd ad0f 8cbd
00000020: 4ebb d23d 785c af3d 17a7 bc3c e028 d4bd
00000030: 5c49 b33d 3347 613d 4e5d 4c3c dd6c 2bbd
00000040: 05b7 4f3d 8132 8fbd 30dc 8fbc 36f5 8ebd
00000050: da23 013d 694e 52bd a1d1 1a3c dc2a 0dbd
00000060: aa44 003d 5409 6bbd 89cf 123d 8cdb 023d
00000070: 64e3 903c 80ee 7cbd a038 783d 3382 9dbd
00000080: a54b 663e 333f 68be 1a32 cfbd 1d28 ecbd
00000090: 1653 993d 42d8 983c 29f7 1bbe 4a57 363b
000000a0: 3ba3 e73e 5ff9 91be c6e3 e23b d5ae d5bd
000000b0: 4454 9f3d 1c0c 963c 5d0e dcbc 39e6 fbba
000000c0: bfe5 1d3d 138b a83d 6eba 6cbd 89f7 08bd
000000d0: 7fa9 ad3c f940 15bd e8b1 b2bc 7bb6 3cbb
000000e0: 1dff fbbd 0241 d43d 9a9d 82bc c2c3 d33d
000000f0: f24b 0e3e 8ab8 26bd 5412 19bd 4fb2 96bd
00000100: ff23 e3bd 5cac 093e fbd0 aebc 9b0c 21bd
00000110: eb11 60bd d022 73bd 20bf a63d a88c 67bd
00000120: 5d61 37bd 8194 6c3c aac8 7bbc 6bf9 a53c
00000130: 5487 053e 383a 563c ddc2 713c e408 c8bb
00000140: 37b0 26bd 89a3 a03c cd1f 44bd 5483 20bd
00000150: 0d24 953d 3d1e f3bc fcb2 e73d 18c1 503c
00000160: b429 f43c 3a9a 6f3d 9767 edbc 2288 013c
00000170: 5f23 f3bc e5f2 a43c f010 97bb 4375 64bb
00000180: 18e0 65bd 2991 cb3d ee7f d5bc 3a5d 153d
00000190: 0712 023e 52ab acbd 3709 da3d d807 13bd
000001a0: 3a1a 12be 356e 43bc b365 1fbb 8f28 8d3c
000001b0: 4d88 cc3c 0279 ac3d 1f42 4c3d d84d 05bc
000001c0: d962 a6bc 4f33 c6bd 7b58 86bd 7a15 af3c
000001d0: fbda 173d d26d b43d e9bd 10bd 3ddc 343c
000001e0: 2146 3cbd 7fb1 483b b091 abbc 0a83 f73d
000001f0: 40c1 8d3d 3a62 6c3d 7243 a43c 3d1d a8bc
00000200: 6cd5 093d de96 b53d 07c7 0cbd 7789 e93c
00000210: ce8c 233d bd9e 9f3c 93f6 743c bbfa 613a
00000220: f4d2 dd3d 0ddf c83d 7f94 5bbc ef2e b03d
00000230: 9cdc 433d f267 403d f39c 95bd 3ba9 c8bb
00000240: 085d 4ebd 0d7f d23d b773 d6bb 58af 913d
00000250: 9201 353d 4c98 4f3b d407 ef3c 97bb 773d
00000260: 4e55 54bd 0c55 0a3d 1ec7 fb3c 9983 c53c
00000270: 456d 763d b15d edbc 8bf5 c9bc c866 0bbd
00000280: fb63 2e3d 168e bc3d af20 063c 50f2 943d
00000290: ab33 a1bc 951c afbd c48c 53bd 73f2 ac3d
000002a0: 52c3 c73c 2b9d 25bc 6454 ddbb 8547 54bc
000002b0: 7871 283d 79e4 af3c f9dd beba 91a3 ef3d
000002c0: 49bb a4bd 5f5b e63d 9f36 633c 6848 843c
000002d0: b3d6 d53c 8674 56ba 59c6 61bd ad59 e5bc
000002e0: 4026 0e3d a188 2d3c dab1 8f3d 2c35 a7bd
000002f0: a198 763d 50f9 193d 8f52 1e3c 1c20 19bd
00000300: 0d20 a83d a8da b5bb 9abf 373d 9f27 89bd
00000310: 42bc 463d 86bd 7c3d aca9 cebd dcbc ba3a
00000320: c636 6e3d 2cdb 573d 278d f1bc 3ada 963d
00000330: b3e7 263d bb68 483c 3c64 eabc acf1 b53d
00000340: 80e1 053d c477 82bc 998e 5abd 16f9 1abd
00000350: 02f4 423d d032 4a3d cade 87bc f037 b43d
00000360: 21d3 11be 199c 3f3d 93ab 93bc 6913 783d
00000370: 1c68 333e da2d b1bb efad 513d 4e90 06bd
00000380: 7a03 edbc b122 a33d 4eed 86bd b5f5 2a3b
00000390: 13bc 233d dc12 993c cce3 903d 7cf7 353c
000003a0: 2f0a 5d3d ba7c 1f3d 03a3 8abc 9a70 d43c
000003b0: c553 7f3d 205f 303d 9196 883c 7e28 c13d
000003c0: cfb1 bdbc 80b6 503d bcc9 e0bd d538 c0bd
000003d0: 8b8c b03d ec84 ee3d 27a6 59bd 5c0c 7d3d
000003e0: db7d 18bd 75d8 a63c deec 09bd c243 6d3c
000003f0: c540 9e3d 6787 b83d c661 eabc 8d45 093d

network_body._body_endoder.seq_layers.2.bias f4 [128]
-0.0063139624 -0.014035243 -0.01583865 0.009592411 -0.012735097 0.023546299 0.02693381 0.00067904266
-0.0033748522 -0.02421587 -0.02205801 0.012329929 -0.012104861 0.013445994 0.01141945 -0.003343099
0.012243485 -0.037512705 0.015235968 0.0041399617 0.012585801 0.0030253534 0.00016743573 0.008542857
0.012585079 -0.0008768197 -0.0029019518 -0.0053967508 -0.008810068 -0.0012684833 0.0012593421 0.012415498
-0.0055922293 0.006643083 0.016904134 0.0025274034 -0.0057961806 -0.00063789677 -0.00020716016 0.008869385
0.0017574013 0.014569134 0.0020360772 -0.0027934443 0.014940905 -0.0011699387 -0.00067577104 0.0042520138
-0.0193399 -0.0038481308 -0.014096235 0.014154634 -0.009433491 0.01676873 0.021927198 -0.0049057277
0.0015492236 -0.014293581 -0.03263519 -0.009705563 0.018138722 0.020625014 0.038879495 -0.0053626336
-0.022844192 0.014551201 0.013609931 -0.0202244 0.0040593785 0.028285945 -0.008523576 0.002544132
-0.0040280754 -0.008083155 -0.0038413992 0.015983058 0.0069392724 0.009186458 0.006851344 0.012114652
0.000998635 0.01590576 -0.0114026815 0.0011528273 0.027460312 -0.032113735 0.0063853934 0.011996361
0.0148803145 -0.020249251 -0.015164589 0.016313413 0.0144240605 0.0042782347 -0.02842412 0.004988174
0.01943409 0.0070453086 0.021354264 -0.0023774607 -0.018393528 0.01660562 0.017585346 0.0104088085
0.015501422 -0.004729239 0.0070908763 -0.0016883534 0.0035402675 0.016819304 0.0065688575 0.010924964
-0.01996848 -0.022219153 0.0013159902 0.027639916 0.045065224 -0.026805086 0.011517372 0.025114724
0.0110235335 0.016588392 0.0011906938 0.021546444 0.015502488 -0.018800557 0.0014007083 0.0006446015
00000000: 5be5 cebb 13f4 65bc 0ec0 81bc 7d29 1d3c
00000010: dea6 50bc 2be4 c03c 4ba4 dc3c c801 323a
00000020: a02c 5dbb 5c60 c6bc 00b3 b4bc 7803 4a3c
00000030: 7853 46bc 964c 5c3c a518 3b3c e517 5bbb
00000040: e698 483c eca6 19bd 48a0 793c 84a8 873b
00000050: ad34 4e3c 0245 463b b091 2f39 57f7 0b3c
00000060: a631 4e3c 60da 65ba ac2e 3ebb 3ad7 b0bb
00000070: 1a58 10bc 3d43 a6ba 8210 a53a 5f6a 4b3c
00000080: 053f b7bb 38ae d93b 8a7a 8a3c cba2 253b
00000090: e3ed bdbb 8738 27ba 2239 59b9 e650 113c
000000a0: 9a58 e63a 61b3 6e3c b56f 053b 3812 37bb
000000b0: b3ca 743c a158 99ba 3a26 31ba 7a54 8b3b
000000c0: b66e 9ebc ec30 7cbb e5f3 66bc d7e8 673c
000000d0: ee8e 1abc 935e 893c aba0 b33c 3ac0 a0bb
000000e0: 510f cb3a a02f 6abc 7aac 05bd 1504 1fbc
000000f0: a897 943c caf5 a83c 1b40 1f3d 08b9 afbb
00000100: be23 bbbc 2968 6e3c 30fc 5e3c a4ad a5bc
00000110: 8904 853b edb7 e73c 78a6 0bbc 74bb 263b
00000120: f2fd 83bb 366f 04bc fcbf 7bbb e7ee 823c
00000130: d662 e33b cc82 163c 3d81 e03b 897c 463c
00000140: a1e4 823a cc4c 823c 50d2 3abc 771a 973a
00000150: 73f4 e03c b189 03bd 903c d13b 638c 443c
00000160: 90cc 733c c2e1 a5bc e574 78bc b5a3 853c
00000170: e552 6c3c 6f30 8c3b b3d9 e8bc d673 a33b
00000180: 3e34 9f3c 55dc e63b 23ef ae3c 2ccf 1bbb
00000190: 06ae 96bc 8208 883c 250f 903c b589 2a3c
000001a0: adf9 7d3c bbf7 9abb 955a e83b bd4b ddba
000001b0: d503 683b a3c8 893c 923f d73b 9ffe 323c
000001c0: f094 a3bc f104 b6bc 4e7d ac3a 1b6d e23c
000001d0: 5096 383d 5796 dbbc 5cb3 3c3c 65bd cd3c
000001e0: 0d9c 343c 61e4 873c 0e11 9c3a 2b82 b03c
000001f0: 26fe 7d3c a003 9abc f997 b73a 79fa 283a

network_body._body_endoder.seq_layers.2.weight f4 [128, 128]
0.0927472 -0.091832824 -0.08027601 0.033205282 0.021265952 -0.0058358535 -0.00876639 0.07853374
-0.19283643 -0.24880058 -0.15555102 -0.056887113 -0.050668135 -0.2117848 0.037744336 0.026139645
0.14580959 0.18406516 -0.13009389 -0.10707773 -0.18017086 -0.15630935 0.060590636 -0.053662647
0.06214843 0.1509241 -0.16482167 -0.01496281 0.022199327 0.09366507 0.070509836 -0.036389146
0.016646553 -0.028140135 -0.14862698 0.14375897 -0.045155734 -0.04101675 -0.16371357 0.004163782
-0.08730233 0.06567566 -0.11561986 0.008844449 -0.114108406 0.07974709 -0.026057474 -0.14494668
0.010776792 0.119196266 -0.102006 -0.053866368 -0.045519177 -0.042839337 0.152393 0.10980616
0.07049676 -0.033997476 0.13434154 -0.0819338 0.1319213 -0.1669926 -0.0775005 -0.051561218
-0.041668035 -0.04358743 -0.032660898 -0.03356313 0.026241736 -0.056540888 -0.1266271 -0.10051076
-0.00415224 -0.15463805 -0.06297955 -0.10279603 -0.05422503 0.022722842 -0.28596157 0.024221968
-0.10113163 -0.04251473 -0.035810024 -0.13540144 -0.11168752 0.047801062 0.09439061 0.026054105
0.07140278 -0.025809135 -0.10249267 -0.11419844 0.0223934 -0.11976538 0.015059102 0.06947613
-0.017923217 0.05446038 0.06850529 0.09975989 -0.111427836 0.15416111 0.053930584 -0.06746478
-0.028498307 0.09673168 -0.03685452 0.10167038 0.029927922 0.027842548 0.034059815 -0.019373545
-0.04344975 0.058951966 0.04855851 0.13476141 -0.053808812 -0.013447885 -0.06890106 0.031917274
0.0741074 0.13345271 0.02333647 -0.1036754 -0.12023894 -0.07114852 0.18184452 -0.100006156
-0.09107559 -0.0067877886 -0.10984825 0.024491703 0.041619085 -0.025499346 -0.12527324 0.047779907
0.050465107 -0.027847456 -0.07365815 -0.116553135 -0.049960844 0.05151121 -0.036368877 -0.03946038
0.025810277 -0.1704594 0.12507941 0.023337493 0.059477076 -0.03177065 -0.021877792 0.10088314
-0.07673744 0.021817382 0.031539608 -0.15236603 -0.01620303 -0.007998117 -0.006383417 -0.013751423
-0.04855178 -0.054769963 0.19415256 0.018276352 -0.13198206 0.014332971 -0.1811209 -0.006625221
0.12268985 0.07823567 0.07470166 -0.0324184 -0.014949831 0.05600274 0.060451902 -0.05019024
-0.06117384 0.052451298 -0.033164904 0.0097908005 0.06588535 -0.03886955 -0.0024635321 0.10692575
-0.05998736 0.039652165 0.019566251 -0.042749006 0.019966727 -0.19071038 -0.03852425 -0.13438126
0.040214196 0.092151985 -0.07056833 0.09273835 -0.0002319605 -0.03673891 -0.030002223 0.019853055
-0.050834693 0.08152546 -0.005811993 0.06492304 0.075194895 0.0561827 -0.06438811 0.04093745
0.170668 -0.018598298 -0.12593897 0.04942937 0.0023008569 -0.014195824 -0.0414955 -0.04362127
0.04255731 0.09445186 0.14357501 -0.06398713 0.05064546 0.17865486 -0.017239532 -0.05695527
-0.064982176 0.096233316 -0.16165167 -0.15438479 -0.011404259 0.017936397 -0.081346266 0.030354967
0.06546623 0.12034038 -0.07554562 0.021134207 0.038372837 0.09560877 -0.010873422 0.0074034105
-0.05790401 -0.06713256 -0.026096128 0.031241108 -0.04933365 -0.0036811305 0.021457097 -0.0049806116
0.0070439866 -0.006804838 0.0082470495 -0.044736233 0.13480355 -0.16669974 -0.03749403 0.1357631
00000000: 3ef2 bd3d d912 bcbd c067 a4bd 4302 083d
00000010: ef35 ae3c b03a bfbb e8a0 0fbc 4cd6 a03d
00000020: ea76 45be 94c5 7ebe c448 1fbe 7602 69bd
00000030: 6489 4fbd 1dde 58be ce99 1a3d cf22 d63c
00000040: 1c4f 153e 947b 3c3e 5537 05be 924b dbbd
00000050: b67e 38be 8f0f 20be e32d 783d 5dcd 5bbd
00000060: 5a8f 7e3d d98b 1a3e 03c7 28be 9326 75bc
00000070: 5ddb b53c 79d3 bf3d 7667 903d c90c 15bd
00000080: 5a5e 883c 2486 e6bc ac31 18be 8d35 133e
00000090: 38f5 38bd 2e01 28bd 88a4 27be 5670 883b
000000a0: 90cb b2bd f680 863d 1bca ecbd 4fe8 103c
000000b0: abb1 e9bd 7152 a33d 7c76 d5bc e76c 14be
000000c0: 2491 303c 2c1d f43d 86e8 d0bd fba2 5cbd
000000d0: 5172 3abd 4d78 2fbd e90c 1c3e 0de2 e03d
000000e0: 9b60 903d f040 0bbd d490 093e e8cc a7bd
000000f0: 6116 073e 1c00 2bbe 95b8 9ebd db31 53bd
00000100: 1aac 2abd bc88 32bd 6fc7 05bd 7e79 09bd
00000110: e9f8 d63c 6b97 67bd 89aa 01be 96d8 cdbd
00000120: 840f 88bb 7059 1ebe 6cfb 80bd ba86 d2bd
00000130: 111b 5ebd 4125 ba3c 8e69 92be 266d c63c
00000140: 1a1e cfbd ed23 2ebd 88ad 12bd ada6 0abe
00000150: 6dbc e4bd 0ccb 433d dd4f c13d 6b6f d53c
00000160: 9f3b 923d ae6d d3bc ade7 d1bd dfe0 e9bd
00000170: 5d72 b73c 8d47 f5bd 74ba 763c 8049 8e3d
00000180: b6d3 92bc d911 5f3d 804c 8c3d ea4e cc3d
00000190: 4734 e4bd 69dc 1d3e 51e6 5c3d f92a 8abd
000001a0: 4875 e9bc 421b c63d c4f4 16bd 8f38 d03d
000001b0: 672b f53c 0e16 e43c 4e82 0b3d 45b5 9ebc
000001c0: 5df8 31bd 9e77 713d 4ae5 463d e5fe 093e
000001d0: a166 5cbd 8554 5cbc 001c 8dbd b0bb 023d
000001e0: 9fc5 973d d4a7 083e 202c bf3c c553 d4bd
000001f0: d53f f6bd 51b6 91bd 7335 3a3e 07d0 ccbd
00000200: d785 babd 196c debb 1ff8 e0bd d3a2 c83c
00000210: c678 2a3d 01e4 d0bc a147 00be ddb4 433d
00000220: 80b4 4e3d 5920 e4bc 16da 96bd 69b3 eebd
00000230: bea3 4cbd 6bfd 523d 88f7 14bd 35a1 21bd
00000240: 1370 d33c e98c 2ebe d114 003e 452e bf3c
00000250: 3c9e 733d f121 02bd 0e39 b3bc d29b ce3d
00000260: 8528 9dbd 5eba b23c ad2f 013d d705 1cbe
00000270: 37bc 84bc 890a 03bc fc2b d1bb a64d 61bc
00000280: 3bde 46bd 7856 60bd eecf 463e 4ab8 953c
00000290: 4e26 07be d6d4 6a3c c277 39be 6218 d9bb
000002a0: d144 fb3d 063a a03d 2ffd 983d 28c9 04bd
000002b0: 23f0 74bc 2163 653d 6a9c 773d 4894 4dbd
000002c0: 6c91 7abd 2cd7 563d ecd7 07bd 9869 203c
000002d0: e6ee 863d ad35 1fbd 3673 21bb e3fb da3d
000002e0: 4eb5 75bd 4f6a 223d 6749 a03c 9519 2fbd
000002f0: 4391 a33c 9549 43be 9bcb 1dbd 3e9b 09be
00000300: a4b7 243d 2eba bc3d 2186 90bd 9bed bd3d
00000310: 6c3a 73b9 8a7b 16bd 39c7 f5bc e0a2 a23c
00000320: 0a38 50bd d2f6 a63d 8872 bebb 5ff6 843d
00000330: c8ff 993d d51f 663d eadd 83bd 07ae 273d
00000340: 98c3 2e3e 755b 98bc 25f6 00be 7376 4a3d
00000350: f9c9 163b 9a95 68bc 2ff7 29bd 38ac 32bd
00000360: 9350 2e3d fa6f c13d 5405 133e af0b 83bd
00000370: 9d71 4f3d 4df1 363e eb39 8dbc ee49 69bd
00000380: 6015 85bd f915 c53d 0488 25be 0c17 1ebe
00000390: eed8 3abc 5aef 923c df98 a6bd fbaa f83c
000003a0: 2913 863d 0475 f63d a9b7 9abd a521 ad3c
000003b0: d62c 1d3d 88ce c33d 7026 32bc 4f98 f23b
000003c0: c12c 6dbd cc7c 89bd 8cc7 d5bc 5aed ff3c
000003d0: 1512 4abd 1f3f 71bb cbc6 af3c 6634 a3bb
000003e0: 3ed1 e63b 1efb debb a21e 073c 573d 37bd
000003f0: f109 0a3e 56b3 2abe 5793 19bd 7b05 0b3e
