FPS AI/Assets/Models/FPS Agent.onnx (onnx, 306878 bytes, 9 tensors)

action_model._continuous_distribution.log_sigma f4 [1, 3]
00000000: 6058 b5bf 6acc ccbe 356e 58bf
-1.4167595 -0.39999706 -0.8454316

action_model._continuous_distribution.mu.bias f4 [3]
00000000: 79b9 ba3c ca27 803d 3c05 6dbc
0.022793518 0.06257589 -0.01446658

action_model._continuous_distribution.mu.weight f4 [3, 128]
00000000: bf70 f8bc ea1c d7bb 9f29 aebd e3f5 feb9
00000010: aa30 ba3c ca0a 9f3c 08a7 51bc dca7 b13a
00000020: f625 9d3c 59fd c5bc f2ab bebb 2792 573b
00000030: a14c 6c3c 7b97 58bc af16 ecbb ad48 95bd
00000040: e77e 013d a4cb 103c e708 273c b603 31bd
00000050: 2f1c aa39 349f eabc 245f c73b ae2f 29bc
00000060: 826c 343d e276 243b 436c 7c3c 1058 67bc
00000070: fa4f 783b ffb1 48bc 1d0a 6ebb 7b75 b43d
00000080: aa5b fc3c e1d6 3e3c 30ca daba d9fe df3a
00000090: b1b2 d3bb 1e02 f4bc ab31 9639 9dfd 163c
000000a0: 0720 903c b05a afbc 972b 57bd 9b24 2a3d
000000b0: 9587 86b9 19ca 9cbd 9c24 b9bb 253a 07bc
000000c0: f55f dd3c 3778 da3a f4c4 c33c c9a8 0fbc
000000d0: 9704 d83a 27d5 7bbd f41f 563c 74f0 923b
000000e0: 2b26 90bc a473 19bc 2dc8 113d 730b 43b9
000000f0: d7ef ff3c 0421 943d 89b7 30be 32cc 803b
00000100: 848c 23bd fb61 be3b ef93 7dbb e4be 803c
00000110: 4ee7 91bd 80cd 04bc ec32 9bbc 1ca4 0cbd
00000120: 8d15 88bc abde 57bd d45e 1cbb 4bdc 3cbc
00000130: af05 71bd af72 8a3a 3e80 82bb e0dc edbc
00000140: 72ba 01bd d078 53bc 0116 8e3c 0d8a e33b
00000150: 75ee a03c abc6 5f3d 6beb 61bd 2e9a adbc
00000160: 7cdf d23c 34b4 183d cb08 953c 0605 7abb
00000170: ea13 70bd 29c7 acbb 1751 45bd 75e2 87bd
00000180: ce09 eebc a0a3 4e3c 20a3 f939 c5f3 e33b
00000190: 9785 afbc 1dcd adbc 1f14 123d 397f a23b
000001a0: e4c0 54bc cbec aabc a044 f6bc 9c06 f0b9
000001b0: db5d 3dbd 5154 47bc cf9b 71bd 2c48 6d3d
000001c0: f536 4cbc 4cc4 0abc 72b9 193a 59e8 c83b
000001d0: 41b9 183c 97fc 843c 0488 013c 4e1f e7bb
000001e0: 79dc 023d d8e8 e7bc 0dd6 0bba 0500 053d
000001f0: 611c b0bd fd13 eabb 8f9d 153d 3f8d 37bd
00000200: 6b80 1f3d 2d39 073b 6b14 5c3d 3feb a1bd
00000210: 75cc e0bc 6cff d63d 04d7 b2bd 2873 5dbd
00000220: 9bfd 10be df2f 2d3e ae49 ddbd 61ab ccbd
00000230: 6dc4 52bd 0bb7 86bd 6f54 febd f2e2 d0bd
00000240: b36d afbd 8e92 92bd 6161 623c 4dd3 a03d
00000250: e92f 7a3b 26f2 fa3b 0fe6 123d 0cf0 9fbd
00000260: 5b47 36bd 743b 0a3c b957 743a 10c2 d8bd
00000270: e6df 3c3d 89c8 f83d 6023 a9bd 703e 25be
00000280: affb 8fbc f7e5 d4bd 5b18 713d 7fbd 7ebd
00000290: 98be 52bd 84c7 ecba 3f01 e03c 96bc debc
000002a0: d271 653c 70d0 dcbd df4e 983d 6714 8e3c
000002b0: 5fe0 c13d a8cc efbb 7e6b 1a3c 8149 733d
000002c0: b618 923c 0ea6 c4bd 46a6 2bbe 9100 12be
000002d0: 3647 82bd 7667 f0bd 88b7 f9bd bed9 423c
000002e0: 77e7 b13d 3ccd 883d f5de 683d 3e08 43bd
000002f0: 0847 4bbc 08c4 e33c 414e 593e f058 d7bc
00000300: 8f44 263d af89 4d3d 20c5 983d d61e 393d
00000310: 78d9 123d 21d6 2dbd 8912 fabb c8cc 523d
00000320: d98a 343c 1d9d 9a3d 75df 29bd f857 9bbd
00000330: 2ee2 433d aaf1 343d f8eb 093d edd3 1b3d
00000340: c780 173c daf3 2cbc 6b21 80bd 8dac 7cbc
00000350: 1b1e 21bc cf8a f43d d8a6 6d3d 01a6 4cbd
00000360: a940 9abc 85e7 433d 7982 99bc 3b3d 533d
00000370: 9d78 24bd 63ed f539 4bea 413c 0f1d 98bd
00000380: 437a 21bd 1a26 77bd 613b 933c a49f d53c
00000390: dff9 bdbd a791 67bd c5b1 c8bc ce82 28bd
000003a0: db73 213d 05af fdbd ff13 293d 649d 9c3c
000003b0: c6e9 3d3e 1867 5cbd ef91 5b3e ba54 26bd
000003c0: 7209 37bd 7a83 ebbd 9326 7dbd 7d56 a4bd
000003d0: b950 6bbc e1fc acbc 926a 743c 6767 8f3c
000003e0: 045d 3dbb 3285 c43c 9316 c2bb 50f9 06bb
000003f0: 7555 fabd 5ea8 41be a7b4 5cbd ea9c bc3c
-0.030327199 -0.006564726 -0.08504032 -0.00048629855 0.022728283 0.019414324 -0.012796171 0.0013554054
0.01918314 -0.024168657 -0.0058188373 0.003289351 0.014422567 -0.0132197095 -0.0072048525 -0.072892524
0.031615164 0.008837614 0.010194994 -0.04321643 0.00032445925 -0.028640367 0.0060843397 -0.010326309
0.044048794 0.0025095274 0.015406671 -0.014120117 0.0037889467 -0.012249469 -0.0036321946 0.0881147
0.030805428 0.011647911 -0.0016692337 0.00170895 -0.0064605107 -0.029786166 0.00028647235 0.00921574
0.017593397 -0.021405548 -0.052531805 0.041538816 -0.00025659488 -0.076557346 -0.005650116 -0.008253609
0.027023295 0.0016667907 0.023897626 -0.008768269 0.001648086 -0.061482575 0.013069142 0.0044842307
-0.017596325 -0.00936595 0.035591293 -0.00018600914 0.031242294 0.0723286 -0.17257513 0.003930592
-0.039928928 0.00581002 -0.0038692912 0.015716024 -0.07124196 -0.008105636 -0.01894518 -0.034336194
-0.016611839 -0.052702587 -0.0023860233 -0.011527131 -0.05884331 0.0010562743 -0.003982573 -0.029035985
-0.03167195 -0.012907222 0.017344477 0.006943947 0.019644955 0.054632824 -0.055156153 -0.021191683
0.025741331 0.03728123 0.01819267 -0.0038149967 -0.05861274 -0.005272765 -0.048173036 -0.0663499
-0.02905741 0.012612253 0.0004761452 0.00695655 -0.021426005 -0.02121597 0.03566372 0.004959014
-0.012985442 -0.020864865 -0.03006202 -0.00045781292 -0.046232086 -0.012166099 -0.05898648 0.057930157
-0.012464275 -0.008469652 0.00058641203 0.0061312136 0.009321512 0.016233725 0.007905964 -0.0070532924
0.03194854 -0.02830927 -0.0005334325 0.03247072 -0.08599163 -0.007143496 0.036527213 -0.044812437
0.03894083 0.0020633445 0.05373041 -0.07906198 -0.027441243 0.104979366 -0.08732417 -0.0540649
-0.14159243 0.16912793 -0.10805069 -0.099936254 -0.051456857 -0.065778814 -0.12418448 -0.101995364
-0.08565845 -0.07156859 0.013817162 0.078528024 0.003817553 0.007658261 0.035863932 -0.07809457
-0.044501644 0.008437026 0.0009320933 -0.105838895 0.046111964 0.12147624 -0.082587 -0.161371
-0.017576067 -0.10395425 0.058861118 -0.062192436 -0.051451296 -0.0018064831 0.027344344 -0.027189534
0.014004188 -0.10781944 0.074369185 0.017343713 0.094666235 -0.007318098 0.009425042 0.05939627
0.017834049 -0.09601985 -0.16762647 -0.14258029 -0.06361239 -0.117384836 -0.12193209 0.011892734
0.086867265 0.0667977 0.056853253 -0.047615282 -0.012407072 0.027803436 0.21221258 -0.026287526
0.040592726 0.050180133 0.074594736 0.045195423 0.035851926 -0.042440537 -0.007631604 0.051464826
0.011019432 0.07549498 -0.04147287 -0.07585138 0.047823124 0.04417578 0.033672303 0.038043905
0.0092470115 -0.010556186 -0.06256374 -0.015421999 -0.009833838 0.11940538 0.058020443 -0.049963
-0.01882966 0.047828216 -0.018738972 0.051572066 -0.04015409 0.00046906908 0.011835645 -0.074274175
-0.03942324 -0.06033907 0.01797265 0.0260771 -0.09276175 -0.05653539 -0.02449883 -0.04114037
0.03941713 -0.12386898 0.041278835 0.019118018 0.18546209 -0.053809255 0.21442388 -0.040608145
-0.044686742 -0.114996865 -0.061804365 -0.08024309 -0.0143625075 -0.021116676 0.0149179865 0.01750536
-0.0028894553 0.023989294 -0.005923101 -0.002059538 -0.12223331 -0.18911883 -0.05388322 0.023024041

action_model._discrete_distribution.branches.0.bias f4 [2]
00000000: e286 873d 2d86 87bd
0.06617524 -0.06617389

action_model._discrete_distribution.branches.0.weight f4 [2, 128]
00000000: 107d e9bb 2f09 733b d5ac 45bd d079 cdbb
00000010: 9c7f ecbd aeee 1bbe 907b 12bd ab3a c4bc
00000020: e00d 84bd 118a a5bc aa47 d6bc 9c66 8c3b
00000030: 4f35 c5bc 3649 a9bd f2fe 4bbd f02b 22be
00000040: 1491 2aba d5dc 9bbd 6fee be3d 09b9 043e
00000050: a2e5 17bc aacc 003d 5992 1b3e 5ebf 64bd
00000060: 4ef6 46be 4e9a 1bbd ea18 8b3e e462 44bd
00000070: ead3 af3d fb33 fa3c bcfe f2bd c342 00bb
00000080: fdd7 013e c289 66bd 9799 dfbb 76a6 44bd
00000090: d6d5 8dbd 9bc3 8bbc 57ac ff3d 8cb8 8e3b
000000a0: fe21 cc3d eb76 dd3c a92f be3c 0fad c9bd
000000b0: f753 d4bd e7c5 983d e449 5c3e dbc0 83bc
000000c0: 4c5c a33d 8a3c ffbb 1059 50be 9a59 e3bd
000000d0: a983 7ebd 308f 8bbd ea7f f93b 8d02 4b3e
000000e0: a369 83bd c581 d2bd 4ee3 ffbb c1d6 4ebc
000000f0: 0072 35be 4575 a2bb e61d f6bc 03a8 d3bd
00000100: 5f98 88bc c657 283d c7e4 9c3d 2f29 1fbd
00000110: 5153 0abd 07d0 24bd 01ab 36bd 4856 49bd
00000120: 2445 bcbb b516 95bd 2ab3 17bc b62b eb3c
00000130: 9706 b4bc d49f 9a3d 5732 5e3d 1460 5cbc
00000140: 213a d6bd 00b2 37bd 0391 053d 88e1 693d
00000150: 2437 87bd 7915 5b3d b20b 1a3d 4e8d a7bc
00000160: ae1e b4bd 3c62 fa3c 7dfe a73e 49f6 903d
00000170: b414 bb3d 9f97 213e 35c8 0ebd 3617 6bbd
00000180: 3a0f fdbd 882b ebbc e601 443e 4fdd 933e
00000190: c44f 88bd ab8c 66bd 3414 49be 821e 67bd
000001a0: 6631 b63d 22d6 23be 1a5e 213d aefc 853c
000001b0: 0099 42bc a142 b9bc 0f2a 333c 3b4d 933c
000001c0: ae86 bcbc 9b92 91bd 2068 a3bd acfd 153d
000001d0: 6552 45b8 bdae e7bc 6fe3 823c a18e a0bd
000001e0: 15fe d13d 915e a93b 96ff 7b3e 12af b4ba
000001f0: dbd0 d83c f57b cf3b a8e9 44bd 027e bdbd
00000200: 2ac5 a0bb a211 a33b ef23 563d 58d7 8cbb
00000210: 5059 eb3d 351e 023e 48bb 763d e1ae 813c
00000220: 38d0 763d a12e a83c 2645 ef3c 9552 163b
00000230: 920b 603c 1275 913d fa20 893d dd0c 173e
00000240: 0929 b0bc 8a6e 803d 58c9 b2bd 4be7 1bbe
00000250: d6b4 8e3c 4824 d7bc 18f9 1abe 8b8a 893d
00000260: f4dc 413e e6a7 c13c b7fd 8cbe da6a 2f3d
00000270: bb76 acbd 93bc a8bc bbe8 d83d f18f 04bb
00000280: d105 f7bd 95ea 8c3d 7255 9e3c 2696 6e3d
00000290: f85d 7d3d e181 ce3c e3b8 e3bd 59ca 86bc
000002a0: 64ba dbbd bc44 08bc 9f5c f2bc cc48 c23d
000002b0: 77ef f03d 3fe7 9ebd 97f2 60be 1ee6 e03c
000002c0: 7619 a8bd c5e8 153b 764b 523e 5632 b83d
000002d0: 9313 213d f990 a93d a25a ebbc da1e 46be
000002e0: 5ed3 9c3d 807a bf3d ca1d 3eb9 a078 88bb
000002f0: 3820 1b3e f934 5abb d4e4 eb3c f79e d23d
00000300: d889 a93c f9ac f4bc 278b 86bd 2a63 ea3c
00000310: d79d 1a3d 7042 1a3d 4324 5c3d 89c9 003d
00000320: 9fc5 efbb 06c8 bb3d 9b6c 00bc d1e2 9abc
00000330: ebe3 1d3d 2c45 b7bd fed3 97bd 8c90 4d3c
00000340: ea97 cb3d 0804 2b3d d8f9 07bd 7519 44bd
00000350: 6421 9c3d c8f7 29bd 2c7e 14bd 143b d53c
00000360: 8c16 c33d 62de f1bc 5c14 aabe 1935 81bd
00000370: 100a ccbd cd23 1ebe 498c 123d 12b1 963d
00000380: 427c 003e cb02 323d 299f 42be 2a80 99be
00000390: f7bd b03d ab89 503d e9dd 473e 4fe1 663d
000003a0: 4fe3 adbd 52c9 323e 9007 33bd 19ac 7dbc
000003b0: f6b0 a73c 7f4b 8e3c 0dcc 75bc 84c6 a1bc
000003c0: de5f b13c bc3f b03d 4de4 b83d 8046 f2bc
000003d0: 9a7b e0bc b1df 773c c20f 41bd 172d bf3d
000003e0: e571 bfbd c60a 00bd 0943 80be c238 d6bb
000003f0: 432b 17bd a23d 0bbc cdd9 823d d55f a53d
-0.0071255043 0.0037084331 -0.04826053 -0.0062706247 -0.11547777 -0.15227768 -0.03576237 -0.023953756
-0.06447959 -0.020207437 -0.026157219 0.004284693 -0.024073271 -0.08265917 -0.04980368 -0.15837073
-0.00065066037 -0.0761048 0.09322821 0.1296121 -0.009271057 0.031445183 0.15192546 -0.055846564
-0.19429895 -0.037988953 0.27167445 -0.047945872 0.08585341 0.030542364 -0.11864993 -0.0019571043
0.12680049 -0.05628372 -0.0068237293 -0.048010312 -0.069255516 -0.017061045 0.12484043 0.004355496
0.09967421 0.027034244 0.023216086 -0.098474614 -0.103675775 0.07459622 0.21512562 -0.016083172
0.079765886 -0.0077891992 -0.20346475 -0.111010745 -0.06213728 -0.0681442 0.0076141255 0.19825192
-0.06416633 -0.10278658 -0.0078090793 -0.0126244435 -0.17719269 -0.0049578273 -0.030043554 -0.1033478
-0.016674219 0.041099332 0.07660823 -0.038857635 -0.033770863 -0.040237453 -0.044596676 -0.04915455
-0.005745547 -0.07279722 -0.009259025 0.028707366 -0.021975799 0.07550016 0.054247227 -0.013450641
-0.10460306 -0.04484749 0.032608997 0.05709985 -0.06602314 0.053487275 0.03760881 -0.020453122
-0.08794914 0.03056442 0.32811347 0.07078225 0.09134808 0.15780495 -0.0348589 -0.057395183
-0.1235642 -0.02870728 0.19141349 0.28879783 -0.06655839 -0.056286495 -0.19636613 -0.05642558
0.08896141 -0.15999654 0.039396383 0.016355839 -0.011877298 -0.022614779 0.0109353205 0.017981162
-0.023013439 -0.07108041 -0.07978845 0.036618873 -4.7045196e-05 -0.028281564 0.01597759 -0.07839704
0.102535404 0.005168744 0.24609217 -0.0013785085 0.026466778 0.0063319155 -0.048074394 -0.0925255
-0.0049063163 0.004976467 0.052280363 -0.004298132 0.114916444 0.12706836 0.0602372 0.01583046
0.060257167 0.020530047 0.029207777 0.0022937406 0.013674634 0.071024075 0.06695743 0.14751
-0.021503942 0.06271084 -0.087298095 -0.1522495 0.017420214 -0.026262417 -0.15134084 0.06715878
0.18931943 0.02363963 -0.2753732 0.04282651 -0.084210835 -0.020597732 0.10591265 -0.0020227397
-0.12061656 0.068806805 0.019327853 0.05824866 0.061857194 0.025208415 -0.11119249 -0.016453909
-0.107289106 -0.008317169 -0.02958518 0.09486541 0.11764424 -0.077589504 -0.2196754 0.027453478
-0.08207981 0.0022874337 0.20536599 0.08993976 0.039325308 0.082796045 -0.02872974 -0.19347706
0.076575026 0.09349537 -0.0001813091 -0.0041647702 0.15149009 -0.0033295734 0.028795637 0.102842264
0.020695612 -0.029867636 -0.0656951 0.028611738 0.037748184 0.037661016 0.05374552 0.0314422
-0.0073172594 0.09169011 -0.007838394 -0.018906983 0.038547438 -0.0894874 -0.07413481 0.01254667
0.09941085 0.04175189 -0.033197254 -0.04787584 0.07623556 -0.04149607 -0.03625314 0.026029147
0.09525785 -0.029524986 -0.33218658 -0.06308956 -0.09962857 -0.15443344 0.035778318 0.07357992
0.125474 0.043459695 -0.19006027 -0.29980594 0.08629983 0.05091254 0.19518246 0.056367215
-0.08490621 0.1745961 -0.043708384 -0.015482926 0.020470124 0.017369984 -0.015002263 -0.01974798
0.021652158 0.08605906 0.0902792 -0.029574633 -0.027402688 0.015129016 -0.04713417 0.09334772
-0.093478955 -0.031260274 -0.25051144 -0.006537528 -0.036906492 -0.008498581 0.063891985 0.08074919

network_body._body_endoder.seq_layers.0.bias f4 [128]
00000000: c51e 27bd 7dee 6fbc 7ba8 3dbd 5cc7 5abc
00000010: 2663 22bb 0894 f4bb 22b1 dc3c 8523 773c
00000020: 5ccb 9a3b bf5c 6bbd d06b c1bc 6b34 d639
00000030: ddfd a7bc 929f 3fbc 8a27 f93b d624 03bc
00000040: ca5f d83c 9e88 84bd bbdc 7bbc 2d8c f13c
00000050: 3c93 2b3c 533f 17bd 7675 f33c e2bc 9abb
00000060: 4aec bf3c 07d7 6c3b 0508 9bbc 8ebb 56bd
00000070: 9219 2bbd 1f93 2a3c ec07 52bb 26d1 87ba
00000080: b329 51bd 767c 6b3c 936c 36bc 465b 7c3c
00000090: c744 273d e3a2 29bc a73b f13c 31b4 083c
000000a0: 69c8 94bc aca5 58bd c6a7 eebc e5ee 81bc
000000b0: f520 8b3c f333 4cbd ccb2 5c3c 9306 a7b9
000000c0: 9a44 60bd 94b4 0e3d 4f8f e7bc fdd4 c6bb
000000d0: dc88 c33c 43a8 b63c ff42 c43b d0dd b5bb
000000e0: ef53 a5bb b667 c3bc ee3f 5e3b f348 93ba
000000f0: 5b74 4a3c 5945 eabc 7a9e 9cbb 97fe c7bd
00000100: 1bd2 6d3c ece3 743b 34ca 24bd 63e2 dfbc
00000110: b3c3 37bc a144 5fbc 8187 91bb 59db 0ebd
00000120: d9cf 23bd 07df 8cbc 7965 f33a 7de9 bdbc
00000130: 7ea5 f73b ddf1 61bc 8e07 c8bb 7973 3cbd
00000140: 69f0 33bd 6e28 1bbd 1eb2 c43b b6cb 32bd
00000150: 82b1 73bc d8b4 d23c b3cf 3c3d 6504 ef3b
00000160: 6c4e fabb 0864 7cbb 4102 c43c 8a2d 11bd
00000170: 6cfd 5f3c e352 863a e3a4 c23b 2baa 80bc
00000180: 42c5 4b3c 4afa c13c a2f3 2e3b caf2 02bc
00000190: 406d c13c 425e 33ba bfd7 a1bd 22d6 0f3c
000001a0: 234c 60bc 6b3c c03c 545c 8e3c e914 e23c
000001b0: 287c 00bd 5dcd 5c3b 97b5 0e3d 0b82 5b3b
000001c0: 70f6 9dbb a0c7 963c 1aa8 933c 7193 0bbd
000001d0: da2c 9b3c 279d ee3c 6a89 adbc 122d 6fbc
000001e0: efbb f6bc 18a3 84bc 874e d23b f137 4c3c
000001f0: 604d 83bc 28dd 23bc 1787 133d b01d c7ba
-0.04080083 -0.014644262 -0.046303254 -0.013353195 -0.0024778335 -0.0074639358 0.026939932 0.015084152
0.0047239494 -0.057461496 -0.02361098 0.00040856315 -0.020506794 -0.011695759 0.0076035904 -0.008004388
0.026412863 -0.0647137 -0.01537245 0.029485786 0.010472115 -0.036925625 0.029719096 -0.0047222236
0.023428101 0.0036138908 -0.018924722 -0.05242496 -0.041772433 0.010411053 -0.003204818 -0.0010362014
-0.051065158 0.0143729355 -0.011134285 0.015402621 0.040837076 -0.010353777 0.02944739 0.008343742
-0.01816197 -0.052892372 -0.029132735 -0.015860984 0.016983489 -0.04985423 0.013470363 -0.0003185762
-0.054752924 0.03484018 -0.028266577 -0.0060678707 0.02386897 0.02229703 0.005989432 -0.0055501238
-0.005045406 -0.023853164 0.0033912617 -0.001123695 0.012356843 -0.02859752 -0.004779634 -0.09765356
0.014515425 0.0037367297 -0.0402319 -0.02732963 -0.011216092 -0.013627202 -0.004441202 -0.034877155
-0.03999314 -0.017196191 0.001856967 -0.023182625 0.00755757 -0.013790575 -0.006104416 -0.04600856
-0.043930445 -0.037880354 0.0060026785 -0.043651305 -0.014873864 0.025720999 0.046096515 0.007294225
-0.007638743 -0.0038511772 0.023926856 -0.03544382 0.01367126 0.0010248091 0.005940066 -0.015706142
0.012437167 0.023678917 0.002669551 -0.007992456 0.023611665 -0.00068423536 -0.079024784 0.008779081
-0.013690027 0.02346631 0.01737801 0.027597861 -0.031368405 0.0033691742 0.034841146 0.003349426
-0.0048206374 0.018405735 0.018024493 -0.034076158 0.018942285 0.02912767 -0.021183688 -0.014598148
-0.03011891 -0.01619105 0.0064180526 0.012464509 -0.016028106 -0.010001458 0.036017504 -0.0015191343

network_body._body_endoder.seq_layers.0.weight f4 [128, 458]
00000000: cda8 ef3c de8e e1bd 2249 d4bd 65a2 68bd
00000010: 0675 c8bc b248 b13c 46b8 47bd bb5b 3f3d
00000020: 5b27 2ebd aceb fcbd 7a11 c4bd d105 c3bb
00000030: 585e a0bd 75c6 033e 7feb 85bd 44f8 003e
00000040: ed3b 3dbe 835b 7b3a 78f3 12be 1fcc 4fbe
00000050: e07f 123c 112b 68bd 0b51 99bd 56e8 1bbc
00000060: ad9b debd ffc2 34be 1a9d a53a abf8 f4bc
00000070: 9f69 573e 6470 bfbd 212e 723e e2ad 5ebe
00000080: 8cc5 eabc 6b2e 8ebe b7b2 80be 08f6 953d
00000090: da8c 3dbe ed49 6abb 5fff 893d 5259 14be
000000a0: 4fb0 8c3e 7fe0 e2bd 86ca e9bd 4594 15be
000000b0: 8273 70be 1a8e d8bd b42d c93c a84c 2fbd
000000c0: 9403 ddbc 8c7b 0bbe 0c38 bc3e 336d b7be
000000d0: ac92 16be e150 30be 6c5f dfbe c290 9abd
000000e0: 19b4 42bd c152 c6bd a2ad 433e 8643 8ebd
000000f0: 1aed 823e 316d 5dbe 2203 d1bd eb1b 40be
00000100: 0ed5 c2be 21bc 4a3c e76d dbbd 456d 40bd
00000110: 595f 8bbd 9b50 fbbd 1dce 9dbd 6258 4ebc
00000120: b103 6ebd f69a dfbd 4a2d edbd dfa5 b1bd
00000130: 0daa f7bd 3874 6e3c 6141 7b3a b0f4 bebd
00000140: d96b 5ebe 8dc2 273d 68d9 fcbc 545d 843d
00000150: 9ea3 8bbd d216 783c f744 a6bd 73b5 97bd
00000160: 24c1 113d 405e b13c 36ad febc a411 583d
00000170: d5a1 1bbc 6c4a 90bc 02e7 c0bd 8210 5ebd
00000180: 6b98 83bd 56f2 8f3c a08b 32bd 26e9 4ebd
00000190: fa0a 043e e573 a4bd 98d6 313d 1448 f93b
000001a0: c6d0 80bd f7bb 363c dee5 ad3d e3eb 393c
000001b0: d6c0 e8bc 6334 60bd f026 1cbd fb7b e73c
000001c0: 6fe0 0d3d 756f fbbd a993 34bd 29cc a9bd
000001d0: 6887 493a d5a6 a1bd 853e 87bd 9f61 a1bd
000001e0: 03d1 3f3c 475f ebbd ace0 55bc bd49 0fbd
000001f0: 3fd5 8c3d 346c 693b 1bf0 48bd 9453 a33b
00000200: 6e25 143d 2c29 6bbd eb4b 85bd 9dd5 c2bd
00000210: 8f4c 103d 0d59 99bc 80fa c4bc 2663 3e3c
00000220: 2deb e1bc 4bf4 3abc aeb9 43bc 0ef3 31bd
00000230: f9ea a5bd 99d3 8fbd 705e 3d3d 5776 b83c
00000240: 6393 e13c 5596 87bd 323e abbc 39c4 db3d
00000250: 689c b3bc 78fc c5bd 6389 943c 78c6 8ebd
00000260: 9ab8 f2bd 8f65 af3c 1609 0cbe ece3 483d
00000270: af44 14bd 89e2 033c 155c 6dbd 9c0c dfbd
00000280: aa07 22be 806b 0dbd fefa d6bd 763a 103b
00000290: 64ee 2cbd 4715 3c3d d200 96bd 9654 613a
000002a0: 67e7 c53c 433d e4bd fed9 35bd 78eb cebd
000002b0: d04b 89ba 2e5f 283d c082 84bc 47b3 8a3d
000002c0: 75fa 53bc 11c4 a8bd 8882 19bd 40b9 46bd
000002d0: 7d6c 60bd 4a90 83bd dc7d 423d d812 493d
000002e0: f125 7e3a 75ed 38bd 4579 a43d 835e 883d
000002f0: 069d 69bd bcd1 a2bd b7fd aabc 1067 6bbd
00000300: 0380 8b3c 373b 193d 2033 ccbd 4393 64bd
00000310: b51a 363d 9b99 b43b f74e 51bd 2d7d 253c
00000320: 7691 3b3d e024 abbd aef2 e8bc 41ad 793a
00000330: 1d8b c6bc 575f 28bc 8daf c43a 53f7 cfbc
00000340: d41c b6bd 989c 2bbd 1939 6fbd 80c4 803d
00000350: 6d9b 37be a652 363d 89a9 b33d 8eb3 bdbc
00000360: 8d72 c5bb bb86 c2bc 8341 7dbd 2f60 cdbd
00000370: 8e57 213d b3df 28bd ed0d 59bd 5d45 03be
00000380: e225 08bd 2de1 8a3d cb1b 2c3d 765d f6bd
00000390: 4e6d 43be 6737 04bc 373b fcbc d08b 1bbd
000003a0: fc4a 103c b652 c93c 7830 86b9 99b8 443d
000003b0: fa4e 36be 3720 8c3c 858e 8e3c 328f ecbd
000003c0: 6d70 0c3d c99e d5bd fdf6 05bd a931 a83d
000003d0: b56e 5a3d 54ce 5f3d fc0c cd3c be0e 373d
000003e0: 5087 c0bc f2bb 28be 4a71 94bd 2ee3 cebd
000003f0: 515d 913c 69e1 f43c 8e17 5f3c 0284 4d3d
0.029255295 -0.11013578 -0.103655115 -0.056795496 -0.024469864 0.02164111 -0.04875972 0.04671834
-0.042518 -0.12349638 -0.09573646 -0.005951621 -0.07830495 0.12868674 -0.06539058 0.12594706
-0.18479891 0.00095885264 -0.14350688 -0.2029271 0.008941621 -0.056681696 -0.07486161 -0.009515842
-0.108695365 -0.1765251 0.0012635321 -0.02990373 0.21036385 -0.09347609 0.2365041 -0.21746019
-0.02865865 -0.2776979 -0.2513635 0.07322317 -0.18510762 -0.003574963 0.06738161 -0.14487198
0.27478263 -0.110779755 -0.114155814 -0.14607342 -0.23481563 -0.10573979 0.024557926 -0.042797714
-0.026979245 -0.13621348 0.3676151 -0.358255 -0.14704388 -0.17218353 -0.4362749 -0.075471416
-0.047535036 -0.09683753 0.19109204 -0.06946473 0.2557152 -0.21623684 -0.10205676 -0.1876065
-0.38053173 0.012373955 -0.107143216 -0.046979208 -0.068052955 -0.12271234 -0.077053286 -0.012594314
-0.05810899 -0.10918228 -0.11580904 -0.086742155 -0.120929815 0.014554076 0.00095846324 -0.09324014
-0.21720828 0.040957022 -0.030865386 0.064631134 -0.06818317 0.01514216 -0.08118623 -0.074076556
0.035584584 0.021651387 -0.031088453 0.0527512 -0.009499033 -0.017613612 -0.09419061 -0.05421496
-0.06425556 0.01757161 -0.043590188 -0.050515316 0.12894812 -0.08029918 0.043417543 0.0076074693
-0.062898204 0.011153213 0.08491109 0.011347744 -0.028412264 -0.05473746 -0.03812307 0.02825736
0.034637865 -0.12277118 -0.044086132 -0.082908936 0.00076877186 -0.07893149 -0.066037215 -0.07879948
0.011707547 -0.11492782 -0.013054054 -0.03498243 0.06876611 0.0035617473 -0.049057107 0.0049843285
0.03616851 -0.05741231 -0.06508621 -0.095134 0.035229262 -0.01871922 -0.024045229 0.0116203185
-0.02757796 -0.011410783 -0.011946125 -0.043444686 -0.08101458 -0.07022781 0.04623264 0.022517366
0.0275361 -0.066204704 -0.02090368 0.10730786 -0.021925166 -0.09667295 0.018131917 -0.06971449
-0.11851616 0.021410732 -0.13675341 0.04904549 -0.036198314 0.008049616 -0.057949144 -0.10891077
-0.15823236 -0.034526348 -0.10497092 0.0022007502 -0.042219535 0.04591873 -0.07324375 0.0008595673
0.024158193 -0.11144497 -0.044397347 -0.10103506 -0.0010474864 0.041106395 -0.016175628 0.06772476
-0.012938132 -0.08240522 -0.037478 -0.048516512 -0.054790962 -0.06424005 0.04748331 0.049090236
0.0009694985 -0.04514833 0.08030943 0.06658652 -0.057034515 -0.0795016 -0.020872934 -0.057471335
0.017028814 0.037409987 -0.09970689 -0.055804502 0.044459064 0.0055114753 -0.051100697 0.010100645
0.04579302 -0.08356643 -0.028436031 0.0009524413 -0.024236256 -0.010276637 0.0015005931 -0.025386488
-0.08892217 -0.041897386 -0.058404062 0.062874794 -0.17930384 0.044512413 0.08772571 -0.023156907
-0.0060256184 -0.023745885 -0.061830055 -0.10028111 0.03939014 -0.04122896 -0.052991796 -0.12819429
-0.033239253 0.0678123 0.042018693 -0.12029545 -0.19084665 -0.00806985 -0.030789955 -0.037975132
0.00880694 0.024575572 -0.00025594584 0.04802761 -0.17803565 0.017105205 0.017401943 -0.1155075
0.034286905 -0.104306765 -0.03270625 0.08212597 0.053328235 0.05464013 0.025030605 0.044691794
-0.023502022 -0.16477945 -0.07248171 -0.10101925 0.017744692 0.02989264 0.013616456 0.05017472

network_body._body_endoder.seq_layers.2.bias f4 [128]
00000000: 0b5a cbbb e7d7 41bd 5051 85bc 4ca1 d5b9
00000010: 6ec2 35bc 8171 833d 24a3 debc 816a 88bd
00000020: 14fb 7dbc e04d 3f3d def9 d83b f40a 6bbc
00000030: b15f 163c 93dc d1bc 5186 013d 1019 9b3c
00000040: 9e06 9d3b c38f 613b 5ec1 393a f393 65bc
00000050: d724 81bd 4c3c b7bb 7f28 213d d3f7 9bbc
00000060: fa71 7d3b 0bb2 23bc 42ed 0e3d a2ee e0bc
00000070: 1311 1abd 2881 01bc 9329 fb3c 6177 2ebc
00000080: 90c6 eabb 10e6 81bc 23dd d8bb 31f9 be3c
00000090: b6a4 193c 01d6 9abc b8d8 7b3d c596 6dbd
000000a0: 5e6f 2abc 0f92 5dbc bfee 233d bd53 833c
000000b0: e5c2 113d 1e04 47bd dd35 c6b9 ec02 e33b
000000c0: bd8e 42ba 1596 84bc 8192 eabb 9bf4 37bd
000000d0: 2990 05bc e77d cbbb 0f85 96bc e3f1 593c
000000e0: 41b0 b33c f66b e0bb 832a a53c dfa5 c33c
000000f0: 6cc5 0ebc 80da b43c e38c e5bb ad32 05bd
00000100: a624 3abd 9604 80bd 6db8 aa3c dde5 523c
00000110: d9ba 68bc f6b9 3abd 5be5 fbbc 27e0 9bbd
00000120: 619e 3ebd c562 8f3c 3d72 18bd 3067 ebbc
00000130: 4b53 42bc 9726 d83c 0a09 7a3c faf6 0abd
00000140: 6c02 68bd 3bbc 703c e6da 163d aa70 a8bb
00000150: 5226 c8bc 4ca1 e937 0c1a 14bd 98d2 26bd
00000160: 1385 63bd 3ba7 d23c d3c1 3f3c 3a26 3a3d
00000170: 2554 d4ba 04aa 20bd 215f 353b 310d 0cbc
00000180: b4f7 2cbd 2baf e63b 41ec b4bc 7a0d 973d
00000190: 47eb 5cbc 8d75 13bd f9de 8e3b 439d 8cbd
000001a0: 5434 1dbd e8e0 123b 3aa3 073b ca9e 39bb
000001b0: d83c aa3c a0bd 00bd c723 c43c 5338 983c
000001c0: 69b0 ae3c a57d 973a 84ea 8ebd 70f0 f2bb
000001d0: 2455 cdbb e207 66bc 1d2f 8cbd 26d1 d6bc
000001e0: 625e cbbc 4eb8 e0bc 054e b33c 8cbc 97bc
000001f0: 187d 9f3c 74ca a03c b11f 74bd 0f6b 82bb
-0.0062058023 -0.04732504 -0.016274124 -0.000407467 -0.011093719 0.064181335 -0.0271774 -0.06660939
-0.015501756 0.046705127 0.0066215834 -0.014345873 0.009178088 -0.025617873 0.031622235 0.01893285
0.0047920486 0.0034417964 0.0007086004 -0.014012325 -0.06305855 -0.0055919047 0.03934526 -0.01903907
0.0038672672 -0.009991179 0.034894235 -0.027457539 -0.03761394 -0.007904328 0.030659473 -0.010648579
-0.007164784 -0.015856773 -0.0066181584 0.023312183 0.009377649 -0.018900873 0.061485976 -0.058005113
-0.010402529 -0.013523593 0.040022608 0.01603114 0.035586257 -0.04858791 -0.00037805634 0.0069278385
-0.00074217824 -0.016184846 -0.007158578 -0.04491101 -0.008152046 -0.006210077 -0.018373994 0.013302299
0.02193463 -0.0068488074 0.020161873 0.023882804 -0.008714061 0.022076845 -0.0070053204 -0.03251903
-0.045445107 -0.06250875 0.020839894 0.0128721865 -0.014204704 -0.045587502 -0.030749014 -0.07611113
-0.04653776 0.017503152 -0.03721832 -0.028735727 -0.011860679 0.026385589 0.015260944 -0.03392694
-0.056642935 0.014693315 0.03682985 -0.0051403837 -0.024432335 2.7850874e-05 -0.036157653 -0.04072818
-0.05554683 0.025714507 0.011703926 0.045446612 -0.0016199393 -0.03922464 0.002767511 -0.008548067
-0.042228416 0.0070399246 -0.02208531 0.07375617 -0.013483829 -0.036000777 0.0043600765 -0.06865933
-0.038379982 0.0022411887 0.0020696656 -0.0028323405 0.020780966 -0.03143084 0.023942841 0.018581545
0.021324353 0.0011557831 -0.06978324 -0.0074139163 -0.006266253 -0.014039965 -0.06844924 -0.026222777
-0.024825279 -0.027431633 0.021887789 -0.018522523 0.019468829 0.019627787 -0.059600536 -0.0039800475

network_body._body_endoder.seq_layers.2.weight f4 [128, 128]
00000000: 89e8 063d b4d9 5e3d 4d02 8abe b54b 3ebe
00000010: 21b6 b0bc 38ab 503b 9745 4abd 5078 513d
00000020: 460d 3b3b 50e3 05be 0b71 0bbe 2513 343d
00000030: b34e 603d 8c44 6e3d c0c0 71bd c393 5dbd
00000040: da20 f63d 41a5 d9bc 6a15 dd3d 688e 73be
00000050: 95e3 2ebe f289 81bc 76d6 e3bd c0c9 7e3d
00000060: b398 0d3d d16f 313e 49b7 27bd 256e 8e3c
00000070: 72a8 df3c 64a0 3ebd 6dd1 33be c62e f8bd
00000080: b341 8dbd 16fc 94bc 7670 cfbd 5e61 e03d
00000090: 6578 ac3d 2e61 19bc b73f 643d 1316 39be
000000a0: d1a9 e7bd fe90 41be fc51 7dbe 9f25 fa3d
000000b0: 906f 133d 8863 c03a 0d03 dabc 14d1 3abd
000000c0: 6a1b aabd 7608 42be e921 8abd 76dc 95bd
000000d0: c783 dfbc 81c7 dd3d 3a9c 28be e1d8 91bc
000000e0: 46b7 afbc f4df 12bd 126e bc3c a8a0 0abe
000000f0: c7df a53d e1b3 f3bc 5d53 ae3d 9c70 0c3e
00000100: b114 24be 3605 6c3d d7c3 80bb ac12 16be
00000110: 8ca9 e8bd 0ed7 5fbd 1a76 58bd 44ab 833b
00000120: 6e88 a5bd 2ea8 2dbe acb6 8f3d 8122 45bc
00000130: 94d4 99bb 9654 3c3e 34d7 0dbe 1594 9a3d
00000140: 7737 513d 74d4 2e3e efd7 1bbe f449 50bd
00000150: 0f36 73bc 2ae4 433d f5af 203e 75fb b83c
00000160: 2dd7 3abe 284a 1ebe e358 4ebd 2fc9 9abd
00000170: e861 033c e05e 4dbd 2a38 23be 0124 973d
00000180: 2afe 4abe 21ee edbd 6111 8b3a a5f2 03be
00000190: e8e3 39be 015c bebd 597c 95bc fe7e 143d
000001a0: b5a4 7d3c 8b29 353c be0c da3c b588 213e
000001b0: 9f94 6bbd 5e63 60bd 89f7 35be ccb9 d3bd
000001c0: 7915 4cbe 2e69 c53c 834e 963d e1ec a2bd
000001d0: 19a9 01bb 7f1c 6d3d ce2a 99bc a9f8 3ebc
000001e0: afde 60bd b340 be3c 98b6 d33d fc1d 43bd
000001f0: f7ca 9f3a 58b4 4dbd 26e6 51bd 8342 b6bd
00000200: b734 d03c 61e0 52be be24 0fbd b69d 983d
00000210: c7c4 79bc eedf e8bc 9ba1 efbd 3d11 67bd
00000220: 790b 7ebe 2422 32bd 670f 50be 5f59 82bd
00000230: 3d00 eabb 1163 a6bd caf5 b43d c4ae 9c3d
00000240: bc14 143d a404 01be cb8f 0cbe 3932 94bd
00000250: 2ef4 2c3d 0b5a febd e0d5 113e ce45 2fbe
00000260: 3c72 f4bc 3125 e8bd 0d1f e0bd 5b26 e93d
00000270: 5625 3a3d 2219 b7bd 5ae4 fbbd 8987 343d
00000280: 03bb 043e 1c8f 31bd 8e39 1ebd f511 ec3d
00000290: ddab 1abe 55fd 093d efde 8ebd 80d6 05bd
000002a0: 2349 b2bb 0836 5dbd 0374 6b3d 80b3 893d
000002b0: a047 b53c 80a5 8fbd 9201 8c3c acdf 80bc
000002c0: 6a00 9bbd 23de 653d 43c2 56bd 2eba 5cbe
000002d0: d3a8 a9bd 1cf8 49be 6d96 20be 399c a93d
000002e0: 5c1e 093e 73f6 a6bb 82e6 c7bd 87d6 edbd
000002f0: a3a6 a93e b39f 793c 5916 7dbb 0890 513e
00000300: 2746 f73c 39f3 0d3e 4a59 9f3b 153a edbd
00000310: f62e a83b a103 a13d 96ae 80be d819 c3bd
00000320: cabf a4bd a670 7a3d d446 923d 631d 06bd
00000330: ff32 8fbe 5f6c d1bd 9f63 0b3d 5f4e 37bd
00000340: fa3e b8bd ca7c 733b 532a eebd 5afe b23d
00000350: 9c07 debd ccb5 033e 140e 303e 1508 72be
00000360: 2cc4 643e e54c 0bbe 90d8 0d3e 7cec 5a3e
00000370: 2a29 7b3d 9485 97bd 8b3a 3abd f5cf 23bd
00000380: 6deb e0bd 1e92 4bbd cea8 9dbd b7d5 fb3d
00000390: 4d8e f4bd 0145 bdbd 4e88 52bd 5ba1 ecbd
000003a0: 2bf1 613d d8bc 75bd 6d85 e13c 730b 49bc
000003b0: 7d17 633d f646 853d a756 e93b 09af 8abe
000003c0: 2c49 593c a514 98bd 1d8c 073d ee14 753d
000003d0: 3584 9f3d 90b7 47be 0a28 cabd ff9d 053d
000003e0: 2ad5 e23d 14f1 b3bd cd7d e33c 43b0 e53c
000003f0: 6eb7 acbd 3adc 2a3d 214a 27be 6ad0 69bb
0.032936607 0.054406837 -0.2695488 -0.18583567 -0.02157122 0.0031840336 -0.049382772 0.05114013
0.0028541847 -0.13074994 -0.13617341 0.04396357 0.054762553 0.05817084 -0.05902171 -0.054095995
0.12017985 -0.026568057 0.107951 -0.23784792 -0.17079003 -0.015812848 -0.111248896 0.062204123
0.034569453 0.17327811 -0.04094628 0.017386505 0.027302 -0.04653968 -0.17560358 -0.12118296
-0.06897297 -0.01818661 -0.10128872 0.10956071 0.08421401 -0.009361548 0.055724826 -0.18074827
-0.11311687 -0.18902966 -0.24738306 0.12214207 0.035995066 0.00146781 -0.026612783 -0.04560955
-0.0830601 -0.1894854 -0.06744749 -0.0731744 -0.027284516 0.10829068 -0.16465846 -0.017803611
-0.021449696 -0.03585811 0.023001704 -0.13537848 0.08099323 -0.029748859 0.08511994 0.13714832
-0.16023518 0.057622157 -0.003929596 -0.1465556 -0.113604635 -0.05464845 -0.052847005 0.004018219
-0.080826625 -0.16958687 0.07017264 -0.012032152 -0.0046945307 0.18391642 -0.13851625 0.07547776
0.051078286 0.17073232 -0.15219091 -0.050851777 -0.014844432 0.047825016 0.15692122 0.022580842
-0.18246146 -0.15457976 -0.050377738 -0.07557904 0.008018948 -0.050139308 -0.15939394 0.07379914
-0.19823518 -0.11617685 0.0010610038 -0.1288553 -0.18153346 -0.09294892 -0.01824777 0.03625392
0.015481164 0.011057268 0.026617404 0.15774806 -0.057514783 -0.054782264 -0.17770208 -0.10338172
-0.19930066 0.024098005 0.07339194 -0.07955337 -0.0019784628 0.057888504 -0.018697169 -0.011655965
-0.054899868 0.02322421 0.10337561 -0.047636017 0.0012191226 -0.050220817 -0.051244877 -0.08899405
0.025415761 -0.20593406 -0.03494715 0.07451956 -0.015244669 -0.02842709 -0.11700746 -0.056412924
-0.24809064 -0.04348959 -0.20318376 -0.063647024 -0.0071411417 -0.08124364 0.08835943 0.076505214
0.036152586 -0.12599427 -0.13726728 -0.07236142 0.042225055 -0.12419518 0.14241743 -0.17116472
-0.029839627 -0.11335219 -0.109434225 0.11384269 0.045445763 -0.089403406 -0.12299414 0.04407457
0.12961964 -0.04334937 -0.038629107 0.115268625 -0.15104623 0.033688862 -0.06976115 -0.032675266
-0.0054408475 -0.054006606 0.057483684 0.0672369 0.02212888 -0.070139885 0.017090593 -0.015731655
-0.07568438 0.05612005 -0.052431356 -0.21555397 -0.08284154 -0.19723552 -0.15682383 0.0828175
0.13390487 -0.005095297 -0.09760763 -0.116131835 0.33134946 0.015235829 -0.0038618057 0.204651
0.030184818 0.13862313 0.004862939 -0.11583344 0.0051325513 0.0786202 -0.25133198 -0.09526414
-0.08044393 0.061142586 0.07142416 -0.03274287 -0.27968594 -0.10225748 0.034030553 -0.044752475
-0.08996387 0.0037153237 -0.116291665 0.0873992 -0.10841295 0.12862319 0.1719287 -0.23635896
0.22340459 -0.13603552 0.13852143 0.21379274 0.061318554 -0.07398525 -0.045465987 -0.039993245
-0.10982404 -0.049699895 -0.076982126 0.12296622 -0.11941204 -0.09241677 -0.05139952 -0.115542136
0.055161636 -0.05999455 0.027529443 -0.012270796 0.055442322 0.06507675 0.0071209255 -0.27086666
0.013262074 -0.07425813 0.033092607 0.059834413 0.07788888 -0.19503617 -0.09870918 0.03262138
0.11075814 -0.087862164 0.027769947 0.02803815 -0.08433424 0.04171393 -0.16336872 -0.0035677203
