FPS AI/Assets/Models/FPS Agent3.onnx (onnx, 306878 bytes, 9 tensors)

action_model._continuous_distribution.log_sigma f4 [1, 3]
0	0xbfae28b8	-1.3606176
1	0xbeb9a669	-0.36259773
2	0xbf560834	-0.83606267

action_model._continuous_distribution.mu.bias f4 [3]
0	0x3cc7a17e	0.024368998
1	0x3d75cde8	0.06001082
2	0xbc3fee56	-0.011714539

action_model._continuous_distribution.mu.weight f4 [3, 128]
0	0xbd0ead84	-0.034833446
1	0xbb0ab308	-0.002116384
2	0xbd970a2c	-0.07374987
3	0x3b5dcf20	0.003384538
4	0x3c9a49a4	0.018833943
5	0x3ca7c068	0.020477489
6	0xbc3cae1f	-0.011516123
7	0x3b347cdd	0.0027540245
8	0x3cb5a187	0.022171749
9	0xbcec8b96	-0.028875154
10	0xbc0ab4e8	-0.008465983
11	0x3bd5a82e	0.0065202927
12	0x3ca72fc8	0.020408526
13	0xbc63c3a5	-0.013901626
14	0xbba4cebe	-0.0050295284
15	0xbd9d5990	-0.07683098
16	0x3d0f1095	0.034927923
17	0xb9a2e8e0	-0.00031072553
18	0x3c5179db	0.0127854
19	0xbd281079	-0.041031335
20	0xbbdb72ed	-0.00669705
21	0xbcef53bc	-0.029214732
22	0x3be2c790	0.0069207624
23	0xbc62c5fb	-0.013841148
24	0x3d239a82	0.039942272
25	0xbb130de7	-0.0022438706
26	0x3c50e345	0.012749498
27	0xbc8313de	-0.016000684
28	0xba1b6849	-0.00059283205
29	0xbd055b16	-0.03255757
30	0x3cc204cb	0.023683926
31	0x3d9068ec	0.07051262
32	0x3ce95dea	0.028487165
33	0x3c08a53a	0.008340174
34	0xbb9e1128	-0.0048238225
35	0xbc6ccbd3	-0.014452892
36	0x3ba81660	0.0051296204
37	0xbce2fbb0	-0.027707905
38	0x3bbffbfd	0.0058588968
39	0x3c7ab8f8	0.015302889
40	0x3c5cc1c8	0.013473935
41	0xbcff25e2	-0.031145994
42	0xbd3db469	-0.04631463
43	0x3d37a486	0.044834636
44	0xbb59fabd	-0.0033261024
45	0xbd8ee6d3	-0.0697762
46	0xbb85cc47	-0.0040831896
47	0xbc397780	-0.011319995
48	0x3cbd61b1	0.023117872
49	0x3ad824f4	0.0016490505
50	0x3ca5b915	0.020229856
51	0xbc05f5e9	-0.008176305
52	0x3bb1f4bf	0.0054307873
53	0xbd336991	-0.043801848
54	0x3caa20e2	0.020767633
55	0x3b595774	0.0033163698
56	0xbc9ad24f	-0.018899111
57	0xbca0542c	-0.019571386
58	0x3d192fad	0.037398983
59	0xb8b86a59	-8.7936125e-05
60	0x3ccbd576	0.02488206
61	0x3d94988e	0.0725566
62	0xbe2ab086	-0.16668901
63	0xba5b299f	-0.0008360389
64	0xbd149b2f	-0.036280807
65	0x3b2ff3da	0.0026848228
66	0xbac13ab4	-0.0014742226
67	0x3c62613e	0.01381713
68	0xbd6d02bf	-0.057863947
69	0xbc3b9145	-0.011448209
70	0xbca11673	-0.019664025
71	0xbcf1b234	-0.02950392
72	0xbc8bcf1f	-0.017066536
73	0xbd275d3f	-0.04086041
74	0x3b3627de	0.0027794759
75	0xbc385c5d	-0.01125249
76	0xbd39a3fe	-0.04532241
77	0xbc0f99e3	-0.008764717
78	0xbb0f8978	-0.0021902006
79	0xbcfa4ffe	-0.030555721
80	0xbcd35860	-0.025798976
81	0xbc8564b3	-0.016283369
82	0x3c25badb	0.010115351
83	0x3c1d3d67	0.009597159
84	0x3c38fae1	0.011290283
85	0x3d63c801	0.05561066
86	0xbd7fc093	-0.062439512
87	0xbd1e0c12	-0.03858573
88	0x3c2cc0d0	0.010544017
89	0x3ca2e5f8	0.019885048
90	0x3caad024	0.020851202
91	0xbb077c00	-0.0020673275
92	0xbd6d4014	-0.057922438
93	0xbbb63c35	-0.0055613765
94	0xbd49f5a3	-0.049306523
95	0xbd8b81af	-0.068118446
96	0xbcedffac	-0.029052578
97	0xbb4a92c1	-0.0030910226
98	0x3931b7e8	0.00016948546
99	0x3c045a3a	0.008078152
100	0xbc5c7353	-0.01345523
101	0xbd0236c5	-0.031790514
102	0x3cc55fcb	0.02409353
103	0x3b91a832	0.0044450993
104	0xbc7c89da	-0.015413726
105	0xbd19b221	-0.037523393
106	0xbcd26106	-0.02568103
107	0xbc0c65e8	-0.008569218
108	0xbd4e1323	-0.05031122
109	0xbc12a7d7	-0.008951149
110	0xbd619ea1	-0.05508292
111	0x3d6f1e43	0.05837847
112	0xbb118a56	-0.0022207699
113	0xbb99cb18	-0.0046934
114	0xbbee63ba	-0.007275072
115	0x3be6e64b	0.007046496
116	0x3c4c9648	0.012487002
117	0x3d00409b	0.031311613
118	0x3c86c366	0.016450595
119	0xbc07d850	-0.008291319
120	0x3d03523d	0.03206085
121	0xbcc4d1d7	-0.02402584
122	0x3b45f208	0.0030204076
123	0x3d22f5d5	0.039785225
124	0xbdb1ad58	-0.08675641
125	0xbc01055f	-0.007874816
126	0x3d17f7ec	0.03710167
127	0xbd241269	-0.04005662
128	0x3d64aaeb	0.055827063
129	0x3bc9e474	0.006161267
130	0x3d60adfe	0.054853432
131	0xbd9ecdc0	-0.077540874
132	0xbca1b18a	-0.019737978
133	0x3dd9c622	0.10633494
134	0xbdae9343	-0.08524182
135	0xbd4264d3	-0.047459435
136	0xbe0d9d5c	-0.13829559
137	0x3e2abbba	0.16673175
138	0xbddca888	-0.10774332
139	0xbdcb8830	-0.09938085
140	0xbd18ef2d	-0.03733747
141	0xbd8457fb	-0.064620934
142	0xbdf03f78	-0.11730856
143	0xbdc25929	-0.09489662
144	0xbdb51b43	-0.088430904
145	0xbd8db258	-0.06918782
146	0x3cad799a	0.021176148
147	0x3d8c75e0	0.0685842
148	0x3bf10940	0.007355839
149	0x3c031da9	0.008002677
150	0x3d1055dd	0.035238136
151	0xbd9d1598	-0.07670134
152	0xbd15dd75	-0.03658815
153	0x3c1dadb3	0.009623933
154	0xb90a1fac	-0.00013172504
155	0xbdd09b45	-0.10185865
156	0x3d1dd42b	0.038532417
157	0x3dff440b	0.1246415
158	0xbdaab279	-0.08334822
159	0xbe2c7eee	-0.16845295
160	0xbc70f848	-0.014707632
161	0xbdb60c36	-0.08889048
162	0x3d80657b	0.06269356
163	0xbd891b5d	-0.06694672
164	0xbd583fa7	-0.05279508
165	0xbb44dc79	-0.0030038639
166	0x3cce9448	0.02521719
167	0xbd0d5d4a	-0.034512796
168	0x3c85fb9a	0.016355325
169	0xbdd349a9	-0.10316784
170	0x3d660643	0.056158315
171	0x3cbfc891	0.023411067
172	0x3dc955ce	0.09830819
173	0x3a89f21b	0.0010524424
174	0x3c187f39	0.009307676
175	0x3d6a8401	0.057254795
176	0x3c938300	0.018006802
177	0xbdc7ef44	-0.09762433
178	0xbe2099c3	-0.15683655
179	0xbe0c0158	-0.13672388
180	0xbd812a25	-0.063068666
181	0xbdee8274	-0.11645976
182	0xbdf72789	-0.120680876
183	0x3c128264	0.00894222
184	0x3dba9fb4	0.09112492
185	0x3d90bca8	0.07067233
186	0x3d5f7c11	0.05456168
187	0xbd44f0eb	-0.04808132
188	0x3b42135b	0.0029613588
189	0x3d12b985	0.035821456
190	0x3e4b60ca	0.19861141
191	0xbcc8a872	-0.024494383
192	0x3d393bd6	0.04522308
193	0x3d3ddccb	0.046353143
194	0x3d94cc32	0.0726551
195	0x3d3b6300	0.04574871
196	0x3d36fd68	0.04467526
197	0xbd4a07fd	-0.049324024
198	0xbb75dca8	-0.0037515555
199	0x3d29472a	0.041327633
200	0x3c51b4a0	0.012799412
201	0x3d99c039	0.07507367
202	0xbd322619	-0.043493364
203	0xbd9b57d4	-0.07585111
204	0x3d4f6229	0.050630722
205	0x3d1cc0fd	0.038269985
206	0x3d0b750b	0.034047168
207	0x3d23ac4e	0.039959244
208	0x3cefb8cd	0.029262925
209	0xbbca42c6	-0.006172511
210	0xbd71a257	-0.05899271
211	0xbc4a0efa	-0.012332672
212	0xbc46bfaf	-0.012130662
213	0x3dd699cb	0.104785524
214	0x3d7d57fe	0.061851494
215	0xbd2b47ff	-0.041816708
216	0x3aced43a	0.0015779801
217	0x3d45fbdc	0.048335895
218	0xbcb30145	-0.021851191
219	0x3d4c5f30	0.049895465
220	0xbd08aa79	-0.0333657
221	0x3b3142da	0.0027047903
222	0x3c526cf5	0.01284336
223	0xbd9080e3	-0.07055833
224	0xbd12f657	-0.03587946
225	0xbd77f934	-0.060540393
226	0x3c8e94d0	0.017404944
227	0x3cc4119c	0.023934178
228	0xbdb99a39	-0.09062619
229	0xbd5e509c	-0.054276094
230	0xbc83d296	-0.016091626
231	0xbd089e4e	-0.033354096
232	0x3d3973c8	0.045276433
233	0xbe0b687e	-0.1361408
234	0x3d130d7e	0.03590154
235	0x3cea56c3	0.028605824
236	0x3e36b69a	0.17843094
237	0xbd59e298	-0.053194612
238	0x3e542595	0.20717461
239	0xbd2ab8f2	-0.041680284
240	0xbd2a5864	-0.041588202
241	0xbde40d7f	-0.11135387
242	0xbd250a52	-0.040293045
243	0xbda534e6	-0.0806673
244	0xbc4c9298	-0.012486123
245	0xbcb15ac6	-0.02164973
246	0x3c9cb1a1	0.019127669
247	0x3cbb86d8	0.022891447
248	0xbb47e0af	-0.0030498912
249	0x3ccd2baf	0.025045244
250	0xbbb7f89e	-0.0056143543
251	0x3bb3c45b	0.005486054
252	0xbdcb29b3	-0.09920063
253	0xbe4eacaf	-0.20183061
254	0xbd5467c2	-0.051856764
255	0x3d263aef	0.040583547

action_model._discrete_distribution.branches.0.bias f4 [2]
0	0x3d89064b	0.066906534
1	0xbd890599	-0.06690521

action_model._discrete_distribution.branches.0.weight f4 [2, 128]
0	0xbc804f2e	-0.015662756
1	0x3b8bea15	0.004269848
2	0xbcb5285d	-0.022113973
3	0xbc5aa518	-0.0133450255
4	0xbddfd0ea	-0.10928519
5	0xbe148a17	-0.14505802
6	0xbcd712be	-0.026254054
7	0xbcd370ae	-0.025810566
8	0xbd9e139a	-0.077185825
9	0xbc3a6d38	-0.011378579
10	0xbd08e0b4	-0.03341742
11	0x3c694287	0.014237053
12	0xbca7b822	-0.020473544
13	0xbda90266	-0.082524106
14	0xbd5be450	-0.053684533
15	0xbe262a98	-0.16227186
16	0x3ba9e522	0.0051847855
17	0xbdc349cd	-0.09535561
18	0x3dc7260b	0.09724053
19	0x3e182533	0.1485794
20	0x3c3859b3	0.011251855
21	0x3d337501	0.043812755
22	0x3e1e36d6	0.15450606
23	0xbd72f640	-0.059316874
24	0xbe2d6059	-0.16931285
25	0xbd044f74	-0.032302335
26	0x3e837206	0.2567293
27	0xbd42f2f8	-0.047594994
28	0x3d852546	0.0650125
29	0x3d0fbb40	0.035090685
30	0xbde595c7	-0.112102084
31	0xbc65fd7c	-0.014037486
32	0x3e0b486c	0.13601846
33	0xbd82a74a	-0.06379564
34	0xbc86ea10	-0.016469032
35	0xbd4ce5b3	-0.050023746
36	0xbd661c99	-0.056179617
37	0xbccd1653	-0.02503506
38	0x3e0fa2eb	0.14026992
39	0x3cc3f2f8	0.023919567
40	0x3ddd5872	0.10807885
41	0x3c9404dd	0.018068725
42	0x3ccfdc5b	0.025373628
43	0xbdbe76ff	-0.093000405
44	0xbdc2003e	-0.094727024
45	0x3db671f5	0.08908454
46	0x3e5576ee	0.2084615
47	0xbca6847b	-0.020326843
48	0x3db5c6f0	0.08875835
49	0xbc5da35c	-0.013527717
50	0xbe400585	-0.18752106
51	0xbdebaa4d	-0.11507092
52	0xbd760a26	-0.060068272
53	0xbda080ca	-0.078370646
54	0x3c71277e	0.014718888
55	0x3e53abd4	0.20671016
56	0xbd557cc1	-0.052120928
57	0xbdaa628c	-0.083195776
58	0xbc0f6c33	-0.008753824
59	0xbca11064	-0.019661136
60	0xbe26199c	-0.16220707
61	0x3d0e84d7	0.034794655
62	0xbd1f956f	-0.03896087
63	0xbdd32f5f	-0.1031177
64	0xbc41bd87	-0.011824972
65	0x3d6f47ac	0.05841796
66	0x3dce1943	0.10063412
67	0xbcead556	-0.02866618
68	0xbd1fed49	-0.039044652
69	0xbd26925f	-0.040666934
70	0xbd5d5443	-0.054035436
71	0xbcd165d1	-0.025561245
72	0x3a25f9c9	0.00063314714
73	0xbd9370ad	-0.071992256
74	0x3ba6f456	0.005095045
75	0x3cdaead3	0.026723301
76	0xbce007df	-0.027347503
77	0x3dc52cd3	0.0962769
78	0x3d4c051c	0.04980956
79	0xbb34f73f	-0.002761319
80	0xbd24af47	-0.04020622
81	0xbd32575b	-0.04354034
82	0x3d3549e1	0.04425991
83	0x3d7355c1	0.059407953
84	0xbd91f312	-0.0712644
85	0x3d317ee4	0.043333903
86	0x3d4f9f0b	0.050688785
87	0xbbe6e0f6	-0.0070458604
88	0xbdb6ea65	-0.08931426
89	0x3d6599a8	0.05605474
90	0x3e970dfe	0.29502863
91	0x3d963672	0.07334603
92	0x3db0c60c	0.086315244
93	0x3e1df5c9	0.15425791
94	0xbd47dea0	-0.048796296
95	0xbd657b94	-0.056026056
96	0xbdc1f2b8	-0.09470123
97	0xbd06d40b	-0.032917064
98	0x3e439718	0.19100606
99	0x3e8cf9bb	0.2753428
100	0xbd894b7d	-0.06703851
101	0xbd3ff144	-0.04686095
102	0xbe2a39dd	-0.16623636
103	0xbd573f5f	-0.05255067
104	0x3db16e4e	0.08663617
105	0xbe005fe0	-0.12536573
106	0x3d4f2ed6	0.050581776
107	0x3cf75216	0.030190509
108	0x3c0b9d5a	0.008521402
109	0xbce0baef	-0.027432887
110	0x3cefd9eb	0.029278716
111	0x3c9b776d	0.018977845
112	0xbc2b8f70	-0.01047121
113	0xbdaa2d6b	-0.08309444
114	0xbd96d926	-0.073656365
115	0x3d1b5a56	0.037927948
116	0x3c2ca659	0.010537707
117	0xbc2d49ac	-0.010576647
118	0x3bae9510	0.005327828
119	0xbd98d3b0	-0.07462251
120	0x3dc244db	0.094857894
121	0x3bd3f80b	0.006468778
122	0x3e6b37a9	0.22970451
123	0xbc14744c	-0.00906093
124	0x3cc62c8e	0.024191167
125	0x3caa18f7	0.020763857
126	0xbd2cc03d	-0.04217552
127	0xbdad4e8d	-0.08462248
128	0x3b6df56c	0.0036309613
129	0x3b90abce	0.004415012
130	0x3cd61682	0.02613378
131	0x3b35f14a	0.0027762228
132	0x3ddeaa98	0.10872382
133	0x3df57347	0.11984878
134	0x3d4fc901	0.0507288
135	0x3c90e4fa	0.01768731
136	0x3d956de3	0.0729635
137	0x3c3fb666	0.011701202
138	0x3d155f6b	0.03646795
139	0xbbfaf560	-0.0076586455
140	0x3c251171	0.010074959
141	0x3d912e46	0.07088904
142	0x3d9113aa	0.07083829
143	0x3e1b0b8a	0.1514112
144	0xbcdff6d8	-0.027339384
145	0x3da7db81	0.08196164
146	0xbdbb0122	-0.091310754
147	0xbe2f5374	-0.17121679
148	0xbb4b5651	-0.003102679
149	0xbd1e3a74	-0.038629964
150	0xbe1d9d94	-0.15392143
151	0x3d90a5d4	0.07062879
152	0x3e2846fe	0.16433331
153	0x3c931279	0.017953144
154	0xbe8556d6	-0.26042813
155	0x3d2dfaef	0.042475637
156	0xbd81c819	-0.06336994
157	0xbccdff07	-0.02514602
158	0x3dcb7fc6	0.0993648
159	0x3c24c8c7	0.010057635
160	0xbe04f35a	-0.12983456
161	0x3d9c4cf9	0.07631869
162	0x3ced5912	0.028973136
163	0x3d76d566	0.060262106
164	0x3d47cede	0.04878127
165	0x3d07ea3a	0.03318236
166	0xbe01a920	-0.12662172
167	0xbd13879b	-0.036017995
168	0xbdecf0cb	-0.11569365
169	0x3a29f303	0.000648305
170	0xbd0204a2	-0.0317427
171	0x3db712be	0.08939122
172	0x3dde9bbc	0.10869548
173	0xbdbc934c	-0.09207782
174	0xbe5a1f9d	-0.21301122
175	0x3d01d4cb	0.031697076
176	0xbdba8415	-0.09107224
177	0x3c037ee2	0.008025857
178	0x3e41f7ea	0.18942228
179	0x3dc08309	0.09399993
180	0x3d189a03	0.037256252
181	0x3dbe8283	0.09302237
182	0xbd12c750	-0.03583461
183	0xbe4ec82a	-0.20193544
184	0x3d842807	0.06452947
185	0x3d975b42	0.07390453
186	0x3a481db3	0.000763382
187	0x3b3c3651	0.0028718899
188	0x3e0bc7d4	0.13650447
189	0xbd3076c2	-0.043082006
190	0x3d1a78d4	0.037712887
191	0x3dd22656	0.10261218
192	0x3c81d01b	0.015846303
193	0xbd414668	-0.047186285
194	0xbdb7bfa4	-0.089720994
195	0x3c96e5e3	0.018420165
196	0x3d3037cb	0.04302196
197	0x3d1c04c7	0.038090494
198	0x3d8166b0	0.06318414
199	0x3c0097a9	0.007848659
200	0xbc6064f5	-0.013695945
201	0x3dba21fc	0.09088513
202	0xbcb5cce4	-0.022192426
203	0xbc8aa1f1	-0.016922923
204	0x3d33e481	0.04391909
205	0xbde1d22e	-0.11026417
206	0xbd8ebd72	-0.069697276
207	0x3af37232	0.0018573462
208	0x3d0f6b06	0.035014175
209	0x3d25a967	0.040444758
210	0xbd37b2b2	-0.04484815
211	0xbd4d8dc5	-0.05018403
212	0x3da6dd45	0.081476726
213	0xbd00612f	-0.03134268
214	0xbd4a1185	-0.049333114
215	0x3c4ecc24	0.012621913
216	0x3dc5e240	0.096622944
217	0xbd6157a5	-0.055015225
218	0xbe9923e0	-0.29910183
219	0xbd86754e	-0.06565343
220	0xbdc1bb6a	-0.094595745
221	0xbe1a81f5	-0.15088637
222	0x3d4ba2ab	0.04971568
223	0x3d93e344	0.07221082
224	0x3dc5dc06	0.09661107
225	0x3d434126	0.047669552
226	0xbe423456	-0.18965277
227	0xbe929c97	-0.28635094
228	0x3db1b9a1	0.08677984
229	0x3d29ee40	0.04148698
230	0x3e290392	0.16505268
231	0x3d570235	0.05249234
232	0xbda9203c	-0.08258101
233	0x3e0f530f	0.13996528
234	0xbd60d84f	-0.054893788
235	0xbcf02b8f	-0.029317645
236	0x3895b88d	7.139249e-05
237	0x3cb5c3c2	0.022188071
238	0xbd089577	-0.033345666
239	0xbca9f0d4	-0.020744719
240	0x3c1541a7	0.009109891
241	0x3dc8da87	0.09807306
242	0x3dac554c	0.084147066
243	0xbcfcffde	-0.030883726
244	0xbd1b98b8	-0.03798744
245	0xbb28d15b	-0.0025759551
246	0xbd157098	-0.03648433
247	0x3db77220	0.089573145
248	0xbdafb8bb	-0.085801564
249	0xbd055dd8	-0.0325602
250	0xbe6fbe28	-0.23412383
251	0x3a96123b	0.0011449525
252	0xbd0dd93c	-0.034631
253	0xbcbbd8cc	-0.022930525
254	0x3d6d89fc	0.05799292
255	0x3d95305e	0.07284616

network_body._body_endoder.seq_layers.0.bias f4 [128]
0	0xbd05bcd6	-0.03265079
1	0xbc8ea637	-0.017413242
2	0xbd324e55	-0.043531734
3	0xbc3d059e	-0.011536984
4	0xbbf887f6	-0.007584567
5	0xbc522c77	-0.012827984
6	0x3ceb7bc6	0.028745543
7	0x3c4b9a38	0.012426905
8	0x3c0853d0	0.008320764
9	0xbd5ba571	-0.053624574
10	0xbca0a93a	-0.019611944
11	0xbae5d71d	-0.0017535422
12	0xbccabf57	-0.024749441
13	0xbc20516a	-0.009785036
14	0xba61d8f9	-0.00086154003
15	0xbc18d5c4	-0.009328309
16	0x3ce9ddd4	0.028548159
17	0xbd872832	-0.065994635
18	0xbc81b67d	-0.015834088
19	0x3cd240fe	0.025665756
20	0x3c5db3e2	0.013531657
21	0xbd0fa0c9	-0.035065446
22	0x3cf2abd3	0.029622948
23	0xbc057f23	-0.008147988
24	0x3c9803be	0.018556472
25	0x3b436c56	0.0029819212
26	0xbca1b664	-0.019740291
27	0xbd326a04	-0.043558136
28	0xbd3370cc	-0.043808743
29	0x3c24299a	0.010019684
30	0xbbf52232	-0.007480883
31	0x3bdeeaeb	0.0068029067
32	0xbd4eadf7	-0.050458875
33	0x3c5d87c9	0.013521143
34	0xbc4a1e28	-0.012336291
35	0x3c8ad717	0.016948266
36	0x3d28b351	0.041186634
37	0xbbeb43ef	-0.007179729
38	0x3cd9f06d	0.026603902
39	0x3c07c062	0.008285614
40	0xbc7a9120	-0.01529339
41	0xbd449c01	-0.04800034
42	0xbccae648	-0.02476801
43	0xbc8eeaa5	-0.017445872
44	0x3c9824f6	0.018572312
45	0xbd2cfe6e	-0.04223483
46	0x3c334273	0.010941136
47	0x3b5f01b7	0.0034028122
48	0xbd646c69	-0.05576745
49	0x3d063fcc	0.032775685
50	0xbcbc1984	-0.022961386
51	0xbc4d7d17	-0.012542031
52	0x3ce2d3da	0.02768891
53	0x3cb47b90	0.022031575
54	0x3c128423	0.008942637
55	0xbadbdaf1	-0.0016773624
56	0xbadbbaf3	-0.0016764089
57	0xbcb73cce	-0.022367861
58	0xbb922a37	-0.004460599
59	0x3c0822b4	0.008309055
60	0x3c724e86	0.014789229
61	0xbd10f380	-0.03538847
62	0xbc029455	-0.007969935
63	0xbda616ab	-0.08109792
64	0x3c99ec4a	0.01878943
65	0x3b5a5d0c	0.003331962
66	0xbd3362c4	-0.043795362
67	0xbcc541dd	-0.024079258
68	0xbbec6221	-0.0072138463
69	0xbc8626b9	-0.016375886
70	0xbab3c026	-0.0013713881
71	0xbd06a8b0	-0.032875717
72	0xbd30262a	-0.043005146
73	0xbc389eeb	-0.011268358
74	0x3c549b63	0.0129765
75	0xbc99d160	-0.018776596
76	0x3c64cd5c	0.013964977
77	0xbc60f61b	-0.013730551
78	0xbbf96a6c	-0.0076115634
79	0xbd3aa614	-0.04556854
80	0xbd3d422e	-0.046205692
81	0xbd00aa07	-0.03141215
82	0x3ad1987b	0.0015990877
83	0xbd25631e	-0.04037773
84	0xbc82b1b0	-0.015953869
85	0x3cdfb444	0.027307637
86	0x3d47cc8b	0.04877905
87	0x3c4149d8	0.011797391
88	0xbc0a555c	-0.008443203
89	0xbb5f2e8a	-0.003405484
90	0x3cda5627	0.026652409
91	0xbd07596c	-0.033044264
92	0x3c69f329	0.014279165
93	0xbb6652a0	-0.0035144463
94	0x3bd8f3f4	0.0066208784
95	0xbca93892	-0.020656858
96	0x3c3b2c63	0.011424157
97	0x3ca1b34a	0.019738812
98	0x3b8f4d09	0.004373197
99	0xbc732857	-0.014841161
100	0x3cdadab3	0.026715612
101	0x3a872ea0	0.0010313578
102	0xbd89cd0a	-0.06728561
103	0x3bce13b7	0.0062889713
104	0xbc978ccb	-0.018499753
105	0x3cc42b18	0.02394633
106	0x3c8d1dc0	0.0172261
107	0x3cdcecfd	0.026968474
108	0xbd0d175e	-0.034446113
109	0x39635dc9	0.00021683345
110	0x3d15428d	0.03644042
111	0x3b813985	0.0039436244
112	0xbbcdef24	-0.0062846113
113	0x3c99cd1c	0.018774562
114	0x3c7b88cf	0.015352442
115	0xbd128d92	-0.035779543
116	0x3ca51ad4	0.020154394
117	0x3cdccb55	0.026952425
118	0xbcb8069a	-0.022464085
119	0xbcb665a6	-0.022265267
120	0xbcc4013c	-0.02392637
121	0xbcc4d52b	-0.024027428
122	0x3b917f26	0.004440206
123	0x3c295af8	0.01033663
124	0xbc21b6d3	-0.009870249
125	0xbc83d4b5	-0.016092638
126	0x3d06c060	0.032898307
127	0xbc04ff07	-0.008117444

network_body._body_endoder.seq_layers.0.weight f4 [128, 458]
0	0x3cf9f4af	0.030512182
1	0xbdc27294	-0.0949451
2	0xbddb381e	-0.10704063
3	0xbd833f6e	-0.06408583
4	0xbc1bb4e8	-0.009503581
5	0x3c2f914d	0.010715795
6	0xbd058573	-0.03259797
7	0x3d1a02a3	0.03760017
8	0xbd29b01c	-0.041427717
9	0xbde6b3b3	-0.11264744
10	0xbdbc5417	-0.09195726
11	0x3b2c65a8	0.002630571
12	0xbd7d26da	-0.06180463
13	0x3dfbf310	0.1230222
14	0xbd66e5a6	-0.056371354
15	0x3deb9313	0.115026616
16	0xbe2a931c	-0.1665768
17	0xbc4c9dc4	-0.012488786
18	0xbe13b4ba	-0.1442441
19	0xbe3eca49	-0.18631853
20	0xbc642294	-0.01392426
21	0xbd22a72d	-0.039710212
22	0xbd874b03	-0.06606104
23	0xbc29a57c	-0.010354396
24	0xbdb651c2	-0.08902313
25	0xbe501367	-0.20319901
26	0x3c906c7c	0.017629854
27	0xbd0c0d77	-0.03419253
28	0x3e5beeb3	0.21477775
29	0xbda6ca01	-0.08143998
30	0x3e70497e	0.23465535
31	0xbe560904	-0.20901877
32	0xbcd079be	-0.025448676
33	0xbe8fa617	-0.28056404
34	0xbe73b55c	-0.23799652
35	0x3d88a9b3	0.066729926
36	0xbe350ede	-0.17681453
37	0xbb90f7e3	-0.0044240816
38	0x3d965fe0	0.073425055
39	0xbe10a0c8	-0.14123833
40	0x3e90ba69	0.2826722
41	0xbdd85e09	-0.10564811
42	0xbdcc7584	-0.09983352
43	0xbe1d8770	-0.15383697
44	0xbe5cfb9b	-0.21580355
45	0xbdcbdf53	-0.09954705
46	0x3ce5fe43	0.028075343
47	0xbce47975	-0.027889946
48	0xbd1bc2e9	-0.038027678
49	0xbe0a6fb1	-0.1351917
50	0x3ec5494a	0.38532478
51	0xbeb5b5b8	-0.35490203
52	0xbe21de99	-0.1580757
53	0xbe2ea552	-0.17055252
54	0xbed84a46	-0.42244166
55	0xbdbff939	-0.09373707
56	0xbd18e25a	-0.03732524
57	0xbdbbfe08	-0.09179312
58	0x3e466b08	0.19376767
59	0xbd8653e2	-0.06558968
60	0x3e8020bf	0.25024983
61	0xbe5b003e	-0.21386811
62	0xbdb1bf74	-0.08679095
63	0xbe43d416	-0.19123873
64	0xbebb4b85	-0.36581054
65	0x3c647f01	0.013946296
66	0xbdc6e0e0	-0.0971086
67	0xbd81d4b8	-0.06339401
68	0xbd950107	-0.072755866
69	0xbdf51510	-0.11966908
70	0xbda07f56	-0.078367874
71	0xbbe7b212	-0.007070788
72	0xbd8a918d	-0.06766043
73	0xbde20574	-0.11036196
74	0xbdda71c3	-0.106662296
75	0xbd93178d	-0.07182226
76	0xbdf75683	-0.12077048
77	0xbc2259bc	-0.00990909
78	0xbb3173fa	-0.0027077184
79	0xbdc7a2f8	-0.09747881
80	0xbe5866bd	-0.21132942
81	0x3d571457	0.052509632
82	0xbc8bb120	-0.017052233
83	0x3d56cdf6	0.052442513
84	0xbd576d5b	-0.052594524
85	0x3cdece5c	0.02719801
86	0xbda03b5d	-0.07823823
87	0xbdb79b3a	-0.08965154
88	0x3d046721	0.032324914
89	0x3cb54fe2	0.022132818
90	0xbd09805a	-0.03356967
91	0x3d6851bf	0.056718584
92	0x3c184bcf	0.009295418
93	0xbc8e4e40	-0.017371297
94	0xbda7aa2f	-0.08186757
95	0xbd387d53	-0.045041393
96	0xbd63494c	-0.055489823
97	0xbbe21757	-0.006899755
98	0xbd043c56	-0.032284103
99	0xbd2cd352	-0.04219372
100	0x3ddede14	0.10882202
101	0xbd95831c	-0.07300398
102	0x3da7400f	0.08166515
103	0xba267fe7	-0.00063514564
104	0xbd425e6f	-0.04745334
105	0x3c89d65f	0.016825853
106	0x3dcd0c8c	0.10012159
107	0xbc72658e	-0.01479472
108	0xbc7c67e8	-0.015405633
109	0xbd42fcfd	-0.04760455
110	0xbd5e20a4	-0.054230347
111	0x3d2e68cc	0.04258041
112	0x3d5169e1	0.051126365
113	0xbe0023a5	-0.12513597
114	0xbcaf013b	-0.021362891
115	0xbd95383b	-0.07286116
116	0x3c3acb5b	0.011401023
117	0xbdd194b2	-0.102334395
118	0xbd5e64d9	-0.054295395
119	0xbd93c115	-0.07214562
120	0x3ca46688	0.020068422
121	0xbde3cca3	-0.11123016
122	0xbbb563ad	-0.005535564
123	0xbd18f13d	-0.037339438
124	0x3dadd581	0.08487988
125	0xba0dd4b8	-0.00054104207
126	0xbd396ce4	-0.04526986
127	0x3c0136f6	0.007886639
128	0x3d587526	0.052846096
129	0xbd657832	-0.05602283
130	0xbd7e61f7	-0.062105145
131	0xbdbca125	-0.092104234
132	0x3d23a32e	0.039950542
133	0xbc7117e8	-0.014715172
134	0xbc0ed4b6	-0.008717706
135	0x3cadb901	0.02120638
136	0xbcd1de59	-0.025618719
137	0xbb9e8453	-0.0048375516
138	0xbc92664c	-0.017871045
139	0xbd3f13e7	-0.04664984
140	0xbda51e07	-0.08062368
141	0xbd852fac	-0.06503233
142	0x3d3efac3	0.046625864
143	0x3d1ee9d4	0.038797215
144	0x3d23c4f3	0.039982747
145	0xbd845c45	-0.064629115
146	0xbc04f203	-0.008114341
147	0x3da0e093	0.07855334
148	0xbc401091	-0.0117227
149	0xbdc06b38	-0.0939545
150	0x3b4e5b3a	0.003148748
151	0xbd86bcaa	-0.065789536
152	0xbdcd2631	-0.1001705
153	0x3ceccb57	0.028905554
154	0xbdffdcfa	-0.1249332
155	0x3d53a467	0.05167046
156	0xbce6c96e	-0.028172221
157	0x3a2e302f	0.0006644753
158	0xbd65bf97	-0.056090917
159	0xbddedb08	-0.10881621
160	0xbe211719	-0.15731467
161	0xbd225abc	-0.039637312
162	0xbd9e8e45	-0.077419795
163	0x3b080f9a	0.0020761252
164	0xbd1fefef	-0.039047178
165	0x3cdfafd9	0.02730553
166	0xbd4f46ad	-0.05060451
167	0xbc358d7d	-0.011081097
168	0x3cf0f863	0.029415315
169	0xbddecd49	-0.10878999
170	0xbd5300d5	-0.051514465
171	0xbdcfaa0c	-0.10139856
172	0x3b851654	0.0040614996
173	0x3d56300a	0.052291907
174	0xbc02c9ef	-0.007982715
175	0x3d55bac4	0.052180067
176	0x3bfa567f	0.0076397057
177	0xbda2124b	-0.07913645
178	0xbd07602d	-0.033050705
179	0xbd2ff6c2	-0.042959936
180	0xbd8f6a92	-0.070027485
181	0xbd6a4b05	-0.05720045
182	0x3d45e187	0.048310783
183	0x3d2ba413	0.04190452
184	0x3c05b242	0.008160176
185	0xbd74037a	-0.059573628
186	0x3dd2a060	0.10284495
187	0x3d6bf0c0	0.057602644
188	0xbd30507d	-0.04304551
189	0xbd97c0d8	-0.07409829
190	0xbca1425d	-0.019684965
191	0xbd757bc2	-0.059932478
192	0x3d2a02d6	0.04150661
193	0x3d259f05	0.040434856
194	0xbdc16b8a	-0.094443396
195	0xbd868fee	-0.06570421
196	0x3d80acf8	0.06282991
197	0x3c57129c	0.013126995
198	0xbd150a72	-0.036386915
199	0x3c67f388	0.0141571835
200	0x3d6cce5c	0.057813987
201	0xbda80c7a	-0.08205505
202	0xbcad2612	-0.021136317
203	0x3b4e4fbd	0.0031480633
204	0xbc937ccf	-0.01800385
205	0xbc0b049d	-0.008484987
206	0x3c3e4c4f	0.011614873
207	0xbced5b7e	-0.028974291
208	0xbd9276c9	-0.07151563
209	0xbd2737a3	-0.040824544
210	0xbd6ad276	-0.057329617
211	0x3d86982c	0.06571993
212	0xbe2c34fc	-0.16817087
213	0x3d2df1c5	0.042466898
214	0x3dc06911	0.0939504
215	0xbb694750	-0.0035595484
216	0x3be7e00e	0.00707627
217	0xbd50e075	-0.05099531
218	0xbd8455e7	-0.06461697
219	0xbdca4ae5	-0.09877566
220	0x3d5929c6	0.053018354
221	0xbd219263	-0.039446246
222	0xbd650e93	-0.055922102
223	0xbdf9e647	-0.12202125
224	0xbcbee912	-0.023304496
225	0x3d43325e	0.047655456
226	0x3d8366ce	0.06416093
227	0xbdf696f4	-0.12040511
228	0xbe45f04f	-0.19329952
229	0xbbcbda03	-0.0062210574
230	0xbd2d3792	-0.042289324
231	0xbcf93796	-0.030422013
232	0x3c821889	0.01588084
233	0x3c9ee8a9	0.01939805
234	0x3c1b20b0	0.0094682425
235	0x3d298a36	0.041391574
236	0xbe20e791	-0.15713336
237	0x3c107ddd	0.008819071
238	0x3cad0e11	0.021124871
239	0xbdee508a	-0.11636455
240	0x3d6d61f0	0.05795473
241	0xbdd73b7e	-0.10509394
242	0xbcbe10fd	-0.02320146
243	0x3d9ca9af	0.07649552
244	0x3d73286f	0.059364732
245	0x3d38197b	0.044946175
246	0x3d59c150	0.053162873
247	0x3cf349d0	0.029698282
248	0xbc909b13	-0.01765207
249	0xbe2978d6	-0.16550002
250	0xbd7750a6	-0.060379647
251	0xbdc14040	-0.09436083
252	0x3c927b28	0.017880991
253	0x3cce56e4	0.025187917
254	0x3cc344e1	0.023836555
255	0x3ca2d31c	0.019876055

network_body._body_endoder.seq_layers.2.bias f4 [128]
0	0x3bd88494	0.0066076014
1	0xbd34ea08	-0.044168502
2	0xbcc99dd9	-0.0246114
3	0x3a3eec41	0.00072831294
4	0xbba78fc5	-0.005113574
5	0x3d8192ae	0.06326805
6	0xbce389ee	-0.027775731
7	0xbd8d8fc5	-0.069121875
8	0xbd109b3f	-0.035304304
9	0x3d2ceb0c	0.042216346
10	0x3bdb1e63	0.006686972
11	0xbcae53aa	-0.021280129
12	0x3ab76c10	0.0013993997
13	0xbcd1262f	-0.025530903
14	0x3cf15a90	0.029462129
15	0x3c9a76dc	0.018855505
16	0x3c4ce5a7	0.012505925
17	0x3b867a51	0.0041039367
18	0xbb60cec2	-0.0034302925
19	0xbca8bfd5	-0.020599285
20	0xbd7b9611	-0.06142241
21	0x3c47a9a6	0.012186443
22	0x3d1cb75f	0.038260814
23	0xbc3b4b2c	-0.011431497
24	0xbbe8132c	-0.0070823636
25	0xbc160883	-0.009157303
26	0x3ce47418	0.027887389
27	0xbd01758b	-0.03160624
28	0xbd33359e	-0.043752305
29	0xbb777d4b	-0.003776389
30	0x3d163c7e	0.036678784
31	0xbcbad087	-0.022804512
32	0xbc33e2bc	-0.010979351
33	0xbcca0e7d	-0.024665112
34	0xbc438097	-0.011932514
35	0x3caf8748	0.021426812
36	0x3b8a8f53	0.0042285114
37	0xbcaca6ec	-0.021075688
38	0x3d74e5ad	0.05978935
39	0xbd86d6bb	-0.06583925
40	0xbc00df9a	-0.007865811
41	0xbc3653c8	-0.011128373
42	0x3d3dee2b	0.046369713
43	0x3c45a057	0.012062154
44	0x3ce717d6	0.028209608
45	0xbd1c2718	-0.03812322
46	0xbabf661a	-0.0014602572
47	0x3c02bfd7	0.0079803085
48	0x3addb437	0.001691467
49	0xbc8a8aca	-0.016911883
50	0xbc81a4a2	-0.015825573
51	0xbd1e268d	-0.038610984
52	0xbc079aac	-0.008276623
53	0xbbff6388	-0.0077938475
54	0xbcac5a1c	-0.021039061
55	0x3c2d17c8	0.010564752
56	0x3ca9c234	0.020722486
57	0xbc30985a	-0.010778511
58	0x3c80249d	0.015642459
59	0x3cd2a8d6	0.025715273
60	0xbbdd5a28	-0.006755132
61	0x3ca08c0c	0.01959803
62	0xbb83bc8b	-0.004020279
63	0xbca75d01	-0.02043009
64	0xbd27425e	-0.040834777
65	0xbd8a5263	-0.06753995
66	0x3cb04cf3	0.021521067
67	0x3c6fc6e9	0.014634826
68	0xbc6fa6b6	-0.014627149
69	0xbd3373d1	-0.043811623
70	0xbd038a9b	-0.032114606
71	0xbda9eb09	-0.082967825
72	0xbd48e972	-0.049050756
73	0x3c4dc198	0.012558363
74	0xbd07e007	-0.033172633
75	0xbcf9d74e	-0.030498173
76	0xbc570c57	-0.013125501
77	0x3cba883b	0.022770038
78	0x3c75635a	0.014977301
79	0xbce3ae76	-0.02779315
80	0xbd81144c	-0.063026994
81	0x3c9650f7	0.018349154
82	0x3d222026	0.03958144
83	0xbba54df1	-0.0050446917
84	0xbc8a3e8f	-0.016875533
85	0xbb55f150	-0.0032645054
86	0xbd065afe	-0.03280162
87	0xbd26c6e6	-0.040717028
88	0xbd50a599	-0.050939176
89	0x3cb5157a	0.022104967
90	0x3c1b2ad8	0.009470664
91	0x3d249c5e	0.040188186
92	0x3c07044f	0.008240773
93	0xbd385a3b	-0.045007925
94	0x3b9a9465	0.004717397
95	0xbc0aef55	-0.008479913
96	0xbd1c7cf2	-0.038205095
97	0x3c6297bc	0.013830122
98	0xbcadeb69	-0.021230416
99	0x3d8cea11	0.06880582
100	0xbc53a467	-0.012917615
101	0xbd15ac40	-0.036541224
102	0xbc5506f7	-0.013002149
103	0xbd9f6e7a	-0.077847436
104	0xbd24c717	-0.04022893
105	0x3b9a6907	0.0047122273
106	0xbbb31a3b	-0.0054657734
107	0xbb8af680	-0.004240811
108	0x3c8869dc	0.01665204
109	0xbcef0b05	-0.02918006
110	0x3cb0e93b	0.021595588
111	0x3cb53aa9	0.022122698
112	0x3ca4e211	0.020127328
113	0xbaa672f7	-0.0012699057
114	0xbd7f5a2e	-0.06234186
115	0xbc02da43	-0.007986608
116	0xbc070062	-0.008239837
117	0xbc868d56	-0.016424816
118	0xbd91541c	-0.07096121
119	0xbcd68749	-0.026187556
120	0xbcbd7411	-0.023126634
121	0xbcfa2573	-0.030535435
122	0x3c9cb82c	0.019130789
123	0xbca44811	-0.020053895
124	0x3c70a1a2	0.014686974
125	0x3cd63b01	0.026151182
126	0xbd8608be	-0.06544636
127	0xbb7a9016	-0.0038232855

network_body._body_endoder.seq_layers.2.weight f4 [128, 128]
0	0x3d002d34	0.03129311
1	0x3d9d4617	0.07679384
2	0xbe85f436	-0.2616288
3	0xbe481fc7	-0.19543372
4	0xbd361265	-0.044451136
5	0x3b67844b	0.0035326655
6	0xbd1e5efc	-0.038664803
7	0x3d6b38a2	0.057427056
8	0xbce95b13	-0.02848581
9	0xbe23e211	-0.16004206
10	0xbdf03783	-0.11729338
11	0x3d80ec73	0.06295099
12	0x3d3134d1	0.04326326
13	0x3d967c75	0.07347957
14	0xbd85b2cd	-0.06528244
15	0xbd83c180	-0.064333916
16	0x3e094ff3	0.13409404
17	0xbc04c238	-0.008102946
18	0x3e008695	0.12551339
19	0xbe7d83ba	-0.24757281
20	0xbe350a83	-0.17679791
21	0xbceaddad	-0.028670156
22	0xbdc68178	-0.09692663
23	0x3d26090e	0.04053598
24	0x3d2510a8	0.040299088
25	0x3e3d857c	0.18507951
26	0xbd4f4699	-0.050604437
27	0x3cc1f16c	0.02367469
28	0x3cc22703	0.023700243
29	0xbd215275	-0.039385278
30	0xbe30fd6c	-0.17284173
31	0xbdebcadf	-0.11513304
32	0xbdb88d3d	-0.09011314
33	0xbc275597	-0.010213277
34	0xbdd3d085	-0.10342506
35	0x3e065613	0.13118772
36	0x3dbe8498	0.09302634
37	0x3c264982	0.010149362
38	0x3d8630b0	0.06552255
39	0xbe4901e7	-0.19629632
40	0xbde3d4e4	-0.1112459
41	0xbe3a01a6	-0.18164691
42	0xbe816249	-0.25270298
43	0x3e0d9950	0.13828015
44	0x3d4e1bb8	0.050319403
45	0xb9b6844f	-0.00034812323
46	0xbc9c5f44	-0.019088395
47	0xbd0b5bb5	-0.034023006
48	0xbdd55def	-0.10418307
49	0xbe3112fe	-0.17292401
50	0xbd449cc2	-0.04800106
51	0xbdb9e03d	-0.09075973
52	0xbd017f34	-0.03161545
53	0x3de90187	0.113772444
54	0xbe20bc87	-0.15696917
55	0xbbc10af6	-0.005891199
56	0xbcfb73ec	-0.030694924
57	0xbd2c7246	-0.042101167
58	0xbb6f1485	-0.0036480736
59	0xbe14846f	-0.14503644
60	0x3ddc1568	0.107462704
61	0xbd888c6a	-0.06667407
62	0x3db3755d	0.0876262
63	0x3e0a0e9e	0.13482139
64	0xbe1d1ea3	-0.15343718
65	0x3d914224	0.070926934
66	0xbc2f3928	-0.010694779
67	0xbe2eb994	-0.1706298
68	0xbdd12f4f	-0.102141015
69	0xbd561dc5	-0.052274484
70	0xbd4e066d	-0.050299097
71	0xbae7c94b	-0.0017683891
72	0xbd95b380	-0.073096275
73	0xbe1eda9e	-0.15513083
74	0x3db9d1f7	0.09073251
75	0xbc7be7f7	-0.015375129
76	0xb938dfdb	-0.00017631
77	0x3e49d4d6	0.19710097
78	0xbdfef83f	-0.12449693
79	0x3d8169ce	0.06319009
80	0x3da3a3f9	0.0799026
81	0x3e1e05cd	0.154319
82	0xbe23df4c	-0.1600315
83	0xbd9320e5	-0.071840085
84	0xbc1bd482	-0.009511115
85	0x3d75f4ad	0.060047794
86	0x3e301d3c	0.17198652
87	0x3d01a5a0	0.031652093
88	0xbe2569e1	-0.16153671
89	0xbe1ecd1e	-0.15507933
90	0xbd2ba615	-0.041906435
91	0xbdb116ee	-0.086469516
92	0x3c99fe66	0.018798064
93	0xbd808a00	-0.062763214
94	0xbe2238a9	-0.15841927
95	0x3d9c3801	0.076278694
96	0xbe5285a0	-0.20558786
97	0xbde9fec3	-0.11425545
98	0xbc804e43	-0.015662318
99	0xbe0497f2	-0.12948588
100	0xbe2184bc	-0.1577329
101	0xbd9be65d	-0.07612298
102	0xba51f1d0	-0.000800875
103	0x3d1b8da0	0.03797686
104	0x3d03bb8b	0.032161277
105	0x3c9181d4	0.017762102
106	0x3d0e0c13	0.034679484
107	0x3e29dd15	0.16588242
108	0xbd7b2e16	-0.061323248
109	0xbda0ae22	-0.07845713
110	0xbe29c22e	-0.1657798
111	0xbdd565d0	-0.1041981
112	0xbe4ef55d	-0.20210786
113	0x3d0c0087	0.03418019
114	0x3da8bbb3	0.08238926
115	0xbdaafa63	-0.08348539
116	0x3c2970d4	0.010341842
117	0x3d5a9b4e	0.053370766
118	0xbccb3be0	-0.024808824
119	0xbd07e49e	-0.03317701
120	0xbd34d27e	-0.044146053
121	0x3c1d65ef	0.009606822
122	0x3d877cf8	0.06615633
123	0xbd14f503	-0.036366474
124	0xbc3cf7b0	-0.011533663
125	0xbd754afa	-0.059885956
126	0xbd4b8aba	-0.049692847
127	0xbd862297	-0.06549566
128	0x3c96951e	0.018381651
129	0xbe49a949	-0.19693483
130	0xbce896a6	-0.028392147
131	0x3d9ec27b	0.07751938
132	0xbc21d16c	-0.00987659
133	0xbcfbf65b	-0.03075712
134	0xbde07ecd	-0.10961685
135	0xbd5e667a	-0.054296948
136	0xbe73d1bc	-0.23810476
137	0xbd392269	-0.04519883
138	0xbe4fea0d	-0.20304127
139	0xbd785d7b	-0.060636025
140	0xbc4d1d0c	-0.012519132
141	0xbda43960	-0.08018756
142	0x3db48f95	0.088164486
143	0x3d8d628c	0.06903562
144	0x3d2a7eee	0.041624956
145	0xbdf7b786	-0.12095551
146	0xbe0d2f14	-0.1378749
147	0xbd88c733	-0.06678619
148	0x3d22f19b	0.039781194
149	0xbdffe8f2	-0.12495603
150	0x3e142a2c	0.14469212
151	0xbe267e4f	-0.1625912
152	0xbce05bfe	-0.027387615
153	0xbdc96c85	-0.098351516
154	0xbde8c0c9	-0.11364896
155	0x3de7744d	0.113014795
156	0x3d38d378	0.045123547
157	0xbdb510fc	-0.0884113
158	0xbdf4905b	-0.11941596
159	0x3d3d43c6	0.046207212
160	0x3e10e813	0.1415103
161	0xbd290439	-0.041263793
162	0xbd216044	-0.039398447
163	0x3dedd9ad	0.11613784
164	0xbe1a7ddd	-0.15087076
165	0x3d2211cf	0.039567765
166	0xbd8819cd	-0.06645546
167	0xbcf29bed	-0.029615367
168	0xbab6c7c9	-0.0013945039
169	0xbd5b606d	-0.053558756
170	0x3d5727f5	0.05252834
171	0x3d932520	0.071848154
172	0x3d024710	0.03180605
173	0xbd925991	-0.0714599
174	0x3cb17383	0.021661526
175	0xbc3b9c32	-0.011450814
176	0xbda2b16a	-0.07943995
177	0x3d9408bf	0.07228231
178	0xbd4a94da	-0.049458362
179	0xbe5ad545	-0.21370418
180	0xbdad951f	-0.08475708
181	0xbe3d9863	-0.18515162
182	0xbe1ff440	-0.15620518
183	0x3db09ff4	0.08624259
184	0x3e07c2d6	0.13257918
185	0xbba9a8b8	-0.0051775835
186	0xbdcc0d50	-0.09963477
187	0xbdcd213c	-0.100161046
188	0x3eaba810	0.3352666
189	0x3c760380	0.015015483
190	0xbc0c5daa	-0.008567253
191	0x3e4b6e31	0.19866253
192	0x3d06ddbc	0.032926306
193	0x3e161deb	0.1465985
194	0x3ae289b4	0.001728347
195	0xbdf1e5c6	-0.11811404
196	0x3bc3559e	0.005961134
197	0x3da91438	0.082558095
198	0xbe81a7c0	-0.25323296
199	0xbdcf6216	-0.1012613
200	0xbda2e421	-0.079536684
201	0x3d7b7dbc	0.061399207
202	0x3d9e8934	0.07741013
203	0xbd2f49fa	-0.04279516
204	0xbe8d072e	-0.2754454
205	0xbdbe7c1f	-0.09301018
206	0x3d18531d	0.037188638
207	0xbd2a850a	-0.041630782
208	0xbda7eb79	-0.0819921
209	0x3c254248	0.010086603
210	0xbdfc3e90	-0.1231662
211	0x3dbfd184	0.09366134
212	0xbdcea70c	-0.100904554
213	0x3e060397	0.13087307
214	0x3e30d79c	0.17269748
215	0xbe6d53c7	-0.2317649
216	0x3e688535	0.22707064
217	0xbe06a965	-0.13150556
218	0x3e0cbb58	0.13743341
219	0x3e58f6b0	0.21187854
220	0x3d87fd99	0.06640167
221	0xbd92beb2	-0.071652785
222	0xbd4b0492	-0.049564905
223	0xbd090423	-0.03345121
224	0xbdd63657	-0.10459583
225	0xbd4673e3	-0.048450362
226	0xbdb0fea9	-0.086423226
227	0x3df45797	0.11930769
228	0xbde9d987	-0.11418443
229	0xbdb751a0	-0.089511156
230	0xbd917d41	-0.071039684
231	0xbdf0ab69	-0.11751444
232	0x3d90f9e3	0.07078912
233	0xbd819a2e	-0.063282356
234	0x3cdb8ad6	0.0267996
235	0xbc1d807f	-0.009613155
236	0x3d5e467f	0.05426645
237	0x3d8d3181	0.06894208
238	0x3bb03eca	0.005378579
239	0xbe8d7aa0	-0.27632618
240	0x3c4aea2a	0.012384931
241	0xbd8c9a3e	-0.06865357
242	0x3d0c0770	0.03418678
243	0x3d608def	0.05482286
244	0x3d9ee8df	0.077592604
245	0xbe4600ff	-0.19336317
246	0xbdc4ba74	-0.096058756
247	0x3d08bfdf	0.033386108
248	0x3dea3048	0.1143499
249	0xbdac7780	-0.0842123
250	0x3d03eea2	0.03221
251	0x3d13fb10	0.036128104
252	0xbdbf63b6	-0.0934519
253	0x3d36c516	0.04462155
254	0xbe1ee06a	-0.15515295
255	0xbaa11a10	-0.0012291092
